7767517
999 1782
Input                    input.1                  0 1 data
Convolution      /model/model.0/Conv      1 1 data /model/model.0/Conv_output_0 0=64 1=3 4=1 5=1 6=1728
Split            splitncnn_0              1 8 /model/model.0/Conv_output_0 /model/model.0/Conv_output_0_splitncnn_0 /model/model.0/Conv_output_0_splitncnn_1 /model/model.0/Conv_output_0_splitncnn_2 /model/model.0/Conv_output_0_splitncnn_3 /model/model.0/Conv_output_0_splitncnn_4 /model/model.0/Conv_output_0_splitncnn_5 /model/model.0/Conv_output_0_splitncnn_6 /model/model.0/Conv_output_0_splitncnn_7
Convolution      /model/model.1/sub/sub.0/RDB1/conv1/conv1.0/Conv 1 1 /model/model.0/Conv_output_0_splitncnn_7 /model/model.1/sub/sub.0/RDB1/conv1/conv1.1/LeakyRelu_output_0 0=32 1=3 4=1 5=1 6=18432 9=2 -23310=1,2.000000e-01
Split            splitncnn_1              1 4 /model/model.1/sub/sub.0/RDB1/conv1/conv1.1/LeakyRelu_output_0 /model/model.1/sub/sub.0/RDB1/conv1/conv1.1/LeakyRelu_output_0_splitncnn_0 /model/model.1/sub/sub.0/RDB1/conv1/conv1.1/LeakyRelu_output_0_splitncnn_1 /model/model.1/sub/sub.0/RDB1/conv1/conv1.1/LeakyRelu_output_0_splitncnn_2 /model/model.1/sub/sub.0/RDB1/conv1/conv1.1/LeakyRelu_output_0_splitncnn_3
Concat           /model/model.1/sub/sub.0/RDB1/Concat 2 1 /model/model.0/Conv_output_0_splitncnn_6 /model/model.1/sub/sub.0/RDB1/conv1/conv1.1/LeakyRelu_output_0_splitncnn_3 /model/model.1/sub/sub.0/RDB1/Concat_output_0
Convolution      /model/model.1/sub/sub.0/RDB1/conv2/conv2.0/Conv 1 1 /model/model.1/sub/sub.0/RDB1/Concat_output_0 /model/model.1/sub/sub.0/RDB1/conv2/conv2.1/LeakyRelu_output_0 0=32 1=3 4=1 5=1 6=27648 9=2 -23310=1,2.000000e-01
Split            splitncnn_2              1 3 /model/model.1/sub/sub.0/RDB1/conv2/conv2.1/LeakyRelu_output_0 /model/model.1/sub/sub.0/RDB1/conv2/conv2.1/LeakyRelu_output_0_splitncnn_0 /model/model.1/sub/sub.0/RDB1/conv2/conv2.1/LeakyRelu_output_0_splitncnn_1 /model/model.1/sub/sub.0/RDB1/conv2/conv2.1/LeakyRelu_output_0_splitncnn_2
Concat           /model/model.1/sub/sub.0/RDB1/Concat_1 3 1 /model/model.0/Conv_output_0_splitncnn_5 /model/model.1/sub/sub.0/RDB1/conv1/conv1.1/LeakyRelu_output_0_splitncnn_2 /model/model.1/sub/sub.0/RDB1/conv2/conv2.1/LeakyRelu_output_0_splitncnn_2 /model/model.1/sub/sub.0/RDB1/Concat_1_output_0
Convolution      /model/model.1/sub/sub.0/RDB1/conv3/conv3.0/Conv 1 1 /model/model.1/sub/sub.0/RDB1/Concat_1_output_0 /model/model.1/sub/sub.0/RDB1/conv3/conv3.1/LeakyRelu_output_0 0=32 1=3 4=1 5=1 6=36864 9=2 -23310=1,2.000000e-01
Split            splitncnn_3              1 2 /model/model.1/sub/sub.0/RDB1/conv3/conv3.1/LeakyRelu_output_0 /model/model.1/sub/sub.0/RDB1/conv3/conv3.1/LeakyRelu_output_0_splitncnn_0 /model/model.1/sub/sub.0/RDB1/conv3/conv3.1/LeakyRelu_output_0_splitncnn_1
Concat           /model/model.1/sub/sub.0/RDB1/Concat_2 4 1 /model/model.0/Conv_output_0_splitncnn_4 /model/model.1/sub/sub.0/RDB1/conv1/conv1.1/LeakyRelu_output_0_splitncnn_1 /model/model.1/sub/sub.0/RDB1/conv2/conv2.1/LeakyRelu_output_0_splitncnn_1 /model/model.1/sub/sub.0/RDB1/conv3/conv3.1/LeakyRelu_output_0_splitncnn_1 /model/model.1/sub/sub.0/RDB1/Concat_2_output_0
Convolution      /model/model.1/sub/sub.0/RDB1/conv4/conv4.0/Conv 1 1 /model/model.1/sub/sub.0/RDB1/Concat_2_output_0 /model/model.1/sub/sub.0/RDB1/conv4/conv4.1/LeakyRelu_output_0 0=32 1=3 4=1 5=1 6=46080 9=2 -23310=1,2.000000e-01
Concat           /model/model.1/sub/sub.0/RDB1/Concat_3 5 1 /model/model.0/Conv_output_0_splitncnn_3 /model/model.1/sub/sub.0/RDB1/conv1/conv1.1/LeakyRelu_output_0_splitncnn_0 /model/model.1/sub/sub.0/RDB1/conv2/conv2.1/LeakyRelu_output_0_splitncnn_0 /model/model.1/sub/sub.0/RDB1/conv3/conv3.1/LeakyRelu_output_0_splitncnn_0 /model/model.1/sub/sub.0/RDB1/conv4/conv4.1/LeakyRelu_output_0 /model/model.1/sub/sub.0/RDB1/Concat_3_output_0
Convolution      /model/model.1/sub/sub.0/RDB1/conv5/conv5.0/Conv 1 1 /model/model.1/sub/sub.0/RDB1/Concat_3_output_0 /model/model.1/sub/sub.0/RDB1/conv5/conv5.0/Conv_output_0 0=64 1=3 4=1 5=1 6=110592
Eltwise          /model/model.1/sub/sub.0/RDB1/Add 2 1 /model/model.1/sub/sub.0/RDB1/conv5/conv5.0/Conv_output_0 /model/model.0/Conv_output_0_splitncnn_2 /model/model.1/sub/sub.0/RDB1/Add_output_0 0=1 -23301=2,2.000000e-01,1.000000e+00
Split            splitncnn_4              1 6 /model/model.1/sub/sub.0/RDB1/Add_output_0 /model/model.1/sub/sub.0/RDB1/Add_output_0_splitncnn_0 /model/model.1/sub/sub.0/RDB1/Add_output_0_splitncnn_1 /model/model.1/sub/sub.0/RDB1/Add_output_0_splitncnn_2 /model/model.1/sub/sub.0/RDB1/Add_output_0_splitncnn_3 /model/model.1/sub/sub.0/RDB1/Add_output_0_splitncnn_4 /model/model.1/sub/sub.0/RDB1/Add_output_0_splitncnn_5
Convolution      /model/model.1/sub/sub.0/RDB2/conv1/conv1.0/Conv 1 1 /model/model.1/sub/sub.0/RDB1/Add_output_0_splitncnn_5 /model/model.1/sub/sub.0/RDB2/conv1/conv1.1/LeakyRelu_output_0 0=32 1=3 4=1 5=1 6=18432 9=2 -23310=1,2.000000e-01
Split            splitncnn_5              1 4 /model/model.1/sub/sub.0/RDB2/conv1/conv1.1/LeakyRelu_output_0 /model/model.1/sub/sub.0/RDB2/conv1/conv1.1/LeakyRelu_output_0_splitncnn_0 /model/model.1/sub/sub.0/RDB2/conv1/conv1.1/LeakyRelu_output_0_splitncnn_1 /model/model.1/sub/sub.0/RDB2/conv1/conv1.1/LeakyRelu_output_0_splitncnn_2 /model/model.1/sub/sub.0/RDB2/conv1/conv1.1/LeakyRelu_output_0_splitncnn_3
Concat           /model/model.1/sub/sub.0/RDB2/Concat 2 1 /model/model.1/sub/sub.0/RDB1/Add_output_0_splitncnn_4 /model/model.1/sub/sub.0/RDB2/conv1/conv1.1/LeakyRelu_output_0_splitncnn_3 /model/model.1/sub/sub.0/RDB2/Concat_output_0
Convolution      /model/model.1/sub/sub.0/RDB2/conv2/conv2.0/Conv 1 1 /model/model.1/sub/sub.0/RDB2/Concat_output_0 /model/model.1/sub/sub.0/RDB2/conv2/conv2.1/LeakyRelu_output_0 0=32 1=3 4=1 5=1 6=27648 9=2 -23310=1,2.000000e-01
Split            splitncnn_6              1 3 /model/model.1/sub/sub.0/RDB2/conv2/conv2.1/LeakyRelu_output_0 /model/model.1/sub/sub.0/RDB2/conv2/conv2.1/LeakyRelu_output_0_splitncnn_0 /model/model.1/sub/sub.0/RDB2/conv2/conv2.1/LeakyRelu_output_0_splitncnn_1 /model/model.1/sub/sub.0/RDB2/conv2/conv2.1/LeakyRelu_output_0_splitncnn_2
Concat           /model/model.1/sub/sub.0/RDB2/Concat_1 3 1 /model/model.1/sub/sub.0/RDB1/Add_output_0_splitncnn_3 /model/model.1/sub/sub.0/RDB2/conv1/conv1.1/LeakyRelu_output_0_splitncnn_2 /model/model.1/sub/sub.0/RDB2/conv2/conv2.1/LeakyRelu_output_0_splitncnn_2 /model/model.1/sub/sub.0/RDB2/Concat_1_output_0
Convolution      /model/model.1/sub/sub.0/RDB2/conv3/conv3.0/Conv 1 1 /model/model.1/sub/sub.0/RDB2/Concat_1_output_0 /model/model.1/sub/sub.0/RDB2/conv3/conv3.1/LeakyRelu_output_0 0=32 1=3 4=1 5=1 6=36864 9=2 -23310=1,2.000000e-01
Split            splitncnn_7              1 2 /model/model.1/sub/sub.0/RDB2/conv3/conv3.1/LeakyRelu_output_0 /model/model.1/sub/sub.0/RDB2/conv3/conv3.1/LeakyRelu_output_0_splitncnn_0 /model/model.1/sub/sub.0/RDB2/conv3/conv3.1/LeakyRelu_output_0_splitncnn_1
Concat           /model/model.1/sub/sub.0/RDB2/Concat_2 4 1 /model/model.1/sub/sub.0/RDB1/Add_output_0_splitncnn_2 /model/model.1/sub/sub.0/RDB2/conv1/conv1.1/LeakyRelu_output_0_splitncnn_1 /model/model.1/sub/sub.0/RDB2/conv2/conv2.1/LeakyRelu_output_0_splitncnn_1 /model/model.1/sub/sub.0/RDB2/conv3/conv3.1/LeakyRelu_output_0_splitncnn_1 /model/model.1/sub/sub.0/RDB2/Concat_2_output_0
Convolution      /model/model.1/sub/sub.0/RDB2/conv4/conv4.0/Conv 1 1 /model/model.1/sub/sub.0/RDB2/Concat_2_output_0 /model/model.1/sub/sub.0/RDB2/conv4/conv4.1/LeakyRelu_output_0 0=32 1=3 4=1 5=1 6=46080 9=2 -23310=1,2.000000e-01
Concat           /model/model.1/sub/sub.0/RDB2/Concat_3 5 1 /model/model.1/sub/sub.0/RDB1/Add_output_0_splitncnn_1 /model/model.1/sub/sub.0/RDB2/conv1/conv1.1/LeakyRelu_output_0_splitncnn_0 /model/model.1/sub/sub.0/RDB2/conv2/conv2.1/LeakyRelu_output_0_splitncnn_0 /model/model.1/sub/sub.0/RDB2/conv3/conv3.1/LeakyRelu_output_0_splitncnn_0 /model/model.1/sub/sub.0/RDB2/conv4/conv4.1/LeakyRelu_output_0 /model/model.1/sub/sub.0/RDB2/Concat_3_output_0
Convolution      /model/model.1/sub/sub.0/RDB2/conv5/conv5.0/Conv 1 1 /model/model.1/sub/sub.0/RDB2/Concat_3_output_0 /model/model.1/sub/sub.0/RDB2/conv5/conv5.0/Conv_output_0 0=64 1=3 4=1 5=1 6=110592
Eltwise          /model/model.1/sub/sub.0/RDB2/Add 2 1 /model/model.1/sub/sub.0/RDB2/conv5/conv5.0/Conv_output_0 /model/model.1/sub/sub.0/RDB1/Add_output_0_splitncnn_0 /model/model.1/sub/sub.0/RDB2/Add_output_0 0=1 -23301=2,2.000000e-01,1.000000e+00
Split            splitncnn_8              1 6 /model/model.1/sub/sub.0/RDB2/Add_output_0 /model/model.1/sub/sub.0/RDB2/Add_output_0_splitncnn_0 /model/model.1/sub/sub.0/RDB2/Add_output_0_splitncnn_1 /model/model.1/sub/sub.0/RDB2/Add_output_0_splitncnn_2 /model/model.1/sub/sub.0/RDB2/Add_output_0_splitncnn_3 /model/model.1/sub/sub.0/RDB2/Add_output_0_splitncnn_4 /model/model.1/sub/sub.0/RDB2/Add_output_0_splitncnn_5
Convolution      /model/model.1/sub/sub.0/RDB3/conv1/conv1.0/Conv 1 1 /model/model.1/sub/sub.0/RDB2/Add_output_0_splitncnn_5 /model/model.1/sub/sub.0/RDB3/conv1/conv1.1/LeakyRelu_output_0 0=32 1=3 4=1 5=1 6=18432 9=2 -23310=1,2.000000e-01
Split            splitncnn_9              1 4 /model/model.1/sub/sub.0/RDB3/conv1/conv1.1/LeakyRelu_output_0 /model/model.1/sub/sub.0/RDB3/conv1/conv1.1/LeakyRelu_output_0_splitncnn_0 /model/model.1/sub/sub.0/RDB3/conv1/conv1.1/LeakyRelu_output_0_splitncnn_1 /model/model.1/sub/sub.0/RDB3/conv1/conv1.1/LeakyRelu_output_0_splitncnn_2 /model/model.1/sub/sub.0/RDB3/conv1/conv1.1/LeakyRelu_output_0_splitncnn_3
Concat           /model/model.1/sub/sub.0/RDB3/Concat 2 1 /model/model.1/sub/sub.0/RDB2/Add_output_0_splitncnn_4 /model/model.1/sub/sub.0/RDB3/conv1/conv1.1/LeakyRelu_output_0_splitncnn_3 /model/model.1/sub/sub.0/RDB3/Concat_output_0
Convolution      /model/model.1/sub/sub.0/RDB3/conv2/conv2.0/Conv 1 1 /model/model.1/sub/sub.0/RDB3/Concat_output_0 /model/model.1/sub/sub.0/RDB3/conv2/conv2.1/LeakyRelu_output_0 0=32 1=3 4=1 5=1 6=27648 9=2 -23310=1,2.000000e-01
Split            splitncnn_10             1 3 /model/model.1/sub/sub.0/RDB3/conv2/conv2.1/LeakyRelu_output_0 /model/model.1/sub/sub.0/RDB3/conv2/conv2.1/LeakyRelu_output_0_splitncnn_0 /model/model.1/sub/sub.0/RDB3/conv2/conv2.1/LeakyRelu_output_0_splitncnn_1 /model/model.1/sub/sub.0/RDB3/conv2/conv2.1/LeakyRelu_output_0_splitncnn_2
Concat           /model/model.1/sub/sub.0/RDB3/Concat_1 3 1 /model/model.1/sub/sub.0/RDB2/Add_output_0_splitncnn_3 /model/model.1/sub/sub.0/RDB3/conv1/conv1.1/LeakyRelu_output_0_splitncnn_2 /model/model.1/sub/sub.0/RDB3/conv2/conv2.1/LeakyRelu_output_0_splitncnn_2 /model/model.1/sub/sub.0/RDB3/Concat_1_output_0
Convolution      /model/model.1/sub/sub.0/RDB3/conv3/conv3.0/Conv 1 1 /model/model.1/sub/sub.0/RDB3/Concat_1_output_0 /model/model.1/sub/sub.0/RDB3/conv3/conv3.1/LeakyRelu_output_0 0=32 1=3 4=1 5=1 6=36864 9=2 -23310=1,2.000000e-01
Split            splitncnn_11             1 2 /model/model.1/sub/sub.0/RDB3/conv3/conv3.1/LeakyRelu_output_0 /model/model.1/sub/sub.0/RDB3/conv3/conv3.1/LeakyRelu_output_0_splitncnn_0 /model/model.1/sub/sub.0/RDB3/conv3/conv3.1/LeakyRelu_output_0_splitncnn_1
Concat           /model/model.1/sub/sub.0/RDB3/Concat_2 4 1 /model/model.1/sub/sub.0/RDB2/Add_output_0_splitncnn_2 /model/model.1/sub/sub.0/RDB3/conv1/conv1.1/LeakyRelu_output_0_splitncnn_1 /model/model.1/sub/sub.0/RDB3/conv2/conv2.1/LeakyRelu_output_0_splitncnn_1 /model/model.1/sub/sub.0/RDB3/conv3/conv3.1/LeakyRelu_output_0_splitncnn_1 /model/model.1/sub/sub.0/RDB3/Concat_2_output_0
Convolution      /model/model.1/sub/sub.0/RDB3/conv4/conv4.0/Conv 1 1 /model/model.1/sub/sub.0/RDB3/Concat_2_output_0 /model/model.1/sub/sub.0/RDB3/conv4/conv4.1/LeakyRelu_output_0 0=32 1=3 4=1 5=1 6=46080 9=2 -23310=1,2.000000e-01
Concat           /model/model.1/sub/sub.0/RDB3/Concat_3 5 1 /model/model.1/sub/sub.0/RDB2/Add_output_0_splitncnn_1 /model/model.1/sub/sub.0/RDB3/conv1/conv1.1/LeakyRelu_output_0_splitncnn_0 /model/model.1/sub/sub.0/RDB3/conv2/conv2.1/LeakyRelu_output_0_splitncnn_0 /model/model.1/sub/sub.0/RDB3/conv3/conv3.1/LeakyRelu_output_0_splitncnn_0 /model/model.1/sub/sub.0/RDB3/conv4/conv4.1/LeakyRelu_output_0 /model/model.1/sub/sub.0/RDB3/Concat_3_output_0
Convolution      /model/model.1/sub/sub.0/RDB3/conv5/conv5.0/Conv 1 1 /model/model.1/sub/sub.0/RDB3/Concat_3_output_0 /model/model.1/sub/sub.0/RDB3/conv5/conv5.0/Conv_output_0 0=64 1=3 4=1 5=1 6=110592
Eltwise          /model/model.1/sub/sub.0/RDB3/Add 2 1 /model/model.1/sub/sub.0/RDB3/conv5/conv5.0/Conv_output_0 /model/model.1/sub/sub.0/RDB2/Add_output_0_splitncnn_0 /model/model.1/sub/sub.0/RDB3/Add_output_0 0=1 -23301=2,2.000000e-01,1.000000e+00
Eltwise          /model/model.1/sub/sub.0/Add 2 1 /model/model.1/sub/sub.0/RDB3/Add_output_0 /model/model.0/Conv_output_0_splitncnn_1 /model/model.1/sub/sub.0/Add_output_0 0=1 -23301=2,2.000000e-01,1.000000e+00
Split            splitncnn_12             1 7 /model/model.1/sub/sub.0/Add_output_0 /model/model.1/sub/sub.0/Add_output_0_splitncnn_0 /model/model.1/sub/sub.0/Add_output_0_splitncnn_1 /model/model.1/sub/sub.0/Add_output_0_splitncnn_2 /model/model.1/sub/sub.0/Add_output_0_splitncnn_3 /model/model.1/sub/sub.0/Add_output_0_splitncnn_4 /model/model.1/sub/sub.0/Add_output_0_splitncnn_5 /model/model.1/sub/sub.0/Add_output_0_splitncnn_6
Convolution      /model/model.1/sub/sub.1/RDB1/conv1/conv1.0/Conv 1 1 /model/model.1/sub/sub.0/Add_output_0_splitncnn_6 /model/model.1/sub/sub.1/RDB1/conv1/conv1.1/LeakyRelu_output_0 0=32 1=3 4=1 5=1 6=18432 9=2 -23310=1,2.000000e-01
Split            splitncnn_13             1 4 /model/model.1/sub/sub.1/RDB1/conv1/conv1.1/LeakyRelu_output_0 /model/model.1/sub/sub.1/RDB1/conv1/conv1.1/LeakyRelu_output_0_splitncnn_0 /model/model.1/sub/sub.1/RDB1/conv1/conv1.1/LeakyRelu_output_0_splitncnn_1 /model/model.1/sub/sub.1/RDB1/conv1/conv1.1/LeakyRelu_output_0_splitncnn_2 /model/model.1/sub/sub.1/RDB1/conv1/conv1.1/LeakyRelu_output_0_splitncnn_3
Concat           /model/model.1/sub/sub.1/RDB1/Concat 2 1 /model/model.1/sub/sub.0/Add_output_0_splitncnn_5 /model/model.1/sub/sub.1/RDB1/conv1/conv1.1/LeakyRelu_output_0_splitncnn_3 /model/model.1/sub/sub.1/RDB1/Concat_output_0
Convolution      /model/model.1/sub/sub.1/RDB1/conv2/conv2.0/Conv 1 1 /model/model.1/sub/sub.1/RDB1/Concat_output_0 /model/model.1/sub/sub.1/RDB1/conv2/conv2.1/LeakyRelu_output_0 0=32 1=3 4=1 5=1 6=27648 9=2 -23310=1,2.000000e-01
Split            splitncnn_14             1 3 /model/model.1/sub/sub.1/RDB1/conv2/conv2.1/LeakyRelu_output_0 /model/model.1/sub/sub.1/RDB1/conv2/conv2.1/LeakyRelu_output_0_splitncnn_0 /model/model.1/sub/sub.1/RDB1/conv2/conv2.1/LeakyRelu_output_0_splitncnn_1 /model/model.1/sub/sub.1/RDB1/conv2/conv2.1/LeakyRelu_output_0_splitncnn_2
Concat           /model/model.1/sub/sub.1/RDB1/Concat_1 3 1 /model/model.1/sub/sub.0/Add_output_0_splitncnn_4 /model/model.1/sub/sub.1/RDB1/conv1/conv1.1/LeakyRelu_output_0_splitncnn_2 /model/model.1/sub/sub.1/RDB1/conv2/conv2.1/LeakyRelu_output_0_splitncnn_2 /model/model.1/sub/sub.1/RDB1/Concat_1_output_0
Convolution      /model/model.1/sub/sub.1/RDB1/conv3/conv3.0/Conv 1 1 /model/model.1/sub/sub.1/RDB1/Concat_1_output_0 /model/model.1/sub/sub.1/RDB1/conv3/conv3.1/LeakyRelu_output_0 0=32 1=3 4=1 5=1 6=36864 9=2 -23310=1,2.000000e-01
Split            splitncnn_15             1 2 /model/model.1/sub/sub.1/RDB1/conv3/conv3.1/LeakyRelu_output_0 /model/model.1/sub/sub.1/RDB1/conv3/conv3.1/LeakyRelu_output_0_splitncnn_0 /model/model.1/sub/sub.1/RDB1/conv3/conv3.1/LeakyRelu_output_0_splitncnn_1
Concat           /model/model.1/sub/sub.1/RDB1/Concat_2 4 1 /model/model.1/sub/sub.0/Add_output_0_splitncnn_3 /model/model.1/sub/sub.1/RDB1/conv1/conv1.1/LeakyRelu_output_0_splitncnn_1 /model/model.1/sub/sub.1/RDB1/conv2/conv2.1/LeakyRelu_output_0_splitncnn_1 /model/model.1/sub/sub.1/RDB1/conv3/conv3.1/LeakyRelu_output_0_splitncnn_1 /model/model.1/sub/sub.1/RDB1/Concat_2_output_0
Convolution      /model/model.1/sub/sub.1/RDB1/conv4/conv4.0/Conv 1 1 /model/model.1/sub/sub.1/RDB1/Concat_2_output_0 /model/model.1/sub/sub.1/RDB1/conv4/conv4.1/LeakyRelu_output_0 0=32 1=3 4=1 5=1 6=46080 9=2 -23310=1,2.000000e-01
Concat           /model/model.1/sub/sub.1/RDB1/Concat_3 5 1 /model/model.1/sub/sub.0/Add_output_0_splitncnn_2 /model/model.1/sub/sub.1/RDB1/conv1/conv1.1/LeakyRelu_output_0_splitncnn_0 /model/model.1/sub/sub.1/RDB1/conv2/conv2.1/LeakyRelu_output_0_splitncnn_0 /model/model.1/sub/sub.1/RDB1/conv3/conv3.1/LeakyRelu_output_0_splitncnn_0 /model/model.1/sub/sub.1/RDB1/conv4/conv4.1/LeakyRelu_output_0 /model/model.1/sub/sub.1/RDB1/Concat_3_output_0
Convolution      /model/model.1/sub/sub.1/RDB1/conv5/conv5.0/Conv 1 1 /model/model.1/sub/sub.1/RDB1/Concat_3_output_0 /model/model.1/sub/sub.1/RDB1/conv5/conv5.0/Conv_output_0 0=64 1=3 4=1 5=1 6=110592
Eltwise          /model/model.1/sub/sub.1/RDB1/Add 2 1 /model/model.1/sub/sub.1/RDB1/conv5/conv5.0/Conv_output_0 /model/model.1/sub/sub.0/Add_output_0_splitncnn_1 /model/model.1/sub/sub.1/RDB1/Add_output_0 0=1 -23301=2,2.000000e-01,1.000000e+00
Split            splitncnn_16             1 6 /model/model.1/sub/sub.1/RDB1/Add_output_0 /model/model.1/sub/sub.1/RDB1/Add_output_0_splitncnn_0 /model/model.1/sub/sub.1/RDB1/Add_output_0_splitncnn_1 /model/model.1/sub/sub.1/RDB1/Add_output_0_splitncnn_2 /model/model.1/sub/sub.1/RDB1/Add_output_0_splitncnn_3 /model/model.1/sub/sub.1/RDB1/Add_output_0_splitncnn_4 /model/model.1/sub/sub.1/RDB1/Add_output_0_splitncnn_5
Convolution      /model/model.1/sub/sub.1/RDB2/conv1/conv1.0/Conv 1 1 /model/model.1/sub/sub.1/RDB1/Add_output_0_splitncnn_5 /model/model.1/sub/sub.1/RDB2/conv1/conv1.1/LeakyRelu_output_0 0=32 1=3 4=1 5=1 6=18432 9=2 -23310=1,2.000000e-01
Split            splitncnn_17             1 4 /model/model.1/sub/sub.1/RDB2/conv1/conv1.1/LeakyRelu_output_0 /model/model.1/sub/sub.1/RDB2/conv1/conv1.1/LeakyRelu_output_0_splitncnn_0 /model/model.1/sub/sub.1/RDB2/conv1/conv1.1/LeakyRelu_output_0_splitncnn_1 /model/model.1/sub/sub.1/RDB2/conv1/conv1.1/LeakyRelu_output_0_splitncnn_2 /model/model.1/sub/sub.1/RDB2/conv1/conv1.1/LeakyRelu_output_0_splitncnn_3
Concat           /model/model.1/sub/sub.1/RDB2/Concat 2 1 /model/model.1/sub/sub.1/RDB1/Add_output_0_splitncnn_4 /model/model.1/sub/sub.1/RDB2/conv1/conv1.1/LeakyRelu_output_0_splitncnn_3 /model/model.1/sub/sub.1/RDB2/Concat_output_0
Convolution      /model/model.1/sub/sub.1/RDB2/conv2/conv2.0/Conv 1 1 /model/model.1/sub/sub.1/RDB2/Concat_output_0 /model/model.1/sub/sub.1/RDB2/conv2/conv2.1/LeakyRelu_output_0 0=32 1=3 4=1 5=1 6=27648 9=2 -23310=1,2.000000e-01
Split            splitncnn_18             1 3 /model/model.1/sub/sub.1/RDB2/conv2/conv2.1/LeakyRelu_output_0 /model/model.1/sub/sub.1/RDB2/conv2/conv2.1/LeakyRelu_output_0_splitncnn_0 /model/model.1/sub/sub.1/RDB2/conv2/conv2.1/LeakyRelu_output_0_splitncnn_1 /model/model.1/sub/sub.1/RDB2/conv2/conv2.1/LeakyRelu_output_0_splitncnn_2
Concat           /model/model.1/sub/sub.1/RDB2/Concat_1 3 1 /model/model.1/sub/sub.1/RDB1/Add_output_0_splitncnn_3 /model/model.1/sub/sub.1/RDB2/conv1/conv1.1/LeakyRelu_output_0_splitncnn_2 /model/model.1/sub/sub.1/RDB2/conv2/conv2.1/LeakyRelu_output_0_splitncnn_2 /model/model.1/sub/sub.1/RDB2/Concat_1_output_0
Convolution      /model/model.1/sub/sub.1/RDB2/conv3/conv3.0/Conv 1 1 /model/model.1/sub/sub.1/RDB2/Concat_1_output_0 /model/model.1/sub/sub.1/RDB2/conv3/conv3.1/LeakyRelu_output_0 0=32 1=3 4=1 5=1 6=36864 9=2 -23310=1,2.000000e-01
Split            splitncnn_19             1 2 /model/model.1/sub/sub.1/RDB2/conv3/conv3.1/LeakyRelu_output_0 /model/model.1/sub/sub.1/RDB2/conv3/conv3.1/LeakyRelu_output_0_splitncnn_0 /model/model.1/sub/sub.1/RDB2/conv3/conv3.1/LeakyRelu_output_0_splitncnn_1
Concat           /model/model.1/sub/sub.1/RDB2/Concat_2 4 1 /model/model.1/sub/sub.1/RDB1/Add_output_0_splitncnn_2 /model/model.1/sub/sub.1/RDB2/conv1/conv1.1/LeakyRelu_output_0_splitncnn_1 /model/model.1/sub/sub.1/RDB2/conv2/conv2.1/LeakyRelu_output_0_splitncnn_1 /model/model.1/sub/sub.1/RDB2/conv3/conv3.1/LeakyRelu_output_0_splitncnn_1 /model/model.1/sub/sub.1/RDB2/Concat_2_output_0
Convolution      /model/model.1/sub/sub.1/RDB2/conv4/conv4.0/Conv 1 1 /model/model.1/sub/sub.1/RDB2/Concat_2_output_0 /model/model.1/sub/sub.1/RDB2/conv4/conv4.1/LeakyRelu_output_0 0=32 1=3 4=1 5=1 6=46080 9=2 -23310=1,2.000000e-01
Concat           /model/model.1/sub/sub.1/RDB2/Concat_3 5 1 /model/model.1/sub/sub.1/RDB1/Add_output_0_splitncnn_1 /model/model.1/sub/sub.1/RDB2/conv1/conv1.1/LeakyRelu_output_0_splitncnn_0 /model/model.1/sub/sub.1/RDB2/conv2/conv2.1/LeakyRelu_output_0_splitncnn_0 /model/model.1/sub/sub.1/RDB2/conv3/conv3.1/LeakyRelu_output_0_splitncnn_0 /model/model.1/sub/sub.1/RDB2/conv4/conv4.1/LeakyRelu_output_0 /model/model.1/sub/sub.1/RDB2/Concat_3_output_0
Convolution      /model/model.1/sub/sub.1/RDB2/conv5/conv5.0/Conv 1 1 /model/model.1/sub/sub.1/RDB2/Concat_3_output_0 /model/model.1/sub/sub.1/RDB2/conv5/conv5.0/Conv_output_0 0=64 1=3 4=1 5=1 6=110592
Eltwise          /model/model.1/sub/sub.1/RDB2/Add 2 1 /model/model.1/sub/sub.1/RDB2/conv5/conv5.0/Conv_output_0 /model/model.1/sub/sub.1/RDB1/Add_output_0_splitncnn_0 /model/model.1/sub/sub.1/RDB2/Add_output_0 0=1 -23301=2,2.000000e-01,1.000000e+00
Split            splitncnn_20             1 6 /model/model.1/sub/sub.1/RDB2/Add_output_0 /model/model.1/sub/sub.1/RDB2/Add_output_0_splitncnn_0 /model/model.1/sub/sub.1/RDB2/Add_output_0_splitncnn_1 /model/model.1/sub/sub.1/RDB2/Add_output_0_splitncnn_2 /model/model.1/sub/sub.1/RDB2/Add_output_0_splitncnn_3 /model/model.1/sub/sub.1/RDB2/Add_output_0_splitncnn_4 /model/model.1/sub/sub.1/RDB2/Add_output_0_splitncnn_5
Convolution      /model/model.1/sub/sub.1/RDB3/conv1/conv1.0/Conv 1 1 /model/model.1/sub/sub.1/RDB2/Add_output_0_splitncnn_5 /model/model.1/sub/sub.1/RDB3/conv1/conv1.1/LeakyRelu_output_0 0=32 1=3 4=1 5=1 6=18432 9=2 -23310=1,2.000000e-01
Split            splitncnn_21             1 4 /model/model.1/sub/sub.1/RDB3/conv1/conv1.1/LeakyRelu_output_0 /model/model.1/sub/sub.1/RDB3/conv1/conv1.1/LeakyRelu_output_0_splitncnn_0 /model/model.1/sub/sub.1/RDB3/conv1/conv1.1/LeakyRelu_output_0_splitncnn_1 /model/model.1/sub/sub.1/RDB3/conv1/conv1.1/LeakyRelu_output_0_splitncnn_2 /model/model.1/sub/sub.1/RDB3/conv1/conv1.1/LeakyRelu_output_0_splitncnn_3
Concat           /model/model.1/sub/sub.1/RDB3/Concat 2 1 /model/model.1/sub/sub.1/RDB2/Add_output_0_splitncnn_4 /model/model.1/sub/sub.1/RDB3/conv1/conv1.1/LeakyRelu_output_0_splitncnn_3 /model/model.1/sub/sub.1/RDB3/Concat_output_0
Convolution      /model/model.1/sub/sub.1/RDB3/conv2/conv2.0/Conv 1 1 /model/model.1/sub/sub.1/RDB3/Concat_output_0 /model/model.1/sub/sub.1/RDB3/conv2/conv2.1/LeakyRelu_output_0 0=32 1=3 4=1 5=1 6=27648 9=2 -23310=1,2.000000e-01
Split            splitncnn_22             1 3 /model/model.1/sub/sub.1/RDB3/conv2/conv2.1/LeakyRelu_output_0 /model/model.1/sub/sub.1/RDB3/conv2/conv2.1/LeakyRelu_output_0_splitncnn_0 /model/model.1/sub/sub.1/RDB3/conv2/conv2.1/LeakyRelu_output_0_splitncnn_1 /model/model.1/sub/sub.1/RDB3/conv2/conv2.1/LeakyRelu_output_0_splitncnn_2
Concat           /model/model.1/sub/sub.1/RDB3/Concat_1 3 1 /model/model.1/sub/sub.1/RDB2/Add_output_0_splitncnn_3 /model/model.1/sub/sub.1/RDB3/conv1/conv1.1/LeakyRelu_output_0_splitncnn_2 /model/model.1/sub/sub.1/RDB3/conv2/conv2.1/LeakyRelu_output_0_splitncnn_2 /model/model.1/sub/sub.1/RDB3/Concat_1_output_0
Convolution      /model/model.1/sub/sub.1/RDB3/conv3/conv3.0/Conv 1 1 /model/model.1/sub/sub.1/RDB3/Concat_1_output_0 /model/model.1/sub/sub.1/RDB3/conv3/conv3.1/LeakyRelu_output_0 0=32 1=3 4=1 5=1 6=36864 9=2 -23310=1,2.000000e-01
Split            splitncnn_23             1 2 /model/model.1/sub/sub.1/RDB3/conv3/conv3.1/LeakyRelu_output_0 /model/model.1/sub/sub.1/RDB3/conv3/conv3.1/LeakyRelu_output_0_splitncnn_0 /model/model.1/sub/sub.1/RDB3/conv3/conv3.1/LeakyRelu_output_0_splitncnn_1
Concat           /model/model.1/sub/sub.1/RDB3/Concat_2 4 1 /model/model.1/sub/sub.1/RDB2/Add_output_0_splitncnn_2 /model/model.1/sub/sub.1/RDB3/conv1/conv1.1/LeakyRelu_output_0_splitncnn_1 /model/model.1/sub/sub.1/RDB3/conv2/conv2.1/LeakyRelu_output_0_splitncnn_1 /model/model.1/sub/sub.1/RDB3/conv3/conv3.1/LeakyRelu_output_0_splitncnn_1 /model/model.1/sub/sub.1/RDB3/Concat_2_output_0
Convolution      /model/model.1/sub/sub.1/RDB3/conv4/conv4.0/Conv 1 1 /model/model.1/sub/sub.1/RDB3/Concat_2_output_0 /model/model.1/sub/sub.1/RDB3/conv4/conv4.1/LeakyRelu_output_0 0=32 1=3 4=1 5=1 6=46080 9=2 -23310=1,2.000000e-01
Concat           /model/model.1/sub/sub.1/RDB3/Concat_3 5 1 /model/model.1/sub/sub.1/RDB2/Add_output_0_splitncnn_1 /model/model.1/sub/sub.1/RDB3/conv1/conv1.1/LeakyRelu_output_0_splitncnn_0 /model/model.1/sub/sub.1/RDB3/conv2/conv2.1/LeakyRelu_output_0_splitncnn_0 /model/model.1/sub/sub.1/RDB3/conv3/conv3.1/LeakyRelu_output_0_splitncnn_0 /model/model.1/sub/sub.1/RDB3/conv4/conv4.1/LeakyRelu_output_0 /model/model.1/sub/sub.1/RDB3/Concat_3_output_0
Convolution      /model/model.1/sub/sub.1/RDB3/conv5/conv5.0/Conv 1 1 /model/model.1/sub/sub.1/RDB3/Concat_3_output_0 /model/model.1/sub/sub.1/RDB3/conv5/conv5.0/Conv_output_0 0=64 1=3 4=1 5=1 6=110592
Eltwise          /model/model.1/sub/sub.1/RDB3/Add 2 1 /model/model.1/sub/sub.1/RDB3/conv5/conv5.0/Conv_output_0 /model/model.1/sub/sub.1/RDB2/Add_output_0_splitncnn_0 /model/model.1/sub/sub.1/RDB3/Add_output_0 0=1 -23301=2,2.000000e-01,1.000000e+00
Eltwise          /model/model.1/sub/sub.1/Add 2 1 /model/model.1/sub/sub.1/RDB3/Add_output_0 /model/model.1/sub/sub.0/Add_output_0_splitncnn_0 /model/model.1/sub/sub.1/Add_output_0 0=1 -23301=2,2.000000e-01,1.000000e+00
Split            splitncnn_24             1 7 /model/model.1/sub/sub.1/Add_output_0 /model/model.1/sub/sub.1/Add_output_0_splitncnn_0 /model/model.1/sub/sub.1/Add_output_0_splitncnn_1 /model/model.1/sub/sub.1/Add_output_0_splitncnn_2 /model/model.1/sub/sub.1/Add_output_0_splitncnn_3 /model/model.1/sub/sub.1/Add_output_0_splitncnn_4 /model/model.1/sub/sub.1/Add_output_0_splitncnn_5 /model/model.1/sub/sub.1/Add_output_0_splitncnn_6
Convolution      /model/model.1/sub/sub.2/RDB1/conv1/conv1.0/Conv 1 1 /model/model.1/sub/sub.1/Add_output_0_splitncnn_6 /model/model.1/sub/sub.2/RDB1/conv1/conv1.1/LeakyRelu_output_0 0=32 1=3 4=1 5=1 6=18432 9=2 -23310=1,2.000000e-01
Split            splitncnn_25             1 4 /model/model.1/sub/sub.2/RDB1/conv1/conv1.1/LeakyRelu_output_0 /model/model.1/sub/sub.2/RDB1/conv1/conv1.1/LeakyRelu_output_0_splitncnn_0 /model/model.1/sub/sub.2/RDB1/conv1/conv1.1/LeakyRelu_output_0_splitncnn_1 /model/model.1/sub/sub.2/RDB1/conv1/conv1.1/LeakyRelu_output_0_splitncnn_2 /model/model.1/sub/sub.2/RDB1/conv1/conv1.1/LeakyRelu_output_0_splitncnn_3
Concat           /model/model.1/sub/sub.2/RDB1/Concat 2 1 /model/model.1/sub/sub.1/Add_output_0_splitncnn_5 /model/model.1/sub/sub.2/RDB1/conv1/conv1.1/LeakyRelu_output_0_splitncnn_3 /model/model.1/sub/sub.2/RDB1/Concat_output_0
Convolution      /model/model.1/sub/sub.2/RDB1/conv2/conv2.0/Conv 1 1 /model/model.1/sub/sub.2/RDB1/Concat_output_0 /model/model.1/sub/sub.2/RDB1/conv2/conv2.1/LeakyRelu_output_0 0=32 1=3 4=1 5=1 6=27648 9=2 -23310=1,2.000000e-01
Split            splitncnn_26             1 3 /model/model.1/sub/sub.2/RDB1/conv2/conv2.1/LeakyRelu_output_0 /model/model.1/sub/sub.2/RDB1/conv2/conv2.1/LeakyRelu_output_0_splitncnn_0 /model/model.1/sub/sub.2/RDB1/conv2/conv2.1/LeakyRelu_output_0_splitncnn_1 /model/model.1/sub/sub.2/RDB1/conv2/conv2.1/LeakyRelu_output_0_splitncnn_2
Concat           /model/model.1/sub/sub.2/RDB1/Concat_1 3 1 /model/model.1/sub/sub.1/Add_output_0_splitncnn_4 /model/model.1/sub/sub.2/RDB1/conv1/conv1.1/LeakyRelu_output_0_splitncnn_2 /model/model.1/sub/sub.2/RDB1/conv2/conv2.1/LeakyRelu_output_0_splitncnn_2 /model/model.1/sub/sub.2/RDB1/Concat_1_output_0
Convolution      /model/model.1/sub/sub.2/RDB1/conv3/conv3.0/Conv 1 1 /model/model.1/sub/sub.2/RDB1/Concat_1_output_0 /model/model.1/sub/sub.2/RDB1/conv3/conv3.1/LeakyRelu_output_0 0=32 1=3 4=1 5=1 6=36864 9=2 -23310=1,2.000000e-01
Split            splitncnn_27             1 2 /model/model.1/sub/sub.2/RDB1/conv3/conv3.1/LeakyRelu_output_0 /model/model.1/sub/sub.2/RDB1/conv3/conv3.1/LeakyRelu_output_0_splitncnn_0 /model/model.1/sub/sub.2/RDB1/conv3/conv3.1/LeakyRelu_output_0_splitncnn_1
Concat           /model/model.1/sub/sub.2/RDB1/Concat_2 4 1 /model/model.1/sub/sub.1/Add_output_0_splitncnn_3 /model/model.1/sub/sub.2/RDB1/conv1/conv1.1/LeakyRelu_output_0_splitncnn_1 /model/model.1/sub/sub.2/RDB1/conv2/conv2.1/LeakyRelu_output_0_splitncnn_1 /model/model.1/sub/sub.2/RDB1/conv3/conv3.1/LeakyRelu_output_0_splitncnn_1 /model/model.1/sub/sub.2/RDB1/Concat_2_output_0
Convolution      /model/model.1/sub/sub.2/RDB1/conv4/conv4.0/Conv 1 1 /model/model.1/sub/sub.2/RDB1/Concat_2_output_0 /model/model.1/sub/sub.2/RDB1/conv4/conv4.1/LeakyRelu_output_0 0=32 1=3 4=1 5=1 6=46080 9=2 -23310=1,2.000000e-01
Concat           /model/model.1/sub/sub.2/RDB1/Concat_3 5 1 /model/model.1/sub/sub.1/Add_output_0_splitncnn_2 /model/model.1/sub/sub.2/RDB1/conv1/conv1.1/LeakyRelu_output_0_splitncnn_0 /model/model.1/sub/sub.2/RDB1/conv2/conv2.1/LeakyRelu_output_0_splitncnn_0 /model/model.1/sub/sub.2/RDB1/conv3/conv3.1/LeakyRelu_output_0_splitncnn_0 /model/model.1/sub/sub.2/RDB1/conv4/conv4.1/LeakyRelu_output_0 /model/model.1/sub/sub.2/RDB1/Concat_3_output_0
Convolution      /model/model.1/sub/sub.2/RDB1/conv5/conv5.0/Conv 1 1 /model/model.1/sub/sub.2/RDB1/Concat_3_output_0 /model/model.1/sub/sub.2/RDB1/conv5/conv5.0/Conv_output_0 0=64 1=3 4=1 5=1 6=110592
Eltwise          /model/model.1/sub/sub.2/RDB1/Add 2 1 /model/model.1/sub/sub.2/RDB1/conv5/conv5.0/Conv_output_0 /model/model.1/sub/sub.1/Add_output_0_splitncnn_1 /model/model.1/sub/sub.2/RDB1/Add_output_0 0=1 -23301=2,2.000000e-01,1.000000e+00
Split            splitncnn_28             1 6 /model/model.1/sub/sub.2/RDB1/Add_output_0 /model/model.1/sub/sub.2/RDB1/Add_output_0_splitncnn_0 /model/model.1/sub/sub.2/RDB1/Add_output_0_splitncnn_1 /model/model.1/sub/sub.2/RDB1/Add_output_0_splitncnn_2 /model/model.1/sub/sub.2/RDB1/Add_output_0_splitncnn_3 /model/model.1/sub/sub.2/RDB1/Add_output_0_splitncnn_4 /model/model.1/sub/sub.2/RDB1/Add_output_0_splitncnn_5
Convolution      /model/model.1/sub/sub.2/RDB2/conv1/conv1.0/Conv 1 1 /model/model.1/sub/sub.2/RDB1/Add_output_0_splitncnn_5 /model/model.1/sub/sub.2/RDB2/conv1/conv1.1/LeakyRelu_output_0 0=32 1=3 4=1 5=1 6=18432 9=2 -23310=1,2.000000e-01
Split            splitncnn_29             1 4 /model/model.1/sub/sub.2/RDB2/conv1/conv1.1/LeakyRelu_output_0 /model/model.1/sub/sub.2/RDB2/conv1/conv1.1/LeakyRelu_output_0_splitncnn_0 /model/model.1/sub/sub.2/RDB2/conv1/conv1.1/LeakyRelu_output_0_splitncnn_1 /model/model.1/sub/sub.2/RDB2/conv1/conv1.1/LeakyRelu_output_0_splitncnn_2 /model/model.1/sub/sub.2/RDB2/conv1/conv1.1/LeakyRelu_output_0_splitncnn_3
Concat           /model/model.1/sub/sub.2/RDB2/Concat 2 1 /model/model.1/sub/sub.2/RDB1/Add_output_0_splitncnn_4 /model/model.1/sub/sub.2/RDB2/conv1/conv1.1/LeakyRelu_output_0_splitncnn_3 /model/model.1/sub/sub.2/RDB2/Concat_output_0
Convolution      /model/model.1/sub/sub.2/RDB2/conv2/conv2.0/Conv 1 1 /model/model.1/sub/sub.2/RDB2/Concat_output_0 /model/model.1/sub/sub.2/RDB2/conv2/conv2.1/LeakyRelu_output_0 0=32 1=3 4=1 5=1 6=27648 9=2 -23310=1,2.000000e-01
Split            splitncnn_30             1 3 /model/model.1/sub/sub.2/RDB2/conv2/conv2.1/LeakyRelu_output_0 /model/model.1/sub/sub.2/RDB2/conv2/conv2.1/LeakyRelu_output_0_splitncnn_0 /model/model.1/sub/sub.2/RDB2/conv2/conv2.1/LeakyRelu_output_0_splitncnn_1 /model/model.1/sub/sub.2/RDB2/conv2/conv2.1/LeakyRelu_output_0_splitncnn_2
Concat           /model/model.1/sub/sub.2/RDB2/Concat_1 3 1 /model/model.1/sub/sub.2/RDB1/Add_output_0_splitncnn_3 /model/model.1/sub/sub.2/RDB2/conv1/conv1.1/LeakyRelu_output_0_splitncnn_2 /model/model.1/sub/sub.2/RDB2/conv2/conv2.1/LeakyRelu_output_0_splitncnn_2 /model/model.1/sub/sub.2/RDB2/Concat_1_output_0
Convolution      /model/model.1/sub/sub.2/RDB2/conv3/conv3.0/Conv 1 1 /model/model.1/sub/sub.2/RDB2/Concat_1_output_0 /model/model.1/sub/sub.2/RDB2/conv3/conv3.1/LeakyRelu_output_0 0=32 1=3 4=1 5=1 6=36864 9=2 -23310=1,2.000000e-01
Split            splitncnn_31             1 2 /model/model.1/sub/sub.2/RDB2/conv3/conv3.1/LeakyRelu_output_0 /model/model.1/sub/sub.2/RDB2/conv3/conv3.1/LeakyRelu_output_0_splitncnn_0 /model/model.1/sub/sub.2/RDB2/conv3/conv3.1/LeakyRelu_output_0_splitncnn_1
Concat           /model/model.1/sub/sub.2/RDB2/Concat_2 4 1 /model/model.1/sub/sub.2/RDB1/Add_output_0_splitncnn_2 /model/model.1/sub/sub.2/RDB2/conv1/conv1.1/LeakyRelu_output_0_splitncnn_1 /model/model.1/sub/sub.2/RDB2/conv2/conv2.1/LeakyRelu_output_0_splitncnn_1 /model/model.1/sub/sub.2/RDB2/conv3/conv3.1/LeakyRelu_output_0_splitncnn_1 /model/model.1/sub/sub.2/RDB2/Concat_2_output_0
Convolution      /model/model.1/sub/sub.2/RDB2/conv4/conv4.0/Conv 1 1 /model/model.1/sub/sub.2/RDB2/Concat_2_output_0 /model/model.1/sub/sub.2/RDB2/conv4/conv4.1/LeakyRelu_output_0 0=32 1=3 4=1 5=1 6=46080 9=2 -23310=1,2.000000e-01
Concat           /model/model.1/sub/sub.2/RDB2/Concat_3 5 1 /model/model.1/sub/sub.2/RDB1/Add_output_0_splitncnn_1 /model/model.1/sub/sub.2/RDB2/conv1/conv1.1/LeakyRelu_output_0_splitncnn_0 /model/model.1/sub/sub.2/RDB2/conv2/conv2.1/LeakyRelu_output_0_splitncnn_0 /model/model.1/sub/sub.2/RDB2/conv3/conv3.1/LeakyRelu_output_0_splitncnn_0 /model/model.1/sub/sub.2/RDB2/conv4/conv4.1/LeakyRelu_output_0 /model/model.1/sub/sub.2/RDB2/Concat_3_output_0
Convolution      /model/model.1/sub/sub.2/RDB2/conv5/conv5.0/Conv 1 1 /model/model.1/sub/sub.2/RDB2/Concat_3_output_0 /model/model.1/sub/sub.2/RDB2/conv5/conv5.0/Conv_output_0 0=64 1=3 4=1 5=1 6=110592
Eltwise          /model/model.1/sub/sub.2/RDB2/Add 2 1 /model/model.1/sub/sub.2/RDB2/conv5/conv5.0/Conv_output_0 /model/model.1/sub/sub.2/RDB1/Add_output_0_splitncnn_0 /model/model.1/sub/sub.2/RDB2/Add_output_0 0=1 -23301=2,2.000000e-01,1.000000e+00
Split            splitncnn_32             1 6 /model/model.1/sub/sub.2/RDB2/Add_output_0 /model/model.1/sub/sub.2/RDB2/Add_output_0_splitncnn_0 /model/model.1/sub/sub.2/RDB2/Add_output_0_splitncnn_1 /model/model.1/sub/sub.2/RDB2/Add_output_0_splitncnn_2 /model/model.1/sub/sub.2/RDB2/Add_output_0_splitncnn_3 /model/model.1/sub/sub.2/RDB2/Add_output_0_splitncnn_4 /model/model.1/sub/sub.2/RDB2/Add_output_0_splitncnn_5
Convolution      /model/model.1/sub/sub.2/RDB3/conv1/conv1.0/Conv 1 1 /model/model.1/sub/sub.2/RDB2/Add_output_0_splitncnn_5 /model/model.1/sub/sub.2/RDB3/conv1/conv1.1/LeakyRelu_output_0 0=32 1=3 4=1 5=1 6=18432 9=2 -23310=1,2.000000e-01
Split            splitncnn_33             1 4 /model/model.1/sub/sub.2/RDB3/conv1/conv1.1/LeakyRelu_output_0 /model/model.1/sub/sub.2/RDB3/conv1/conv1.1/LeakyRelu_output_0_splitncnn_0 /model/model.1/sub/sub.2/RDB3/conv1/conv1.1/LeakyRelu_output_0_splitncnn_1 /model/model.1/sub/sub.2/RDB3/conv1/conv1.1/LeakyRelu_output_0_splitncnn_2 /model/model.1/sub/sub.2/RDB3/conv1/conv1.1/LeakyRelu_output_0_splitncnn_3
Concat           /model/model.1/sub/sub.2/RDB3/Concat 2 1 /model/model.1/sub/sub.2/RDB2/Add_output_0_splitncnn_4 /model/model.1/sub/sub.2/RDB3/conv1/conv1.1/LeakyRelu_output_0_splitncnn_3 /model/model.1/sub/sub.2/RDB3/Concat_output_0
Convolution      /model/model.1/sub/sub.2/RDB3/conv2/conv2.0/Conv 1 1 /model/model.1/sub/sub.2/RDB3/Concat_output_0 /model/model.1/sub/sub.2/RDB3/conv2/conv2.1/LeakyRelu_output_0 0=32 1=3 4=1 5=1 6=27648 9=2 -23310=1,2.000000e-01
Split            splitncnn_34             1 3 /model/model.1/sub/sub.2/RDB3/conv2/conv2.1/LeakyRelu_output_0 /model/model.1/sub/sub.2/RDB3/conv2/conv2.1/LeakyRelu_output_0_splitncnn_0 /model/model.1/sub/sub.2/RDB3/conv2/conv2.1/LeakyRelu_output_0_splitncnn_1 /model/model.1/sub/sub.2/RDB3/conv2/conv2.1/LeakyRelu_output_0_splitncnn_2
Concat           /model/model.1/sub/sub.2/RDB3/Concat_1 3 1 /model/model.1/sub/sub.2/RDB2/Add_output_0_splitncnn_3 /model/model.1/sub/sub.2/RDB3/conv1/conv1.1/LeakyRelu_output_0_splitncnn_2 /model/model.1/sub/sub.2/RDB3/conv2/conv2.1/LeakyRelu_output_0_splitncnn_2 /model/model.1/sub/sub.2/RDB3/Concat_1_output_0
Convolution      /model/model.1/sub/sub.2/RDB3/conv3/conv3.0/Conv 1 1 /model/model.1/sub/sub.2/RDB3/Concat_1_output_0 /model/model.1/sub/sub.2/RDB3/conv3/conv3.1/LeakyRelu_output_0 0=32 1=3 4=1 5=1 6=36864 9=2 -23310=1,2.000000e-01
Split            splitncnn_35             1 2 /model/model.1/sub/sub.2/RDB3/conv3/conv3.1/LeakyRelu_output_0 /model/model.1/sub/sub.2/RDB3/conv3/conv3.1/LeakyRelu_output_0_splitncnn_0 /model/model.1/sub/sub.2/RDB3/conv3/conv3.1/LeakyRelu_output_0_splitncnn_1
Concat           /model/model.1/sub/sub.2/RDB3/Concat_2 4 1 /model/model.1/sub/sub.2/RDB2/Add_output_0_splitncnn_2 /model/model.1/sub/sub.2/RDB3/conv1/conv1.1/LeakyRelu_output_0_splitncnn_1 /model/model.1/sub/sub.2/RDB3/conv2/conv2.1/LeakyRelu_output_0_splitncnn_1 /model/model.1/sub/sub.2/RDB3/conv3/conv3.1/LeakyRelu_output_0_splitncnn_1 /model/model.1/sub/sub.2/RDB3/Concat_2_output_0
Convolution      /model/model.1/sub/sub.2/RDB3/conv4/conv4.0/Conv 1 1 /model/model.1/sub/sub.2/RDB3/Concat_2_output_0 /model/model.1/sub/sub.2/RDB3/conv4/conv4.1/LeakyRelu_output_0 0=32 1=3 4=1 5=1 6=46080 9=2 -23310=1,2.000000e-01
Concat           /model/model.1/sub/sub.2/RDB3/Concat_3 5 1 /model/model.1/sub/sub.2/RDB2/Add_output_0_splitncnn_1 /model/model.1/sub/sub.2/RDB3/conv1/conv1.1/LeakyRelu_output_0_splitncnn_0 /model/model.1/sub/sub.2/RDB3/conv2/conv2.1/LeakyRelu_output_0_splitncnn_0 /model/model.1/sub/sub.2/RDB3/conv3/conv3.1/LeakyRelu_output_0_splitncnn_0 /model/model.1/sub/sub.2/RDB3/conv4/conv4.1/LeakyRelu_output_0 /model/model.1/sub/sub.2/RDB3/Concat_3_output_0
Convolution      /model/model.1/sub/sub.2/RDB3/conv5/conv5.0/Conv 1 1 /model/model.1/sub/sub.2/RDB3/Concat_3_output_0 /model/model.1/sub/sub.2/RDB3/conv5/conv5.0/Conv_output_0 0=64 1=3 4=1 5=1 6=110592
Eltwise          /model/model.1/sub/sub.2/RDB3/Add 2 1 /model/model.1/sub/sub.2/RDB3/conv5/conv5.0/Conv_output_0 /model/model.1/sub/sub.2/RDB2/Add_output_0_splitncnn_0 /model/model.1/sub/sub.2/RDB3/Add_output_0 0=1 -23301=2,2.000000e-01,1.000000e+00
Eltwise          /model/model.1/sub/sub.2/Add 2 1 /model/model.1/sub/sub.2/RDB3/Add_output_0 /model/model.1/sub/sub.1/Add_output_0_splitncnn_0 /model/model.1/sub/sub.2/Add_output_0 0=1 -23301=2,2.000000e-01,1.000000e+00
Split            splitncnn_36             1 7 /model/model.1/sub/sub.2/Add_output_0 /model/model.1/sub/sub.2/Add_output_0_splitncnn_0 /model/model.1/sub/sub.2/Add_output_0_splitncnn_1 /model/model.1/sub/sub.2/Add_output_0_splitncnn_2 /model/model.1/sub/sub.2/Add_output_0_splitncnn_3 /model/model.1/sub/sub.2/Add_output_0_splitncnn_4 /model/model.1/sub/sub.2/Add_output_0_splitncnn_5 /model/model.1/sub/sub.2/Add_output_0_splitncnn_6
Convolution      /model/model.1/sub/sub.3/RDB1/conv1/conv1.0/Conv 1 1 /model/model.1/sub/sub.2/Add_output_0_splitncnn_6 /model/model.1/sub/sub.3/RDB1/conv1/conv1.1/LeakyRelu_output_0 0=32 1=3 4=1 5=1 6=18432 9=2 -23310=1,2.000000e-01
Split            splitncnn_37             1 4 /model/model.1/sub/sub.3/RDB1/conv1/conv1.1/LeakyRelu_output_0 /model/model.1/sub/sub.3/RDB1/conv1/conv1.1/LeakyRelu_output_0_splitncnn_0 /model/model.1/sub/sub.3/RDB1/conv1/conv1.1/LeakyRelu_output_0_splitncnn_1 /model/model.1/sub/sub.3/RDB1/conv1/conv1.1/LeakyRelu_output_0_splitncnn_2 /model/model.1/sub/sub.3/RDB1/conv1/conv1.1/LeakyRelu_output_0_splitncnn_3
Concat           /model/model.1/sub/sub.3/RDB1/Concat 2 1 /model/model.1/sub/sub.2/Add_output_0_splitncnn_5 /model/model.1/sub/sub.3/RDB1/conv1/conv1.1/LeakyRelu_output_0_splitncnn_3 /model/model.1/sub/sub.3/RDB1/Concat_output_0
Convolution      /model/model.1/sub/sub.3/RDB1/conv2/conv2.0/Conv 1 1 /model/model.1/sub/sub.3/RDB1/Concat_output_0 /model/model.1/sub/sub.3/RDB1/conv2/conv2.1/LeakyRelu_output_0 0=32 1=3 4=1 5=1 6=27648 9=2 -23310=1,2.000000e-01
Split            splitncnn_38             1 3 /model/model.1/sub/sub.3/RDB1/conv2/conv2.1/LeakyRelu_output_0 /model/model.1/sub/sub.3/RDB1/conv2/conv2.1/LeakyRelu_output_0_splitncnn_0 /model/model.1/sub/sub.3/RDB1/conv2/conv2.1/LeakyRelu_output_0_splitncnn_1 /model/model.1/sub/sub.3/RDB1/conv2/conv2.1/LeakyRelu_output_0_splitncnn_2
Concat           /model/model.1/sub/sub.3/RDB1/Concat_1 3 1 /model/model.1/sub/sub.2/Add_output_0_splitncnn_4 /model/model.1/sub/sub.3/RDB1/conv1/conv1.1/LeakyRelu_output_0_splitncnn_2 /model/model.1/sub/sub.3/RDB1/conv2/conv2.1/LeakyRelu_output_0_splitncnn_2 /model/model.1/sub/sub.3/RDB1/Concat_1_output_0
Convolution      /model/model.1/sub/sub.3/RDB1/conv3/conv3.0/Conv 1 1 /model/model.1/sub/sub.3/RDB1/Concat_1_output_0 /model/model.1/sub/sub.3/RDB1/conv3/conv3.1/LeakyRelu_output_0 0=32 1=3 4=1 5=1 6=36864 9=2 -23310=1,2.000000e-01
Split            splitncnn_39             1 2 /model/model.1/sub/sub.3/RDB1/conv3/conv3.1/LeakyRelu_output_0 /model/model.1/sub/sub.3/RDB1/conv3/conv3.1/LeakyRelu_output_0_splitncnn_0 /model/model.1/sub/sub.3/RDB1/conv3/conv3.1/LeakyRelu_output_0_splitncnn_1
Concat           /model/model.1/sub/sub.3/RDB1/Concat_2 4 1 /model/model.1/sub/sub.2/Add_output_0_splitncnn_3 /model/model.1/sub/sub.3/RDB1/conv1/conv1.1/LeakyRelu_output_0_splitncnn_1 /model/model.1/sub/sub.3/RDB1/conv2/conv2.1/LeakyRelu_output_0_splitncnn_1 /model/model.1/sub/sub.3/RDB1/conv3/conv3.1/LeakyRelu_output_0_splitncnn_1 /model/model.1/sub/sub.3/RDB1/Concat_2_output_0
Convolution      /model/model.1/sub/sub.3/RDB1/conv4/conv4.0/Conv 1 1 /model/model.1/sub/sub.3/RDB1/Concat_2_output_0 /model/model.1/sub/sub.3/RDB1/conv4/conv4.1/LeakyRelu_output_0 0=32 1=3 4=1 5=1 6=46080 9=2 -23310=1,2.000000e-01
Concat           /model/model.1/sub/sub.3/RDB1/Concat_3 5 1 /model/model.1/sub/sub.2/Add_output_0_splitncnn_2 /model/model.1/sub/sub.3/RDB1/conv1/conv1.1/LeakyRelu_output_0_splitncnn_0 /model/model.1/sub/sub.3/RDB1/conv2/conv2.1/LeakyRelu_output_0_splitncnn_0 /model/model.1/sub/sub.3/RDB1/conv3/conv3.1/LeakyRelu_output_0_splitncnn_0 /model/model.1/sub/sub.3/RDB1/conv4/conv4.1/LeakyRelu_output_0 /model/model.1/sub/sub.3/RDB1/Concat_3_output_0
Convolution      /model/model.1/sub/sub.3/RDB1/conv5/conv5.0/Conv 1 1 /model/model.1/sub/sub.3/RDB1/Concat_3_output_0 /model/model.1/sub/sub.3/RDB1/conv5/conv5.0/Conv_output_0 0=64 1=3 4=1 5=1 6=110592
Eltwise          /model/model.1/sub/sub.3/RDB1/Add 2 1 /model/model.1/sub/sub.3/RDB1/conv5/conv5.0/Conv_output_0 /model/model.1/sub/sub.2/Add_output_0_splitncnn_1 /model/model.1/sub/sub.3/RDB1/Add_output_0 0=1 -23301=2,2.000000e-01,1.000000e+00
Split            splitncnn_40             1 6 /model/model.1/sub/sub.3/RDB1/Add_output_0 /model/model.1/sub/sub.3/RDB1/Add_output_0_splitncnn_0 /model/model.1/sub/sub.3/RDB1/Add_output_0_splitncnn_1 /model/model.1/sub/sub.3/RDB1/Add_output_0_splitncnn_2 /model/model.1/sub/sub.3/RDB1/Add_output_0_splitncnn_3 /model/model.1/sub/sub.3/RDB1/Add_output_0_splitncnn_4 /model/model.1/sub/sub.3/RDB1/Add_output_0_splitncnn_5
Convolution      /model/model.1/sub/sub.3/RDB2/conv1/conv1.0/Conv 1 1 /model/model.1/sub/sub.3/RDB1/Add_output_0_splitncnn_5 /model/model.1/sub/sub.3/RDB2/conv1/conv1.1/LeakyRelu_output_0 0=32 1=3 4=1 5=1 6=18432 9=2 -23310=1,2.000000e-01
Split            splitncnn_41             1 4 /model/model.1/sub/sub.3/RDB2/conv1/conv1.1/LeakyRelu_output_0 /model/model.1/sub/sub.3/RDB2/conv1/conv1.1/LeakyRelu_output_0_splitncnn_0 /model/model.1/sub/sub.3/RDB2/conv1/conv1.1/LeakyRelu_output_0_splitncnn_1 /model/model.1/sub/sub.3/RDB2/conv1/conv1.1/LeakyRelu_output_0_splitncnn_2 /model/model.1/sub/sub.3/RDB2/conv1/conv1.1/LeakyRelu_output_0_splitncnn_3
Concat           /model/model.1/sub/sub.3/RDB2/Concat 2 1 /model/model.1/sub/sub.3/RDB1/Add_output_0_splitncnn_4 /model/model.1/sub/sub.3/RDB2/conv1/conv1.1/LeakyRelu_output_0_splitncnn_3 /model/model.1/sub/sub.3/RDB2/Concat_output_0
Convolution      /model/model.1/sub/sub.3/RDB2/conv2/conv2.0/Conv 1 1 /model/model.1/sub/sub.3/RDB2/Concat_output_0 /model/model.1/sub/sub.3/RDB2/conv2/conv2.1/LeakyRelu_output_0 0=32 1=3 4=1 5=1 6=27648 9=2 -23310=1,2.000000e-01
Split            splitncnn_42             1 3 /model/model.1/sub/sub.3/RDB2/conv2/conv2.1/LeakyRelu_output_0 /model/model.1/sub/sub.3/RDB2/conv2/conv2.1/LeakyRelu_output_0_splitncnn_0 /model/model.1/sub/sub.3/RDB2/conv2/conv2.1/LeakyRelu_output_0_splitncnn_1 /model/model.1/sub/sub.3/RDB2/conv2/conv2.1/LeakyRelu_output_0_splitncnn_2
Concat           /model/model.1/sub/sub.3/RDB2/Concat_1 3 1 /model/model.1/sub/sub.3/RDB1/Add_output_0_splitncnn_3 /model/model.1/sub/sub.3/RDB2/conv1/conv1.1/LeakyRelu_output_0_splitncnn_2 /model/model.1/sub/sub.3/RDB2/conv2/conv2.1/LeakyRelu_output_0_splitncnn_2 /model/model.1/sub/sub.3/RDB2/Concat_1_output_0
Convolution      /model/model.1/sub/sub.3/RDB2/conv3/conv3.0/Conv 1 1 /model/model.1/sub/sub.3/RDB2/Concat_1_output_0 /model/model.1/sub/sub.3/RDB2/conv3/conv3.1/LeakyRelu_output_0 0=32 1=3 4=1 5=1 6=36864 9=2 -23310=1,2.000000e-01
Split            splitncnn_43             1 2 /model/model.1/sub/sub.3/RDB2/conv3/conv3.1/LeakyRelu_output_0 /model/model.1/sub/sub.3/RDB2/conv3/conv3.1/LeakyRelu_output_0_splitncnn_0 /model/model.1/sub/sub.3/RDB2/conv3/conv3.1/LeakyRelu_output_0_splitncnn_1
Concat           /model/model.1/sub/sub.3/RDB2/Concat_2 4 1 /model/model.1/sub/sub.3/RDB1/Add_output_0_splitncnn_2 /model/model.1/sub/sub.3/RDB2/conv1/conv1.1/LeakyRelu_output_0_splitncnn_1 /model/model.1/sub/sub.3/RDB2/conv2/conv2.1/LeakyRelu_output_0_splitncnn_1 /model/model.1/sub/sub.3/RDB2/conv3/conv3.1/LeakyRelu_output_0_splitncnn_1 /model/model.1/sub/sub.3/RDB2/Concat_2_output_0
Convolution      /model/model.1/sub/sub.3/RDB2/conv4/conv4.0/Conv 1 1 /model/model.1/sub/sub.3/RDB2/Concat_2_output_0 /model/model.1/sub/sub.3/RDB2/conv4/conv4.1/LeakyRelu_output_0 0=32 1=3 4=1 5=1 6=46080 9=2 -23310=1,2.000000e-01
Concat           /model/model.1/sub/sub.3/RDB2/Concat_3 5 1 /model/model.1/sub/sub.3/RDB1/Add_output_0_splitncnn_1 /model/model.1/sub/sub.3/RDB2/conv1/conv1.1/LeakyRelu_output_0_splitncnn_0 /model/model.1/sub/sub.3/RDB2/conv2/conv2.1/LeakyRelu_output_0_splitncnn_0 /model/model.1/sub/sub.3/RDB2/conv3/conv3.1/LeakyRelu_output_0_splitncnn_0 /model/model.1/sub/sub.3/RDB2/conv4/conv4.1/LeakyRelu_output_0 /model/model.1/sub/sub.3/RDB2/Concat_3_output_0
Convolution      /model/model.1/sub/sub.3/RDB2/conv5/conv5.0/Conv 1 1 /model/model.1/sub/sub.3/RDB2/Concat_3_output_0 /model/model.1/sub/sub.3/RDB2/conv5/conv5.0/Conv_output_0 0=64 1=3 4=1 5=1 6=110592
Eltwise          /model/model.1/sub/sub.3/RDB2/Add 2 1 /model/model.1/sub/sub.3/RDB2/conv5/conv5.0/Conv_output_0 /model/model.1/sub/sub.3/RDB1/Add_output_0_splitncnn_0 /model/model.1/sub/sub.3/RDB2/Add_output_0 0=1 -23301=2,2.000000e-01,1.000000e+00
Split            splitncnn_44             1 6 /model/model.1/sub/sub.3/RDB2/Add_output_0 /model/model.1/sub/sub.3/RDB2/Add_output_0_splitncnn_0 /model/model.1/sub/sub.3/RDB2/Add_output_0_splitncnn_1 /model/model.1/sub/sub.3/RDB2/Add_output_0_splitncnn_2 /model/model.1/sub/sub.3/RDB2/Add_output_0_splitncnn_3 /model/model.1/sub/sub.3/RDB2/Add_output_0_splitncnn_4 /model/model.1/sub/sub.3/RDB2/Add_output_0_splitncnn_5
Convolution      /model/model.1/sub/sub.3/RDB3/conv1/conv1.0/Conv 1 1 /model/model.1/sub/sub.3/RDB2/Add_output_0_splitncnn_5 /model/model.1/sub/sub.3/RDB3/conv1/conv1.1/LeakyRelu_output_0 0=32 1=3 4=1 5=1 6=18432 9=2 -23310=1,2.000000e-01
Split            splitncnn_45             1 4 /model/model.1/sub/sub.3/RDB3/conv1/conv1.1/LeakyRelu_output_0 /model/model.1/sub/sub.3/RDB3/conv1/conv1.1/LeakyRelu_output_0_splitncnn_0 /model/model.1/sub/sub.3/RDB3/conv1/conv1.1/LeakyRelu_output_0_splitncnn_1 /model/model.1/sub/sub.3/RDB3/conv1/conv1.1/LeakyRelu_output_0_splitncnn_2 /model/model.1/sub/sub.3/RDB3/conv1/conv1.1/LeakyRelu_output_0_splitncnn_3
Concat           /model/model.1/sub/sub.3/RDB3/Concat 2 1 /model/model.1/sub/sub.3/RDB2/Add_output_0_splitncnn_4 /model/model.1/sub/sub.3/RDB3/conv1/conv1.1/LeakyRelu_output_0_splitncnn_3 /model/model.1/sub/sub.3/RDB3/Concat_output_0
Convolution      /model/model.1/sub/sub.3/RDB3/conv2/conv2.0/Conv 1 1 /model/model.1/sub/sub.3/RDB3/Concat_output_0 /model/model.1/sub/sub.3/RDB3/conv2/conv2.1/LeakyRelu_output_0 0=32 1=3 4=1 5=1 6=27648 9=2 -23310=1,2.000000e-01
Split            splitncnn_46             1 3 /model/model.1/sub/sub.3/RDB3/conv2/conv2.1/LeakyRelu_output_0 /model/model.1/sub/sub.3/RDB3/conv2/conv2.1/LeakyRelu_output_0_splitncnn_0 /model/model.1/sub/sub.3/RDB3/conv2/conv2.1/LeakyRelu_output_0_splitncnn_1 /model/model.1/sub/sub.3/RDB3/conv2/conv2.1/LeakyRelu_output_0_splitncnn_2
Concat           /model/model.1/sub/sub.3/RDB3/Concat_1 3 1 /model/model.1/sub/sub.3/RDB2/Add_output_0_splitncnn_3 /model/model.1/sub/sub.3/RDB3/conv1/conv1.1/LeakyRelu_output_0_splitncnn_2 /model/model.1/sub/sub.3/RDB3/conv2/conv2.1/LeakyRelu_output_0_splitncnn_2 /model/model.1/sub/sub.3/RDB3/Concat_1_output_0
Convolution      /model/model.1/sub/sub.3/RDB3/conv3/conv3.0/Conv 1 1 /model/model.1/sub/sub.3/RDB3/Concat_1_output_0 /model/model.1/sub/sub.3/RDB3/conv3/conv3.1/LeakyRelu_output_0 0=32 1=3 4=1 5=1 6=36864 9=2 -23310=1,2.000000e-01
Split            splitncnn_47             1 2 /model/model.1/sub/sub.3/RDB3/conv3/conv3.1/LeakyRelu_output_0 /model/model.1/sub/sub.3/RDB3/conv3/conv3.1/LeakyRelu_output_0_splitncnn_0 /model/model.1/sub/sub.3/RDB3/conv3/conv3.1/LeakyRelu_output_0_splitncnn_1
Concat           /model/model.1/sub/sub.3/RDB3/Concat_2 4 1 /model/model.1/sub/sub.3/RDB2/Add_output_0_splitncnn_2 /model/model.1/sub/sub.3/RDB3/conv1/conv1.1/LeakyRelu_output_0_splitncnn_1 /model/model.1/sub/sub.3/RDB3/conv2/conv2.1/LeakyRelu_output_0_splitncnn_1 /model/model.1/sub/sub.3/RDB3/conv3/conv3.1/LeakyRelu_output_0_splitncnn_1 /model/model.1/sub/sub.3/RDB3/Concat_2_output_0
Convolution      /model/model.1/sub/sub.3/RDB3/conv4/conv4.0/Conv 1 1 /model/model.1/sub/sub.3/RDB3/Concat_2_output_0 /model/model.1/sub/sub.3/RDB3/conv4/conv4.1/LeakyRelu_output_0 0=32 1=3 4=1 5=1 6=46080 9=2 -23310=1,2.000000e-01
Concat           /model/model.1/sub/sub.3/RDB3/Concat_3 5 1 /model/model.1/sub/sub.3/RDB2/Add_output_0_splitncnn_1 /model/model.1/sub/sub.3/RDB3/conv1/conv1.1/LeakyRelu_output_0_splitncnn_0 /model/model.1/sub/sub.3/RDB3/conv2/conv2.1/LeakyRelu_output_0_splitncnn_0 /model/model.1/sub/sub.3/RDB3/conv3/conv3.1/LeakyRelu_output_0_splitncnn_0 /model/model.1/sub/sub.3/RDB3/conv4/conv4.1/LeakyRelu_output_0 /model/model.1/sub/sub.3/RDB3/Concat_3_output_0
Convolution      /model/model.1/sub/sub.3/RDB3/conv5/conv5.0/Conv 1 1 /model/model.1/sub/sub.3/RDB3/Concat_3_output_0 /model/model.1/sub/sub.3/RDB3/conv5/conv5.0/Conv_output_0 0=64 1=3 4=1 5=1 6=110592
Eltwise          /model/model.1/sub/sub.3/RDB3/Add 2 1 /model/model.1/sub/sub.3/RDB3/conv5/conv5.0/Conv_output_0 /model/model.1/sub/sub.3/RDB2/Add_output_0_splitncnn_0 /model/model.1/sub/sub.3/RDB3/Add_output_0 0=1 -23301=2,2.000000e-01,1.000000e+00
Eltwise          /model/model.1/sub/sub.3/Add 2 1 /model/model.1/sub/sub.3/RDB3/Add_output_0 /model/model.1/sub/sub.2/Add_output_0_splitncnn_0 /model/model.1/sub/sub.3/Add_output_0 0=1 -23301=2,2.000000e-01,1.000000e+00
Split            splitncnn_48             1 7 /model/model.1/sub/sub.3/Add_output_0 /model/model.1/sub/sub.3/Add_output_0_splitncnn_0 /model/model.1/sub/sub.3/Add_output_0_splitncnn_1 /model/model.1/sub/sub.3/Add_output_0_splitncnn_2 /model/model.1/sub/sub.3/Add_output_0_splitncnn_3 /model/model.1/sub/sub.3/Add_output_0_splitncnn_4 /model/model.1/sub/sub.3/Add_output_0_splitncnn_5 /model/model.1/sub/sub.3/Add_output_0_splitncnn_6
Convolution      /model/model.1/sub/sub.4/RDB1/conv1/conv1.0/Conv 1 1 /model/model.1/sub/sub.3/Add_output_0_splitncnn_6 /model/model.1/sub/sub.4/RDB1/conv1/conv1.1/LeakyRelu_output_0 0=32 1=3 4=1 5=1 6=18432 9=2 -23310=1,2.000000e-01
Split            splitncnn_49             1 4 /model/model.1/sub/sub.4/RDB1/conv1/conv1.1/LeakyRelu_output_0 /model/model.1/sub/sub.4/RDB1/conv1/conv1.1/LeakyRelu_output_0_splitncnn_0 /model/model.1/sub/sub.4/RDB1/conv1/conv1.1/LeakyRelu_output_0_splitncnn_1 /model/model.1/sub/sub.4/RDB1/conv1/conv1.1/LeakyRelu_output_0_splitncnn_2 /model/model.1/sub/sub.4/RDB1/conv1/conv1.1/LeakyRelu_output_0_splitncnn_3
Concat           /model/model.1/sub/sub.4/RDB1/Concat 2 1 /model/model.1/sub/sub.3/Add_output_0_splitncnn_5 /model/model.1/sub/sub.4/RDB1/conv1/conv1.1/LeakyRelu_output_0_splitncnn_3 /model/model.1/sub/sub.4/RDB1/Concat_output_0
Convolution      /model/model.1/sub/sub.4/RDB1/conv2/conv2.0/Conv 1 1 /model/model.1/sub/sub.4/RDB1/Concat_output_0 /model/model.1/sub/sub.4/RDB1/conv2/conv2.1/LeakyRelu_output_0 0=32 1=3 4=1 5=1 6=27648 9=2 -23310=1,2.000000e-01
Split            splitncnn_50             1 3 /model/model.1/sub/sub.4/RDB1/conv2/conv2.1/LeakyRelu_output_0 /model/model.1/sub/sub.4/RDB1/conv2/conv2.1/LeakyRelu_output_0_splitncnn_0 /model/model.1/sub/sub.4/RDB1/conv2/conv2.1/LeakyRelu_output_0_splitncnn_1 /model/model.1/sub/sub.4/RDB1/conv2/conv2.1/LeakyRelu_output_0_splitncnn_2
Concat           /model/model.1/sub/sub.4/RDB1/Concat_1 3 1 /model/model.1/sub/sub.3/Add_output_0_splitncnn_4 /model/model.1/sub/sub.4/RDB1/conv1/conv1.1/LeakyRelu_output_0_splitncnn_2 /model/model.1/sub/sub.4/RDB1/conv2/conv2.1/LeakyRelu_output_0_splitncnn_2 /model/model.1/sub/sub.4/RDB1/Concat_1_output_0
Convolution      /model/model.1/sub/sub.4/RDB1/conv3/conv3.0/Conv 1 1 /model/model.1/sub/sub.4/RDB1/Concat_1_output_0 /model/model.1/sub/sub.4/RDB1/conv3/conv3.1/LeakyRelu_output_0 0=32 1=3 4=1 5=1 6=36864 9=2 -23310=1,2.000000e-01
Split            splitncnn_51             1 2 /model/model.1/sub/sub.4/RDB1/conv3/conv3.1/LeakyRelu_output_0 /model/model.1/sub/sub.4/RDB1/conv3/conv3.1/LeakyRelu_output_0_splitncnn_0 /model/model.1/sub/sub.4/RDB1/conv3/conv3.1/LeakyRelu_output_0_splitncnn_1
Concat           /model/model.1/sub/sub.4/RDB1/Concat_2 4 1 /model/model.1/sub/sub.3/Add_output_0_splitncnn_3 /model/model.1/sub/sub.4/RDB1/conv1/conv1.1/LeakyRelu_output_0_splitncnn_1 /model/model.1/sub/sub.4/RDB1/conv2/conv2.1/LeakyRelu_output_0_splitncnn_1 /model/model.1/sub/sub.4/RDB1/conv3/conv3.1/LeakyRelu_output_0_splitncnn_1 /model/model.1/sub/sub.4/RDB1/Concat_2_output_0
Convolution      /model/model.1/sub/sub.4/RDB1/conv4/conv4.0/Conv 1 1 /model/model.1/sub/sub.4/RDB1/Concat_2_output_0 /model/model.1/sub/sub.4/RDB1/conv4/conv4.1/LeakyRelu_output_0 0=32 1=3 4=1 5=1 6=46080 9=2 -23310=1,2.000000e-01
Concat           /model/model.1/sub/sub.4/RDB1/Concat_3 5 1 /model/model.1/sub/sub.3/Add_output_0_splitncnn_2 /model/model.1/sub/sub.4/RDB1/conv1/conv1.1/LeakyRelu_output_0_splitncnn_0 /model/model.1/sub/sub.4/RDB1/conv2/conv2.1/LeakyRelu_output_0_splitncnn_0 /model/model.1/sub/sub.4/RDB1/conv3/conv3.1/LeakyRelu_output_0_splitncnn_0 /model/model.1/sub/sub.4/RDB1/conv4/conv4.1/LeakyRelu_output_0 /model/model.1/sub/sub.4/RDB1/Concat_3_output_0
Convolution      /model/model.1/sub/sub.4/RDB1/conv5/conv5.0/Conv 1 1 /model/model.1/sub/sub.4/RDB1/Concat_3_output_0 /model/model.1/sub/sub.4/RDB1/conv5/conv5.0/Conv_output_0 0=64 1=3 4=1 5=1 6=110592
Eltwise          /model/model.1/sub/sub.4/RDB1/Add 2 1 /model/model.1/sub/sub.4/RDB1/conv5/conv5.0/Conv_output_0 /model/model.1/sub/sub.3/Add_output_0_splitncnn_1 /model/model.1/sub/sub.4/RDB1/Add_output_0 0=1 -23301=2,2.000000e-01,1.000000e+00
Split            splitncnn_52             1 6 /model/model.1/sub/sub.4/RDB1/Add_output_0 /model/model.1/sub/sub.4/RDB1/Add_output_0_splitncnn_0 /model/model.1/sub/sub.4/RDB1/Add_output_0_splitncnn_1 /model/model.1/sub/sub.4/RDB1/Add_output_0_splitncnn_2 /model/model.1/sub/sub.4/RDB1/Add_output_0_splitncnn_3 /model/model.1/sub/sub.4/RDB1/Add_output_0_splitncnn_4 /model/model.1/sub/sub.4/RDB1/Add_output_0_splitncnn_5
Convolution      /model/model.1/sub/sub.4/RDB2/conv1/conv1.0/Conv 1 1 /model/model.1/sub/sub.4/RDB1/Add_output_0_splitncnn_5 /model/model.1/sub/sub.4/RDB2/conv1/conv1.1/LeakyRelu_output_0 0=32 1=3 4=1 5=1 6=18432 9=2 -23310=1,2.000000e-01
Split            splitncnn_53             1 4 /model/model.1/sub/sub.4/RDB2/conv1/conv1.1/LeakyRelu_output_0 /model/model.1/sub/sub.4/RDB2/conv1/conv1.1/LeakyRelu_output_0_splitncnn_0 /model/model.1/sub/sub.4/RDB2/conv1/conv1.1/LeakyRelu_output_0_splitncnn_1 /model/model.1/sub/sub.4/RDB2/conv1/conv1.1/LeakyRelu_output_0_splitncnn_2 /model/model.1/sub/sub.4/RDB2/conv1/conv1.1/LeakyRelu_output_0_splitncnn_3
Concat           /model/model.1/sub/sub.4/RDB2/Concat 2 1 /model/model.1/sub/sub.4/RDB1/Add_output_0_splitncnn_4 /model/model.1/sub/sub.4/RDB2/conv1/conv1.1/LeakyRelu_output_0_splitncnn_3 /model/model.1/sub/sub.4/RDB2/Concat_output_0
Convolution      /model/model.1/sub/sub.4/RDB2/conv2/conv2.0/Conv 1 1 /model/model.1/sub/sub.4/RDB2/Concat_output_0 /model/model.1/sub/sub.4/RDB2/conv2/conv2.1/LeakyRelu_output_0 0=32 1=3 4=1 5=1 6=27648 9=2 -23310=1,2.000000e-01
Split            splitncnn_54             1 3 /model/model.1/sub/sub.4/RDB2/conv2/conv2.1/LeakyRelu_output_0 /model/model.1/sub/sub.4/RDB2/conv2/conv2.1/LeakyRelu_output_0_splitncnn_0 /model/model.1/sub/sub.4/RDB2/conv2/conv2.1/LeakyRelu_output_0_splitncnn_1 /model/model.1/sub/sub.4/RDB2/conv2/conv2.1/LeakyRelu_output_0_splitncnn_2
Concat           /model/model.1/sub/sub.4/RDB2/Concat_1 3 1 /model/model.1/sub/sub.4/RDB1/Add_output_0_splitncnn_3 /model/model.1/sub/sub.4/RDB2/conv1/conv1.1/LeakyRelu_output_0_splitncnn_2 /model/model.1/sub/sub.4/RDB2/conv2/conv2.1/LeakyRelu_output_0_splitncnn_2 /model/model.1/sub/sub.4/RDB2/Concat_1_output_0
Convolution      /model/model.1/sub/sub.4/RDB2/conv3/conv3.0/Conv 1 1 /model/model.1/sub/sub.4/RDB2/Concat_1_output_0 /model/model.1/sub/sub.4/RDB2/conv3/conv3.1/LeakyRelu_output_0 0=32 1=3 4=1 5=1 6=36864 9=2 -23310=1,2.000000e-01
Split            splitncnn_55             1 2 /model/model.1/sub/sub.4/RDB2/conv3/conv3.1/LeakyRelu_output_0 /model/model.1/sub/sub.4/RDB2/conv3/conv3.1/LeakyRelu_output_0_splitncnn_0 /model/model.1/sub/sub.4/RDB2/conv3/conv3.1/LeakyRelu_output_0_splitncnn_1
Concat           /model/model.1/sub/sub.4/RDB2/Concat_2 4 1 /model/model.1/sub/sub.4/RDB1/Add_output_0_splitncnn_2 /model/model.1/sub/sub.4/RDB2/conv1/conv1.1/LeakyRelu_output_0_splitncnn_1 /model/model.1/sub/sub.4/RDB2/conv2/conv2.1/LeakyRelu_output_0_splitncnn_1 /model/model.1/sub/sub.4/RDB2/conv3/conv3.1/LeakyRelu_output_0_splitncnn_1 /model/model.1/sub/sub.4/RDB2/Concat_2_output_0
Convolution      /model/model.1/sub/sub.4/RDB2/conv4/conv4.0/Conv 1 1 /model/model.1/sub/sub.4/RDB2/Concat_2_output_0 /model/model.1/sub/sub.4/RDB2/conv4/conv4.1/LeakyRelu_output_0 0=32 1=3 4=1 5=1 6=46080 9=2 -23310=1,2.000000e-01
Concat           /model/model.1/sub/sub.4/RDB2/Concat_3 5 1 /model/model.1/sub/sub.4/RDB1/Add_output_0_splitncnn_1 /model/model.1/sub/sub.4/RDB2/conv1/conv1.1/LeakyRelu_output_0_splitncnn_0 /model/model.1/sub/sub.4/RDB2/conv2/conv2.1/LeakyRelu_output_0_splitncnn_0 /model/model.1/sub/sub.4/RDB2/conv3/conv3.1/LeakyRelu_output_0_splitncnn_0 /model/model.1/sub/sub.4/RDB2/conv4/conv4.1/LeakyRelu_output_0 /model/model.1/sub/sub.4/RDB2/Concat_3_output_0
Convolution      /model/model.1/sub/sub.4/RDB2/conv5/conv5.0/Conv 1 1 /model/model.1/sub/sub.4/RDB2/Concat_3_output_0 /model/model.1/sub/sub.4/RDB2/conv5/conv5.0/Conv_output_0 0=64 1=3 4=1 5=1 6=110592
Eltwise          /model/model.1/sub/sub.4/RDB2/Add 2 1 /model/model.1/sub/sub.4/RDB2/conv5/conv5.0/Conv_output_0 /model/model.1/sub/sub.4/RDB1/Add_output_0_splitncnn_0 /model/model.1/sub/sub.4/RDB2/Add_output_0 0=1 -23301=2,2.000000e-01,1.000000e+00
Split            splitncnn_56             1 6 /model/model.1/sub/sub.4/RDB2/Add_output_0 /model/model.1/sub/sub.4/RDB2/Add_output_0_splitncnn_0 /model/model.1/sub/sub.4/RDB2/Add_output_0_splitncnn_1 /model/model.1/sub/sub.4/RDB2/Add_output_0_splitncnn_2 /model/model.1/sub/sub.4/RDB2/Add_output_0_splitncnn_3 /model/model.1/sub/sub.4/RDB2/Add_output_0_splitncnn_4 /model/model.1/sub/sub.4/RDB2/Add_output_0_splitncnn_5
Convolution      /model/model.1/sub/sub.4/RDB3/conv1/conv1.0/Conv 1 1 /model/model.1/sub/sub.4/RDB2/Add_output_0_splitncnn_5 /model/model.1/sub/sub.4/RDB3/conv1/conv1.1/LeakyRelu_output_0 0=32 1=3 4=1 5=1 6=18432 9=2 -23310=1,2.000000e-01
Split            splitncnn_57             1 4 /model/model.1/sub/sub.4/RDB3/conv1/conv1.1/LeakyRelu_output_0 /model/model.1/sub/sub.4/RDB3/conv1/conv1.1/LeakyRelu_output_0_splitncnn_0 /model/model.1/sub/sub.4/RDB3/conv1/conv1.1/LeakyRelu_output_0_splitncnn_1 /model/model.1/sub/sub.4/RDB3/conv1/conv1.1/LeakyRelu_output_0_splitncnn_2 /model/model.1/sub/sub.4/RDB3/conv1/conv1.1/LeakyRelu_output_0_splitncnn_3
Concat           /model/model.1/sub/sub.4/RDB3/Concat 2 1 /model/model.1/sub/sub.4/RDB2/Add_output_0_splitncnn_4 /model/model.1/sub/sub.4/RDB3/conv1/conv1.1/LeakyRelu_output_0_splitncnn_3 /model/model.1/sub/sub.4/RDB3/Concat_output_0
Convolution      /model/model.1/sub/sub.4/RDB3/conv2/conv2.0/Conv 1 1 /model/model.1/sub/sub.4/RDB3/Concat_output_0 /model/model.1/sub/sub.4/RDB3/conv2/conv2.1/LeakyRelu_output_0 0=32 1=3 4=1 5=1 6=27648 9=2 -23310=1,2.000000e-01
Split            splitncnn_58             1 3 /model/model.1/sub/sub.4/RDB3/conv2/conv2.1/LeakyRelu_output_0 /model/model.1/sub/sub.4/RDB3/conv2/conv2.1/LeakyRelu_output_0_splitncnn_0 /model/model.1/sub/sub.4/RDB3/conv2/conv2.1/LeakyRelu_output_0_splitncnn_1 /model/model.1/sub/sub.4/RDB3/conv2/conv2.1/LeakyRelu_output_0_splitncnn_2
Concat           /model/model.1/sub/sub.4/RDB3/Concat_1 3 1 /model/model.1/sub/sub.4/RDB2/Add_output_0_splitncnn_3 /model/model.1/sub/sub.4/RDB3/conv1/conv1.1/LeakyRelu_output_0_splitncnn_2 /model/model.1/sub/sub.4/RDB3/conv2/conv2.1/LeakyRelu_output_0_splitncnn_2 /model/model.1/sub/sub.4/RDB3/Concat_1_output_0
Convolution      /model/model.1/sub/sub.4/RDB3/conv3/conv3.0/Conv 1 1 /model/model.1/sub/sub.4/RDB3/Concat_1_output_0 /model/model.1/sub/sub.4/RDB3/conv3/conv3.1/LeakyRelu_output_0 0=32 1=3 4=1 5=1 6=36864 9=2 -23310=1,2.000000e-01
Split            splitncnn_59             1 2 /model/model.1/sub/sub.4/RDB3/conv3/conv3.1/LeakyRelu_output_0 /model/model.1/sub/sub.4/RDB3/conv3/conv3.1/LeakyRelu_output_0_splitncnn_0 /model/model.1/sub/sub.4/RDB3/conv3/conv3.1/LeakyRelu_output_0_splitncnn_1
Concat           /model/model.1/sub/sub.4/RDB3/Concat_2 4 1 /model/model.1/sub/sub.4/RDB2/Add_output_0_splitncnn_2 /model/model.1/sub/sub.4/RDB3/conv1/conv1.1/LeakyRelu_output_0_splitncnn_1 /model/model.1/sub/sub.4/RDB3/conv2/conv2.1/LeakyRelu_output_0_splitncnn_1 /model/model.1/sub/sub.4/RDB3/conv3/conv3.1/LeakyRelu_output_0_splitncnn_1 /model/model.1/sub/sub.4/RDB3/Concat_2_output_0
Convolution      /model/model.1/sub/sub.4/RDB3/conv4/conv4.0/Conv 1 1 /model/model.1/sub/sub.4/RDB3/Concat_2_output_0 /model/model.1/sub/sub.4/RDB3/conv4/conv4.1/LeakyRelu_output_0 0=32 1=3 4=1 5=1 6=46080 9=2 -23310=1,2.000000e-01
Concat           /model/model.1/sub/sub.4/RDB3/Concat_3 5 1 /model/model.1/sub/sub.4/RDB2/Add_output_0_splitncnn_1 /model/model.1/sub/sub.4/RDB3/conv1/conv1.1/LeakyRelu_output_0_splitncnn_0 /model/model.1/sub/sub.4/RDB3/conv2/conv2.1/LeakyRelu_output_0_splitncnn_0 /model/model.1/sub/sub.4/RDB3/conv3/conv3.1/LeakyRelu_output_0_splitncnn_0 /model/model.1/sub/sub.4/RDB3/conv4/conv4.1/LeakyRelu_output_0 /model/model.1/sub/sub.4/RDB3/Concat_3_output_0
Convolution      /model/model.1/sub/sub.4/RDB3/conv5/conv5.0/Conv 1 1 /model/model.1/sub/sub.4/RDB3/Concat_3_output_0 /model/model.1/sub/sub.4/RDB3/conv5/conv5.0/Conv_output_0 0=64 1=3 4=1 5=1 6=110592
Eltwise          /model/model.1/sub/sub.4/RDB3/Add 2 1 /model/model.1/sub/sub.4/RDB3/conv5/conv5.0/Conv_output_0 /model/model.1/sub/sub.4/RDB2/Add_output_0_splitncnn_0 /model/model.1/sub/sub.4/RDB3/Add_output_0 0=1 -23301=2,2.000000e-01,1.000000e+00
Eltwise          /model/model.1/sub/sub.4/Add 2 1 /model/model.1/sub/sub.4/RDB3/Add_output_0 /model/model.1/sub/sub.3/Add_output_0_splitncnn_0 /model/model.1/sub/sub.4/Add_output_0 0=1 -23301=2,2.000000e-01,1.000000e+00
Split            splitncnn_60             1 7 /model/model.1/sub/sub.4/Add_output_0 /model/model.1/sub/sub.4/Add_output_0_splitncnn_0 /model/model.1/sub/sub.4/Add_output_0_splitncnn_1 /model/model.1/sub/sub.4/Add_output_0_splitncnn_2 /model/model.1/sub/sub.4/Add_output_0_splitncnn_3 /model/model.1/sub/sub.4/Add_output_0_splitncnn_4 /model/model.1/sub/sub.4/Add_output_0_splitncnn_5 /model/model.1/sub/sub.4/Add_output_0_splitncnn_6
Convolution      /model/model.1/sub/sub.5/RDB1/conv1/conv1.0/Conv 1 1 /model/model.1/sub/sub.4/Add_output_0_splitncnn_6 /model/model.1/sub/sub.5/RDB1/conv1/conv1.1/LeakyRelu_output_0 0=32 1=3 4=1 5=1 6=18432 9=2 -23310=1,2.000000e-01
Split            splitncnn_61             1 4 /model/model.1/sub/sub.5/RDB1/conv1/conv1.1/LeakyRelu_output_0 /model/model.1/sub/sub.5/RDB1/conv1/conv1.1/LeakyRelu_output_0_splitncnn_0 /model/model.1/sub/sub.5/RDB1/conv1/conv1.1/LeakyRelu_output_0_splitncnn_1 /model/model.1/sub/sub.5/RDB1/conv1/conv1.1/LeakyRelu_output_0_splitncnn_2 /model/model.1/sub/sub.5/RDB1/conv1/conv1.1/LeakyRelu_output_0_splitncnn_3
Concat           /model/model.1/sub/sub.5/RDB1/Concat 2 1 /model/model.1/sub/sub.4/Add_output_0_splitncnn_5 /model/model.1/sub/sub.5/RDB1/conv1/conv1.1/LeakyRelu_output_0_splitncnn_3 /model/model.1/sub/sub.5/RDB1/Concat_output_0
Convolution      /model/model.1/sub/sub.5/RDB1/conv2/conv2.0/Conv 1 1 /model/model.1/sub/sub.5/RDB1/Concat_output_0 /model/model.1/sub/sub.5/RDB1/conv2/conv2.1/LeakyRelu_output_0 0=32 1=3 4=1 5=1 6=27648 9=2 -23310=1,2.000000e-01
Split            splitncnn_62             1 3 /model/model.1/sub/sub.5/RDB1/conv2/conv2.1/LeakyRelu_output_0 /model/model.1/sub/sub.5/RDB1/conv2/conv2.1/LeakyRelu_output_0_splitncnn_0 /model/model.1/sub/sub.5/RDB1/conv2/conv2.1/LeakyRelu_output_0_splitncnn_1 /model/model.1/sub/sub.5/RDB1/conv2/conv2.1/LeakyRelu_output_0_splitncnn_2
Concat           /model/model.1/sub/sub.5/RDB1/Concat_1 3 1 /model/model.1/sub/sub.4/Add_output_0_splitncnn_4 /model/model.1/sub/sub.5/RDB1/conv1/conv1.1/LeakyRelu_output_0_splitncnn_2 /model/model.1/sub/sub.5/RDB1/conv2/conv2.1/LeakyRelu_output_0_splitncnn_2 /model/model.1/sub/sub.5/RDB1/Concat_1_output_0
Convolution      /model/model.1/sub/sub.5/RDB1/conv3/conv3.0/Conv 1 1 /model/model.1/sub/sub.5/RDB1/Concat_1_output_0 /model/model.1/sub/sub.5/RDB1/conv3/conv3.1/LeakyRelu_output_0 0=32 1=3 4=1 5=1 6=36864 9=2 -23310=1,2.000000e-01
Split            splitncnn_63             1 2 /model/model.1/sub/sub.5/RDB1/conv3/conv3.1/LeakyRelu_output_0 /model/model.1/sub/sub.5/RDB1/conv3/conv3.1/LeakyRelu_output_0_splitncnn_0 /model/model.1/sub/sub.5/RDB1/conv3/conv3.1/LeakyRelu_output_0_splitncnn_1
Concat           /model/model.1/sub/sub.5/RDB1/Concat_2 4 1 /model/model.1/sub/sub.4/Add_output_0_splitncnn_3 /model/model.1/sub/sub.5/RDB1/conv1/conv1.1/LeakyRelu_output_0_splitncnn_1 /model/model.1/sub/sub.5/RDB1/conv2/conv2.1/LeakyRelu_output_0_splitncnn_1 /model/model.1/sub/sub.5/RDB1/conv3/conv3.1/LeakyRelu_output_0_splitncnn_1 /model/model.1/sub/sub.5/RDB1/Concat_2_output_0
Convolution      /model/model.1/sub/sub.5/RDB1/conv4/conv4.0/Conv 1 1 /model/model.1/sub/sub.5/RDB1/Concat_2_output_0 /model/model.1/sub/sub.5/RDB1/conv4/conv4.1/LeakyRelu_output_0 0=32 1=3 4=1 5=1 6=46080 9=2 -23310=1,2.000000e-01
Concat           /model/model.1/sub/sub.5/RDB1/Concat_3 5 1 /model/model.1/sub/sub.4/Add_output_0_splitncnn_2 /model/model.1/sub/sub.5/RDB1/conv1/conv1.1/LeakyRelu_output_0_splitncnn_0 /model/model.1/sub/sub.5/RDB1/conv2/conv2.1/LeakyRelu_output_0_splitncnn_0 /model/model.1/sub/sub.5/RDB1/conv3/conv3.1/LeakyRelu_output_0_splitncnn_0 /model/model.1/sub/sub.5/RDB1/conv4/conv4.1/LeakyRelu_output_0 /model/model.1/sub/sub.5/RDB1/Concat_3_output_0
Convolution      /model/model.1/sub/sub.5/RDB1/conv5/conv5.0/Conv 1 1 /model/model.1/sub/sub.5/RDB1/Concat_3_output_0 /model/model.1/sub/sub.5/RDB1/conv5/conv5.0/Conv_output_0 0=64 1=3 4=1 5=1 6=110592
Eltwise          /model/model.1/sub/sub.5/RDB1/Add 2 1 /model/model.1/sub/sub.5/RDB1/conv5/conv5.0/Conv_output_0 /model/model.1/sub/sub.4/Add_output_0_splitncnn_1 /model/model.1/sub/sub.5/RDB1/Add_output_0 0=1 -23301=2,2.000000e-01,1.000000e+00
Split            splitncnn_64             1 6 /model/model.1/sub/sub.5/RDB1/Add_output_0 /model/model.1/sub/sub.5/RDB1/Add_output_0_splitncnn_0 /model/model.1/sub/sub.5/RDB1/Add_output_0_splitncnn_1 /model/model.1/sub/sub.5/RDB1/Add_output_0_splitncnn_2 /model/model.1/sub/sub.5/RDB1/Add_output_0_splitncnn_3 /model/model.1/sub/sub.5/RDB1/Add_output_0_splitncnn_4 /model/model.1/sub/sub.5/RDB1/Add_output_0_splitncnn_5
Convolution      /model/model.1/sub/sub.5/RDB2/conv1/conv1.0/Conv 1 1 /model/model.1/sub/sub.5/RDB1/Add_output_0_splitncnn_5 /model/model.1/sub/sub.5/RDB2/conv1/conv1.1/LeakyRelu_output_0 0=32 1=3 4=1 5=1 6=18432 9=2 -23310=1,2.000000e-01
Split            splitncnn_65             1 4 /model/model.1/sub/sub.5/RDB2/conv1/conv1.1/LeakyRelu_output_0 /model/model.1/sub/sub.5/RDB2/conv1/conv1.1/LeakyRelu_output_0_splitncnn_0 /model/model.1/sub/sub.5/RDB2/conv1/conv1.1/LeakyRelu_output_0_splitncnn_1 /model/model.1/sub/sub.5/RDB2/conv1/conv1.1/LeakyRelu_output_0_splitncnn_2 /model/model.1/sub/sub.5/RDB2/conv1/conv1.1/LeakyRelu_output_0_splitncnn_3
Concat           /model/model.1/sub/sub.5/RDB2/Concat 2 1 /model/model.1/sub/sub.5/RDB1/Add_output_0_splitncnn_4 /model/model.1/sub/sub.5/RDB2/conv1/conv1.1/LeakyRelu_output_0_splitncnn_3 /model/model.1/sub/sub.5/RDB2/Concat_output_0
Convolution      /model/model.1/sub/sub.5/RDB2/conv2/conv2.0/Conv 1 1 /model/model.1/sub/sub.5/RDB2/Concat_output_0 /model/model.1/sub/sub.5/RDB2/conv2/conv2.1/LeakyRelu_output_0 0=32 1=3 4=1 5=1 6=27648 9=2 -23310=1,2.000000e-01
Split            splitncnn_66             1 3 /model/model.1/sub/sub.5/RDB2/conv2/conv2.1/LeakyRelu_output_0 /model/model.1/sub/sub.5/RDB2/conv2/conv2.1/LeakyRelu_output_0_splitncnn_0 /model/model.1/sub/sub.5/RDB2/conv2/conv2.1/LeakyRelu_output_0_splitncnn_1 /model/model.1/sub/sub.5/RDB2/conv2/conv2.1/LeakyRelu_output_0_splitncnn_2
Concat           /model/model.1/sub/sub.5/RDB2/Concat_1 3 1 /model/model.1/sub/sub.5/RDB1/Add_output_0_splitncnn_3 /model/model.1/sub/sub.5/RDB2/conv1/conv1.1/LeakyRelu_output_0_splitncnn_2 /model/model.1/sub/sub.5/RDB2/conv2/conv2.1/LeakyRelu_output_0_splitncnn_2 /model/model.1/sub/sub.5/RDB2/Concat_1_output_0
Convolution      /model/model.1/sub/sub.5/RDB2/conv3/conv3.0/Conv 1 1 /model/model.1/sub/sub.5/RDB2/Concat_1_output_0 /model/model.1/sub/sub.5/RDB2/conv3/conv3.1/LeakyRelu_output_0 0=32 1=3 4=1 5=1 6=36864 9=2 -23310=1,2.000000e-01
Split            splitncnn_67             1 2 /model/model.1/sub/sub.5/RDB2/conv3/conv3.1/LeakyRelu_output_0 /model/model.1/sub/sub.5/RDB2/conv3/conv3.1/LeakyRelu_output_0_splitncnn_0 /model/model.1/sub/sub.5/RDB2/conv3/conv3.1/LeakyRelu_output_0_splitncnn_1
Concat           /model/model.1/sub/sub.5/RDB2/Concat_2 4 1 /model/model.1/sub/sub.5/RDB1/Add_output_0_splitncnn_2 /model/model.1/sub/sub.5/RDB2/conv1/conv1.1/LeakyRelu_output_0_splitncnn_1 /model/model.1/sub/sub.5/RDB2/conv2/conv2.1/LeakyRelu_output_0_splitncnn_1 /model/model.1/sub/sub.5/RDB2/conv3/conv3.1/LeakyRelu_output_0_splitncnn_1 /model/model.1/sub/sub.5/RDB2/Concat_2_output_0
Convolution      /model/model.1/sub/sub.5/RDB2/conv4/conv4.0/Conv 1 1 /model/model.1/sub/sub.5/RDB2/Concat_2_output_0 /model/model.1/sub/sub.5/RDB2/conv4/conv4.1/LeakyRelu_output_0 0=32 1=3 4=1 5=1 6=46080 9=2 -23310=1,2.000000e-01
Concat           /model/model.1/sub/sub.5/RDB2/Concat_3 5 1 /model/model.1/sub/sub.5/RDB1/Add_output_0_splitncnn_1 /model/model.1/sub/sub.5/RDB2/conv1/conv1.1/LeakyRelu_output_0_splitncnn_0 /model/model.1/sub/sub.5/RDB2/conv2/conv2.1/LeakyRelu_output_0_splitncnn_0 /model/model.1/sub/sub.5/RDB2/conv3/conv3.1/LeakyRelu_output_0_splitncnn_0 /model/model.1/sub/sub.5/RDB2/conv4/conv4.1/LeakyRelu_output_0 /model/model.1/sub/sub.5/RDB2/Concat_3_output_0
Convolution      /model/model.1/sub/sub.5/RDB2/conv5/conv5.0/Conv 1 1 /model/model.1/sub/sub.5/RDB2/Concat_3_output_0 /model/model.1/sub/sub.5/RDB2/conv5/conv5.0/Conv_output_0 0=64 1=3 4=1 5=1 6=110592
Eltwise          /model/model.1/sub/sub.5/RDB2/Add 2 1 /model/model.1/sub/sub.5/RDB2/conv5/conv5.0/Conv_output_0 /model/model.1/sub/sub.5/RDB1/Add_output_0_splitncnn_0 /model/model.1/sub/sub.5/RDB2/Add_output_0 0=1 -23301=2,2.000000e-01,1.000000e+00
Split            splitncnn_68             1 6 /model/model.1/sub/sub.5/RDB2/Add_output_0 /model/model.1/sub/sub.5/RDB2/Add_output_0_splitncnn_0 /model/model.1/sub/sub.5/RDB2/Add_output_0_splitncnn_1 /model/model.1/sub/sub.5/RDB2/Add_output_0_splitncnn_2 /model/model.1/sub/sub.5/RDB2/Add_output_0_splitncnn_3 /model/model.1/sub/sub.5/RDB2/Add_output_0_splitncnn_4 /model/model.1/sub/sub.5/RDB2/Add_output_0_splitncnn_5
Convolution      /model/model.1/sub/sub.5/RDB3/conv1/conv1.0/Conv 1 1 /model/model.1/sub/sub.5/RDB2/Add_output_0_splitncnn_5 /model/model.1/sub/sub.5/RDB3/conv1/conv1.1/LeakyRelu_output_0 0=32 1=3 4=1 5=1 6=18432 9=2 -23310=1,2.000000e-01
Split            splitncnn_69             1 4 /model/model.1/sub/sub.5/RDB3/conv1/conv1.1/LeakyRelu_output_0 /model/model.1/sub/sub.5/RDB3/conv1/conv1.1/LeakyRelu_output_0_splitncnn_0 /model/model.1/sub/sub.5/RDB3/conv1/conv1.1/LeakyRelu_output_0_splitncnn_1 /model/model.1/sub/sub.5/RDB3/conv1/conv1.1/LeakyRelu_output_0_splitncnn_2 /model/model.1/sub/sub.5/RDB3/conv1/conv1.1/LeakyRelu_output_0_splitncnn_3
Concat           /model/model.1/sub/sub.5/RDB3/Concat 2 1 /model/model.1/sub/sub.5/RDB2/Add_output_0_splitncnn_4 /model/model.1/sub/sub.5/RDB3/conv1/conv1.1/LeakyRelu_output_0_splitncnn_3 /model/model.1/sub/sub.5/RDB3/Concat_output_0
Convolution      /model/model.1/sub/sub.5/RDB3/conv2/conv2.0/Conv 1 1 /model/model.1/sub/sub.5/RDB3/Concat_output_0 /model/model.1/sub/sub.5/RDB3/conv2/conv2.1/LeakyRelu_output_0 0=32 1=3 4=1 5=1 6=27648 9=2 -23310=1,2.000000e-01
Split            splitncnn_70             1 3 /model/model.1/sub/sub.5/RDB3/conv2/conv2.1/LeakyRelu_output_0 /model/model.1/sub/sub.5/RDB3/conv2/conv2.1/LeakyRelu_output_0_splitncnn_0 /model/model.1/sub/sub.5/RDB3/conv2/conv2.1/LeakyRelu_output_0_splitncnn_1 /model/model.1/sub/sub.5/RDB3/conv2/conv2.1/LeakyRelu_output_0_splitncnn_2
Concat           /model/model.1/sub/sub.5/RDB3/Concat_1 3 1 /model/model.1/sub/sub.5/RDB2/Add_output_0_splitncnn_3 /model/model.1/sub/sub.5/RDB3/conv1/conv1.1/LeakyRelu_output_0_splitncnn_2 /model/model.1/sub/sub.5/RDB3/conv2/conv2.1/LeakyRelu_output_0_splitncnn_2 /model/model.1/sub/sub.5/RDB3/Concat_1_output_0
Convolution      /model/model.1/sub/sub.5/RDB3/conv3/conv3.0/Conv 1 1 /model/model.1/sub/sub.5/RDB3/Concat_1_output_0 /model/model.1/sub/sub.5/RDB3/conv3/conv3.1/LeakyRelu_output_0 0=32 1=3 4=1 5=1 6=36864 9=2 -23310=1,2.000000e-01
Split            splitncnn_71             1 2 /model/model.1/sub/sub.5/RDB3/conv3/conv3.1/LeakyRelu_output_0 /model/model.1/sub/sub.5/RDB3/conv3/conv3.1/LeakyRelu_output_0_splitncnn_0 /model/model.1/sub/sub.5/RDB3/conv3/conv3.1/LeakyRelu_output_0_splitncnn_1
Concat           /model/model.1/sub/sub.5/RDB3/Concat_2 4 1 /model/model.1/sub/sub.5/RDB2/Add_output_0_splitncnn_2 /model/model.1/sub/sub.5/RDB3/conv1/conv1.1/LeakyRelu_output_0_splitncnn_1 /model/model.1/sub/sub.5/RDB3/conv2/conv2.1/LeakyRelu_output_0_splitncnn_1 /model/model.1/sub/sub.5/RDB3/conv3/conv3.1/LeakyRelu_output_0_splitncnn_1 /model/model.1/sub/sub.5/RDB3/Concat_2_output_0
Convolution      /model/model.1/sub/sub.5/RDB3/conv4/conv4.0/Conv 1 1 /model/model.1/sub/sub.5/RDB3/Concat_2_output_0 /model/model.1/sub/sub.5/RDB3/conv4/conv4.1/LeakyRelu_output_0 0=32 1=3 4=1 5=1 6=46080 9=2 -23310=1,2.000000e-01
Concat           /model/model.1/sub/sub.5/RDB3/Concat_3 5 1 /model/model.1/sub/sub.5/RDB2/Add_output_0_splitncnn_1 /model/model.1/sub/sub.5/RDB3/conv1/conv1.1/LeakyRelu_output_0_splitncnn_0 /model/model.1/sub/sub.5/RDB3/conv2/conv2.1/LeakyRelu_output_0_splitncnn_0 /model/model.1/sub/sub.5/RDB3/conv3/conv3.1/LeakyRelu_output_0_splitncnn_0 /model/model.1/sub/sub.5/RDB3/conv4/conv4.1/LeakyRelu_output_0 /model/model.1/sub/sub.5/RDB3/Concat_3_output_0
Convolution      /model/model.1/sub/sub.5/RDB3/conv5/conv5.0/Conv 1 1 /model/model.1/sub/sub.5/RDB3/Concat_3_output_0 /model/model.1/sub/sub.5/RDB3/conv5/conv5.0/Conv_output_0 0=64 1=3 4=1 5=1 6=110592
Eltwise          /model/model.1/sub/sub.5/RDB3/Add 2 1 /model/model.1/sub/sub.5/RDB3/conv5/conv5.0/Conv_output_0 /model/model.1/sub/sub.5/RDB2/Add_output_0_splitncnn_0 /model/model.1/sub/sub.5/RDB3/Add_output_0 0=1 -23301=2,2.000000e-01,1.000000e+00
Eltwise          /model/model.1/sub/sub.5/Add 2 1 /model/model.1/sub/sub.5/RDB3/Add_output_0 /model/model.1/sub/sub.4/Add_output_0_splitncnn_0 /model/model.1/sub/sub.5/Add_output_0 0=1 -23301=2,2.000000e-01,1.000000e+00
Split            splitncnn_72             1 7 /model/model.1/sub/sub.5/Add_output_0 /model/model.1/sub/sub.5/Add_output_0_splitncnn_0 /model/model.1/sub/sub.5/Add_output_0_splitncnn_1 /model/model.1/sub/sub.5/Add_output_0_splitncnn_2 /model/model.1/sub/sub.5/Add_output_0_splitncnn_3 /model/model.1/sub/sub.5/Add_output_0_splitncnn_4 /model/model.1/sub/sub.5/Add_output_0_splitncnn_5 /model/model.1/sub/sub.5/Add_output_0_splitncnn_6
Convolution      /model/model.1/sub/sub.6/RDB1/conv1/conv1.0/Conv 1 1 /model/model.1/sub/sub.5/Add_output_0_splitncnn_6 /model/model.1/sub/sub.6/RDB1/conv1/conv1.1/LeakyRelu_output_0 0=32 1=3 4=1 5=1 6=18432 9=2 -23310=1,2.000000e-01
Split            splitncnn_73             1 4 /model/model.1/sub/sub.6/RDB1/conv1/conv1.1/LeakyRelu_output_0 /model/model.1/sub/sub.6/RDB1/conv1/conv1.1/LeakyRelu_output_0_splitncnn_0 /model/model.1/sub/sub.6/RDB1/conv1/conv1.1/LeakyRelu_output_0_splitncnn_1 /model/model.1/sub/sub.6/RDB1/conv1/conv1.1/LeakyRelu_output_0_splitncnn_2 /model/model.1/sub/sub.6/RDB1/conv1/conv1.1/LeakyRelu_output_0_splitncnn_3
Concat           /model/model.1/sub/sub.6/RDB1/Concat 2 1 /model/model.1/sub/sub.5/Add_output_0_splitncnn_5 /model/model.1/sub/sub.6/RDB1/conv1/conv1.1/LeakyRelu_output_0_splitncnn_3 /model/model.1/sub/sub.6/RDB1/Concat_output_0
Convolution      /model/model.1/sub/sub.6/RDB1/conv2/conv2.0/Conv 1 1 /model/model.1/sub/sub.6/RDB1/Concat_output_0 /model/model.1/sub/sub.6/RDB1/conv2/conv2.1/LeakyRelu_output_0 0=32 1=3 4=1 5=1 6=27648 9=2 -23310=1,2.000000e-01
Split            splitncnn_74             1 3 /model/model.1/sub/sub.6/RDB1/conv2/conv2.1/LeakyRelu_output_0 /model/model.1/sub/sub.6/RDB1/conv2/conv2.1/LeakyRelu_output_0_splitncnn_0 /model/model.1/sub/sub.6/RDB1/conv2/conv2.1/LeakyRelu_output_0_splitncnn_1 /model/model.1/sub/sub.6/RDB1/conv2/conv2.1/LeakyRelu_output_0_splitncnn_2
Concat           /model/model.1/sub/sub.6/RDB1/Concat_1 3 1 /model/model.1/sub/sub.5/Add_output_0_splitncnn_4 /model/model.1/sub/sub.6/RDB1/conv1/conv1.1/LeakyRelu_output_0_splitncnn_2 /model/model.1/sub/sub.6/RDB1/conv2/conv2.1/LeakyRelu_output_0_splitncnn_2 /model/model.1/sub/sub.6/RDB1/Concat_1_output_0
Convolution      /model/model.1/sub/sub.6/RDB1/conv3/conv3.0/Conv 1 1 /model/model.1/sub/sub.6/RDB1/Concat_1_output_0 /model/model.1/sub/sub.6/RDB1/conv3/conv3.1/LeakyRelu_output_0 0=32 1=3 4=1 5=1 6=36864 9=2 -23310=1,2.000000e-01
Split            splitncnn_75             1 2 /model/model.1/sub/sub.6/RDB1/conv3/conv3.1/LeakyRelu_output_0 /model/model.1/sub/sub.6/RDB1/conv3/conv3.1/LeakyRelu_output_0_splitncnn_0 /model/model.1/sub/sub.6/RDB1/conv3/conv3.1/LeakyRelu_output_0_splitncnn_1
Concat           /model/model.1/sub/sub.6/RDB1/Concat_2 4 1 /model/model.1/sub/sub.5/Add_output_0_splitncnn_3 /model/model.1/sub/sub.6/RDB1/conv1/conv1.1/LeakyRelu_output_0_splitncnn_1 /model/model.1/sub/sub.6/RDB1/conv2/conv2.1/LeakyRelu_output_0_splitncnn_1 /model/model.1/sub/sub.6/RDB1/conv3/conv3.1/LeakyRelu_output_0_splitncnn_1 /model/model.1/sub/sub.6/RDB1/Concat_2_output_0
Convolution      /model/model.1/sub/sub.6/RDB1/conv4/conv4.0/Conv 1 1 /model/model.1/sub/sub.6/RDB1/Concat_2_output_0 /model/model.1/sub/sub.6/RDB1/conv4/conv4.1/LeakyRelu_output_0 0=32 1=3 4=1 5=1 6=46080 9=2 -23310=1,2.000000e-01
Concat           /model/model.1/sub/sub.6/RDB1/Concat_3 5 1 /model/model.1/sub/sub.5/Add_output_0_splitncnn_2 /model/model.1/sub/sub.6/RDB1/conv1/conv1.1/LeakyRelu_output_0_splitncnn_0 /model/model.1/sub/sub.6/RDB1/conv2/conv2.1/LeakyRelu_output_0_splitncnn_0 /model/model.1/sub/sub.6/RDB1/conv3/conv3.1/LeakyRelu_output_0_splitncnn_0 /model/model.1/sub/sub.6/RDB1/conv4/conv4.1/LeakyRelu_output_0 /model/model.1/sub/sub.6/RDB1/Concat_3_output_0
Convolution      /model/model.1/sub/sub.6/RDB1/conv5/conv5.0/Conv 1 1 /model/model.1/sub/sub.6/RDB1/Concat_3_output_0 /model/model.1/sub/sub.6/RDB1/conv5/conv5.0/Conv_output_0 0=64 1=3 4=1 5=1 6=110592
Eltwise          /model/model.1/sub/sub.6/RDB1/Add 2 1 /model/model.1/sub/sub.6/RDB1/conv5/conv5.0/Conv_output_0 /model/model.1/sub/sub.5/Add_output_0_splitncnn_1 /model/model.1/sub/sub.6/RDB1/Add_output_0 0=1 -23301=2,2.000000e-01,1.000000e+00
Split            splitncnn_76             1 6 /model/model.1/sub/sub.6/RDB1/Add_output_0 /model/model.1/sub/sub.6/RDB1/Add_output_0_splitncnn_0 /model/model.1/sub/sub.6/RDB1/Add_output_0_splitncnn_1 /model/model.1/sub/sub.6/RDB1/Add_output_0_splitncnn_2 /model/model.1/sub/sub.6/RDB1/Add_output_0_splitncnn_3 /model/model.1/sub/sub.6/RDB1/Add_output_0_splitncnn_4 /model/model.1/sub/sub.6/RDB1/Add_output_0_splitncnn_5
Convolution      /model/model.1/sub/sub.6/RDB2/conv1/conv1.0/Conv 1 1 /model/model.1/sub/sub.6/RDB1/Add_output_0_splitncnn_5 /model/model.1/sub/sub.6/RDB2/conv1/conv1.1/LeakyRelu_output_0 0=32 1=3 4=1 5=1 6=18432 9=2 -23310=1,2.000000e-01
Split            splitncnn_77             1 4 /model/model.1/sub/sub.6/RDB2/conv1/conv1.1/LeakyRelu_output_0 /model/model.1/sub/sub.6/RDB2/conv1/conv1.1/LeakyRelu_output_0_splitncnn_0 /model/model.1/sub/sub.6/RDB2/conv1/conv1.1/LeakyRelu_output_0_splitncnn_1 /model/model.1/sub/sub.6/RDB2/conv1/conv1.1/LeakyRelu_output_0_splitncnn_2 /model/model.1/sub/sub.6/RDB2/conv1/conv1.1/LeakyRelu_output_0_splitncnn_3
Concat           /model/model.1/sub/sub.6/RDB2/Concat 2 1 /model/model.1/sub/sub.6/RDB1/Add_output_0_splitncnn_4 /model/model.1/sub/sub.6/RDB2/conv1/conv1.1/LeakyRelu_output_0_splitncnn_3 /model/model.1/sub/sub.6/RDB2/Concat_output_0
Convolution      /model/model.1/sub/sub.6/RDB2/conv2/conv2.0/Conv 1 1 /model/model.1/sub/sub.6/RDB2/Concat_output_0 /model/model.1/sub/sub.6/RDB2/conv2/conv2.1/LeakyRelu_output_0 0=32 1=3 4=1 5=1 6=27648 9=2 -23310=1,2.000000e-01
Split            splitncnn_78             1 3 /model/model.1/sub/sub.6/RDB2/conv2/conv2.1/LeakyRelu_output_0 /model/model.1/sub/sub.6/RDB2/conv2/conv2.1/LeakyRelu_output_0_splitncnn_0 /model/model.1/sub/sub.6/RDB2/conv2/conv2.1/LeakyRelu_output_0_splitncnn_1 /model/model.1/sub/sub.6/RDB2/conv2/conv2.1/LeakyRelu_output_0_splitncnn_2
Concat           /model/model.1/sub/sub.6/RDB2/Concat_1 3 1 /model/model.1/sub/sub.6/RDB1/Add_output_0_splitncnn_3 /model/model.1/sub/sub.6/RDB2/conv1/conv1.1/LeakyRelu_output_0_splitncnn_2 /model/model.1/sub/sub.6/RDB2/conv2/conv2.1/LeakyRelu_output_0_splitncnn_2 /model/model.1/sub/sub.6/RDB2/Concat_1_output_0
Convolution      /model/model.1/sub/sub.6/RDB2/conv3/conv3.0/Conv 1 1 /model/model.1/sub/sub.6/RDB2/Concat_1_output_0 /model/model.1/sub/sub.6/RDB2/conv3/conv3.1/LeakyRelu_output_0 0=32 1=3 4=1 5=1 6=36864 9=2 -23310=1,2.000000e-01
Split            splitncnn_79             1 2 /model/model.1/sub/sub.6/RDB2/conv3/conv3.1/LeakyRelu_output_0 /model/model.1/sub/sub.6/RDB2/conv3/conv3.1/LeakyRelu_output_0_splitncnn_0 /model/model.1/sub/sub.6/RDB2/conv3/conv3.1/LeakyRelu_output_0_splitncnn_1
Concat           /model/model.1/sub/sub.6/RDB2/Concat_2 4 1 /model/model.1/sub/sub.6/RDB1/Add_output_0_splitncnn_2 /model/model.1/sub/sub.6/RDB2/conv1/conv1.1/LeakyRelu_output_0_splitncnn_1 /model/model.1/sub/sub.6/RDB2/conv2/conv2.1/LeakyRelu_output_0_splitncnn_1 /model/model.1/sub/sub.6/RDB2/conv3/conv3.1/LeakyRelu_output_0_splitncnn_1 /model/model.1/sub/sub.6/RDB2/Concat_2_output_0
Convolution      /model/model.1/sub/sub.6/RDB2/conv4/conv4.0/Conv 1 1 /model/model.1/sub/sub.6/RDB2/Concat_2_output_0 /model/model.1/sub/sub.6/RDB2/conv4/conv4.1/LeakyRelu_output_0 0=32 1=3 4=1 5=1 6=46080 9=2 -23310=1,2.000000e-01
Concat           /model/model.1/sub/sub.6/RDB2/Concat_3 5 1 /model/model.1/sub/sub.6/RDB1/Add_output_0_splitncnn_1 /model/model.1/sub/sub.6/RDB2/conv1/conv1.1/LeakyRelu_output_0_splitncnn_0 /model/model.1/sub/sub.6/RDB2/conv2/conv2.1/LeakyRelu_output_0_splitncnn_0 /model/model.1/sub/sub.6/RDB2/conv3/conv3.1/LeakyRelu_output_0_splitncnn_0 /model/model.1/sub/sub.6/RDB2/conv4/conv4.1/LeakyRelu_output_0 /model/model.1/sub/sub.6/RDB2/Concat_3_output_0
Convolution      /model/model.1/sub/sub.6/RDB2/conv5/conv5.0/Conv 1 1 /model/model.1/sub/sub.6/RDB2/Concat_3_output_0 /model/model.1/sub/sub.6/RDB2/conv5/conv5.0/Conv_output_0 0=64 1=3 4=1 5=1 6=110592
Eltwise          /model/model.1/sub/sub.6/RDB2/Add 2 1 /model/model.1/sub/sub.6/RDB2/conv5/conv5.0/Conv_output_0 /model/model.1/sub/sub.6/RDB1/Add_output_0_splitncnn_0 /model/model.1/sub/sub.6/RDB2/Add_output_0 0=1 -23301=2,2.000000e-01,1.000000e+00
Split            splitncnn_80             1 6 /model/model.1/sub/sub.6/RDB2/Add_output_0 /model/model.1/sub/sub.6/RDB2/Add_output_0_splitncnn_0 /model/model.1/sub/sub.6/RDB2/Add_output_0_splitncnn_1 /model/model.1/sub/sub.6/RDB2/Add_output_0_splitncnn_2 /model/model.1/sub/sub.6/RDB2/Add_output_0_splitncnn_3 /model/model.1/sub/sub.6/RDB2/Add_output_0_splitncnn_4 /model/model.1/sub/sub.6/RDB2/Add_output_0_splitncnn_5
Convolution      /model/model.1/sub/sub.6/RDB3/conv1/conv1.0/Conv 1 1 /model/model.1/sub/sub.6/RDB2/Add_output_0_splitncnn_5 /model/model.1/sub/sub.6/RDB3/conv1/conv1.1/LeakyRelu_output_0 0=32 1=3 4=1 5=1 6=18432 9=2 -23310=1,2.000000e-01
Split            splitncnn_81             1 4 /model/model.1/sub/sub.6/RDB3/conv1/conv1.1/LeakyRelu_output_0 /model/model.1/sub/sub.6/RDB3/conv1/conv1.1/LeakyRelu_output_0_splitncnn_0 /model/model.1/sub/sub.6/RDB3/conv1/conv1.1/LeakyRelu_output_0_splitncnn_1 /model/model.1/sub/sub.6/RDB3/conv1/conv1.1/LeakyRelu_output_0_splitncnn_2 /model/model.1/sub/sub.6/RDB3/conv1/conv1.1/LeakyRelu_output_0_splitncnn_3
Concat           /model/model.1/sub/sub.6/RDB3/Concat 2 1 /model/model.1/sub/sub.6/RDB2/Add_output_0_splitncnn_4 /model/model.1/sub/sub.6/RDB3/conv1/conv1.1/LeakyRelu_output_0_splitncnn_3 /model/model.1/sub/sub.6/RDB3/Concat_output_0
Convolution      /model/model.1/sub/sub.6/RDB3/conv2/conv2.0/Conv 1 1 /model/model.1/sub/sub.6/RDB3/Concat_output_0 /model/model.1/sub/sub.6/RDB3/conv2/conv2.1/LeakyRelu_output_0 0=32 1=3 4=1 5=1 6=27648 9=2 -23310=1,2.000000e-01
Split            splitncnn_82             1 3 /model/model.1/sub/sub.6/RDB3/conv2/conv2.1/LeakyRelu_output_0 /model/model.1/sub/sub.6/RDB3/conv2/conv2.1/LeakyRelu_output_0_splitncnn_0 /model/model.1/sub/sub.6/RDB3/conv2/conv2.1/LeakyRelu_output_0_splitncnn_1 /model/model.1/sub/sub.6/RDB3/conv2/conv2.1/LeakyRelu_output_0_splitncnn_2
Concat           /model/model.1/sub/sub.6/RDB3/Concat_1 3 1 /model/model.1/sub/sub.6/RDB2/Add_output_0_splitncnn_3 /model/model.1/sub/sub.6/RDB3/conv1/conv1.1/LeakyRelu_output_0_splitncnn_2 /model/model.1/sub/sub.6/RDB3/conv2/conv2.1/LeakyRelu_output_0_splitncnn_2 /model/model.1/sub/sub.6/RDB3/Concat_1_output_0
Convolution      /model/model.1/sub/sub.6/RDB3/conv3/conv3.0/Conv 1 1 /model/model.1/sub/sub.6/RDB3/Concat_1_output_0 /model/model.1/sub/sub.6/RDB3/conv3/conv3.1/LeakyRelu_output_0 0=32 1=3 4=1 5=1 6=36864 9=2 -23310=1,2.000000e-01
Split            splitncnn_83             1 2 /model/model.1/sub/sub.6/RDB3/conv3/conv3.1/LeakyRelu_output_0 /model/model.1/sub/sub.6/RDB3/conv3/conv3.1/LeakyRelu_output_0_splitncnn_0 /model/model.1/sub/sub.6/RDB3/conv3/conv3.1/LeakyRelu_output_0_splitncnn_1
Concat           /model/model.1/sub/sub.6/RDB3/Concat_2 4 1 /model/model.1/sub/sub.6/RDB2/Add_output_0_splitncnn_2 /model/model.1/sub/sub.6/RDB3/conv1/conv1.1/LeakyRelu_output_0_splitncnn_1 /model/model.1/sub/sub.6/RDB3/conv2/conv2.1/LeakyRelu_output_0_splitncnn_1 /model/model.1/sub/sub.6/RDB3/conv3/conv3.1/LeakyRelu_output_0_splitncnn_1 /model/model.1/sub/sub.6/RDB3/Concat_2_output_0
Convolution      /model/model.1/sub/sub.6/RDB3/conv4/conv4.0/Conv 1 1 /model/model.1/sub/sub.6/RDB3/Concat_2_output_0 /model/model.1/sub/sub.6/RDB3/conv4/conv4.1/LeakyRelu_output_0 0=32 1=3 4=1 5=1 6=46080 9=2 -23310=1,2.000000e-01
Concat           /model/model.1/sub/sub.6/RDB3/Concat_3 5 1 /model/model.1/sub/sub.6/RDB2/Add_output_0_splitncnn_1 /model/model.1/sub/sub.6/RDB3/conv1/conv1.1/LeakyRelu_output_0_splitncnn_0 /model/model.1/sub/sub.6/RDB3/conv2/conv2.1/LeakyRelu_output_0_splitncnn_0 /model/model.1/sub/sub.6/RDB3/conv3/conv3.1/LeakyRelu_output_0_splitncnn_0 /model/model.1/sub/sub.6/RDB3/conv4/conv4.1/LeakyRelu_output_0 /model/model.1/sub/sub.6/RDB3/Concat_3_output_0
Convolution      /model/model.1/sub/sub.6/RDB3/conv5/conv5.0/Conv 1 1 /model/model.1/sub/sub.6/RDB3/Concat_3_output_0 /model/model.1/sub/sub.6/RDB3/conv5/conv5.0/Conv_output_0 0=64 1=3 4=1 5=1 6=110592
Eltwise          /model/model.1/sub/sub.6/RDB3/Add 2 1 /model/model.1/sub/sub.6/RDB3/conv5/conv5.0/Conv_output_0 /model/model.1/sub/sub.6/RDB2/Add_output_0_splitncnn_0 /model/model.1/sub/sub.6/RDB3/Add_output_0 0=1 -23301=2,2.000000e-01,1.000000e+00
Eltwise          /model/model.1/sub/sub.6/Add 2 1 /model/model.1/sub/sub.6/RDB3/Add_output_0 /model/model.1/sub/sub.5/Add_output_0_splitncnn_0 /model/model.1/sub/sub.6/Add_output_0 0=1 -23301=2,2.000000e-01,1.000000e+00
Split            splitncnn_84             1 7 /model/model.1/sub/sub.6/Add_output_0 /model/model.1/sub/sub.6/Add_output_0_splitncnn_0 /model/model.1/sub/sub.6/Add_output_0_splitncnn_1 /model/model.1/sub/sub.6/Add_output_0_splitncnn_2 /model/model.1/sub/sub.6/Add_output_0_splitncnn_3 /model/model.1/sub/sub.6/Add_output_0_splitncnn_4 /model/model.1/sub/sub.6/Add_output_0_splitncnn_5 /model/model.1/sub/sub.6/Add_output_0_splitncnn_6
Convolution      /model/model.1/sub/sub.7/RDB1/conv1/conv1.0/Conv 1 1 /model/model.1/sub/sub.6/Add_output_0_splitncnn_6 /model/model.1/sub/sub.7/RDB1/conv1/conv1.1/LeakyRelu_output_0 0=32 1=3 4=1 5=1 6=18432 9=2 -23310=1,2.000000e-01
Split            splitncnn_85             1 4 /model/model.1/sub/sub.7/RDB1/conv1/conv1.1/LeakyRelu_output_0 /model/model.1/sub/sub.7/RDB1/conv1/conv1.1/LeakyRelu_output_0_splitncnn_0 /model/model.1/sub/sub.7/RDB1/conv1/conv1.1/LeakyRelu_output_0_splitncnn_1 /model/model.1/sub/sub.7/RDB1/conv1/conv1.1/LeakyRelu_output_0_splitncnn_2 /model/model.1/sub/sub.7/RDB1/conv1/conv1.1/LeakyRelu_output_0_splitncnn_3
Concat           /model/model.1/sub/sub.7/RDB1/Concat 2 1 /model/model.1/sub/sub.6/Add_output_0_splitncnn_5 /model/model.1/sub/sub.7/RDB1/conv1/conv1.1/LeakyRelu_output_0_splitncnn_3 /model/model.1/sub/sub.7/RDB1/Concat_output_0
Convolution      /model/model.1/sub/sub.7/RDB1/conv2/conv2.0/Conv 1 1 /model/model.1/sub/sub.7/RDB1/Concat_output_0 /model/model.1/sub/sub.7/RDB1/conv2/conv2.1/LeakyRelu_output_0 0=32 1=3 4=1 5=1 6=27648 9=2 -23310=1,2.000000e-01
Split            splitncnn_86             1 3 /model/model.1/sub/sub.7/RDB1/conv2/conv2.1/LeakyRelu_output_0 /model/model.1/sub/sub.7/RDB1/conv2/conv2.1/LeakyRelu_output_0_splitncnn_0 /model/model.1/sub/sub.7/RDB1/conv2/conv2.1/LeakyRelu_output_0_splitncnn_1 /model/model.1/sub/sub.7/RDB1/conv2/conv2.1/LeakyRelu_output_0_splitncnn_2
Concat           /model/model.1/sub/sub.7/RDB1/Concat_1 3 1 /model/model.1/sub/sub.6/Add_output_0_splitncnn_4 /model/model.1/sub/sub.7/RDB1/conv1/conv1.1/LeakyRelu_output_0_splitncnn_2 /model/model.1/sub/sub.7/RDB1/conv2/conv2.1/LeakyRelu_output_0_splitncnn_2 /model/model.1/sub/sub.7/RDB1/Concat_1_output_0
Convolution      /model/model.1/sub/sub.7/RDB1/conv3/conv3.0/Conv 1 1 /model/model.1/sub/sub.7/RDB1/Concat_1_output_0 /model/model.1/sub/sub.7/RDB1/conv3/conv3.1/LeakyRelu_output_0 0=32 1=3 4=1 5=1 6=36864 9=2 -23310=1,2.000000e-01
Split            splitncnn_87             1 2 /model/model.1/sub/sub.7/RDB1/conv3/conv3.1/LeakyRelu_output_0 /model/model.1/sub/sub.7/RDB1/conv3/conv3.1/LeakyRelu_output_0_splitncnn_0 /model/model.1/sub/sub.7/RDB1/conv3/conv3.1/LeakyRelu_output_0_splitncnn_1
Concat           /model/model.1/sub/sub.7/RDB1/Concat_2 4 1 /model/model.1/sub/sub.6/Add_output_0_splitncnn_3 /model/model.1/sub/sub.7/RDB1/conv1/conv1.1/LeakyRelu_output_0_splitncnn_1 /model/model.1/sub/sub.7/RDB1/conv2/conv2.1/LeakyRelu_output_0_splitncnn_1 /model/model.1/sub/sub.7/RDB1/conv3/conv3.1/LeakyRelu_output_0_splitncnn_1 /model/model.1/sub/sub.7/RDB1/Concat_2_output_0
Convolution      /model/model.1/sub/sub.7/RDB1/conv4/conv4.0/Conv 1 1 /model/model.1/sub/sub.7/RDB1/Concat_2_output_0 /model/model.1/sub/sub.7/RDB1/conv4/conv4.1/LeakyRelu_output_0 0=32 1=3 4=1 5=1 6=46080 9=2 -23310=1,2.000000e-01
Concat           /model/model.1/sub/sub.7/RDB1/Concat_3 5 1 /model/model.1/sub/sub.6/Add_output_0_splitncnn_2 /model/model.1/sub/sub.7/RDB1/conv1/conv1.1/LeakyRelu_output_0_splitncnn_0 /model/model.1/sub/sub.7/RDB1/conv2/conv2.1/LeakyRelu_output_0_splitncnn_0 /model/model.1/sub/sub.7/RDB1/conv3/conv3.1/LeakyRelu_output_0_splitncnn_0 /model/model.1/sub/sub.7/RDB1/conv4/conv4.1/LeakyRelu_output_0 /model/model.1/sub/sub.7/RDB1/Concat_3_output_0
Convolution      /model/model.1/sub/sub.7/RDB1/conv5/conv5.0/Conv 1 1 /model/model.1/sub/sub.7/RDB1/Concat_3_output_0 /model/model.1/sub/sub.7/RDB1/conv5/conv5.0/Conv_output_0 0=64 1=3 4=1 5=1 6=110592
Eltwise          /model/model.1/sub/sub.7/RDB1/Add 2 1 /model/model.1/sub/sub.7/RDB1/conv5/conv5.0/Conv_output_0 /model/model.1/sub/sub.6/Add_output_0_splitncnn_1 /model/model.1/sub/sub.7/RDB1/Add_output_0 0=1 -23301=2,2.000000e-01,1.000000e+00
Split            splitncnn_88             1 6 /model/model.1/sub/sub.7/RDB1/Add_output_0 /model/model.1/sub/sub.7/RDB1/Add_output_0_splitncnn_0 /model/model.1/sub/sub.7/RDB1/Add_output_0_splitncnn_1 /model/model.1/sub/sub.7/RDB1/Add_output_0_splitncnn_2 /model/model.1/sub/sub.7/RDB1/Add_output_0_splitncnn_3 /model/model.1/sub/sub.7/RDB1/Add_output_0_splitncnn_4 /model/model.1/sub/sub.7/RDB1/Add_output_0_splitncnn_5
Convolution      /model/model.1/sub/sub.7/RDB2/conv1/conv1.0/Conv 1 1 /model/model.1/sub/sub.7/RDB1/Add_output_0_splitncnn_5 /model/model.1/sub/sub.7/RDB2/conv1/conv1.1/LeakyRelu_output_0 0=32 1=3 4=1 5=1 6=18432 9=2 -23310=1,2.000000e-01
Split            splitncnn_89             1 4 /model/model.1/sub/sub.7/RDB2/conv1/conv1.1/LeakyRelu_output_0 /model/model.1/sub/sub.7/RDB2/conv1/conv1.1/LeakyRelu_output_0_splitncnn_0 /model/model.1/sub/sub.7/RDB2/conv1/conv1.1/LeakyRelu_output_0_splitncnn_1 /model/model.1/sub/sub.7/RDB2/conv1/conv1.1/LeakyRelu_output_0_splitncnn_2 /model/model.1/sub/sub.7/RDB2/conv1/conv1.1/LeakyRelu_output_0_splitncnn_3
Concat           /model/model.1/sub/sub.7/RDB2/Concat 2 1 /model/model.1/sub/sub.7/RDB1/Add_output_0_splitncnn_4 /model/model.1/sub/sub.7/RDB2/conv1/conv1.1/LeakyRelu_output_0_splitncnn_3 /model/model.1/sub/sub.7/RDB2/Concat_output_0
Convolution      /model/model.1/sub/sub.7/RDB2/conv2/conv2.0/Conv 1 1 /model/model.1/sub/sub.7/RDB2/Concat_output_0 /model/model.1/sub/sub.7/RDB2/conv2/conv2.1/LeakyRelu_output_0 0=32 1=3 4=1 5=1 6=27648 9=2 -23310=1,2.000000e-01
Split            splitncnn_90             1 3 /model/model.1/sub/sub.7/RDB2/conv2/conv2.1/LeakyRelu_output_0 /model/model.1/sub/sub.7/RDB2/conv2/conv2.1/LeakyRelu_output_0_splitncnn_0 /model/model.1/sub/sub.7/RDB2/conv2/conv2.1/LeakyRelu_output_0_splitncnn_1 /model/model.1/sub/sub.7/RDB2/conv2/conv2.1/LeakyRelu_output_0_splitncnn_2
Concat           /model/model.1/sub/sub.7/RDB2/Concat_1 3 1 /model/model.1/sub/sub.7/RDB1/Add_output_0_splitncnn_3 /model/model.1/sub/sub.7/RDB2/conv1/conv1.1/LeakyRelu_output_0_splitncnn_2 /model/model.1/sub/sub.7/RDB2/conv2/conv2.1/LeakyRelu_output_0_splitncnn_2 /model/model.1/sub/sub.7/RDB2/Concat_1_output_0
Convolution      /model/model.1/sub/sub.7/RDB2/conv3/conv3.0/Conv 1 1 /model/model.1/sub/sub.7/RDB2/Concat_1_output_0 /model/model.1/sub/sub.7/RDB2/conv3/conv3.1/LeakyRelu_output_0 0=32 1=3 4=1 5=1 6=36864 9=2 -23310=1,2.000000e-01
Split            splitncnn_91             1 2 /model/model.1/sub/sub.7/RDB2/conv3/conv3.1/LeakyRelu_output_0 /model/model.1/sub/sub.7/RDB2/conv3/conv3.1/LeakyRelu_output_0_splitncnn_0 /model/model.1/sub/sub.7/RDB2/conv3/conv3.1/LeakyRelu_output_0_splitncnn_1
Concat           /model/model.1/sub/sub.7/RDB2/Concat_2 4 1 /model/model.1/sub/sub.7/RDB1/Add_output_0_splitncnn_2 /model/model.1/sub/sub.7/RDB2/conv1/conv1.1/LeakyRelu_output_0_splitncnn_1 /model/model.1/sub/sub.7/RDB2/conv2/conv2.1/LeakyRelu_output_0_splitncnn_1 /model/model.1/sub/sub.7/RDB2/conv3/conv3.1/LeakyRelu_output_0_splitncnn_1 /model/model.1/sub/sub.7/RDB2/Concat_2_output_0
Convolution      /model/model.1/sub/sub.7/RDB2/conv4/conv4.0/Conv 1 1 /model/model.1/sub/sub.7/RDB2/Concat_2_output_0 /model/model.1/sub/sub.7/RDB2/conv4/conv4.1/LeakyRelu_output_0 0=32 1=3 4=1 5=1 6=46080 9=2 -23310=1,2.000000e-01
Concat           /model/model.1/sub/sub.7/RDB2/Concat_3 5 1 /model/model.1/sub/sub.7/RDB1/Add_output_0_splitncnn_1 /model/model.1/sub/sub.7/RDB2/conv1/conv1.1/LeakyRelu_output_0_splitncnn_0 /model/model.1/sub/sub.7/RDB2/conv2/conv2.1/LeakyRelu_output_0_splitncnn_0 /model/model.1/sub/sub.7/RDB2/conv3/conv3.1/LeakyRelu_output_0_splitncnn_0 /model/model.1/sub/sub.7/RDB2/conv4/conv4.1/LeakyRelu_output_0 /model/model.1/sub/sub.7/RDB2/Concat_3_output_0
Convolution      /model/model.1/sub/sub.7/RDB2/conv5/conv5.0/Conv 1 1 /model/model.1/sub/sub.7/RDB2/Concat_3_output_0 /model/model.1/sub/sub.7/RDB2/conv5/conv5.0/Conv_output_0 0=64 1=3 4=1 5=1 6=110592
Eltwise          /model/model.1/sub/sub.7/RDB2/Add 2 1 /model/model.1/sub/sub.7/RDB2/conv5/conv5.0/Conv_output_0 /model/model.1/sub/sub.7/RDB1/Add_output_0_splitncnn_0 /model/model.1/sub/sub.7/RDB2/Add_output_0 0=1 -23301=2,2.000000e-01,1.000000e+00
Split            splitncnn_92             1 6 /model/model.1/sub/sub.7/RDB2/Add_output_0 /model/model.1/sub/sub.7/RDB2/Add_output_0_splitncnn_0 /model/model.1/sub/sub.7/RDB2/Add_output_0_splitncnn_1 /model/model.1/sub/sub.7/RDB2/Add_output_0_splitncnn_2 /model/model.1/sub/sub.7/RDB2/Add_output_0_splitncnn_3 /model/model.1/sub/sub.7/RDB2/Add_output_0_splitncnn_4 /model/model.1/sub/sub.7/RDB2/Add_output_0_splitncnn_5
Convolution      /model/model.1/sub/sub.7/RDB3/conv1/conv1.0/Conv 1 1 /model/model.1/sub/sub.7/RDB2/Add_output_0_splitncnn_5 /model/model.1/sub/sub.7/RDB3/conv1/conv1.1/LeakyRelu_output_0 0=32 1=3 4=1 5=1 6=18432 9=2 -23310=1,2.000000e-01
Split            splitncnn_93             1 4 /model/model.1/sub/sub.7/RDB3/conv1/conv1.1/LeakyRelu_output_0 /model/model.1/sub/sub.7/RDB3/conv1/conv1.1/LeakyRelu_output_0_splitncnn_0 /model/model.1/sub/sub.7/RDB3/conv1/conv1.1/LeakyRelu_output_0_splitncnn_1 /model/model.1/sub/sub.7/RDB3/conv1/conv1.1/LeakyRelu_output_0_splitncnn_2 /model/model.1/sub/sub.7/RDB3/conv1/conv1.1/LeakyRelu_output_0_splitncnn_3
Concat           /model/model.1/sub/sub.7/RDB3/Concat 2 1 /model/model.1/sub/sub.7/RDB2/Add_output_0_splitncnn_4 /model/model.1/sub/sub.7/RDB3/conv1/conv1.1/LeakyRelu_output_0_splitncnn_3 /model/model.1/sub/sub.7/RDB3/Concat_output_0
Convolution      /model/model.1/sub/sub.7/RDB3/conv2/conv2.0/Conv 1 1 /model/model.1/sub/sub.7/RDB3/Concat_output_0 /model/model.1/sub/sub.7/RDB3/conv2/conv2.1/LeakyRelu_output_0 0=32 1=3 4=1 5=1 6=27648 9=2 -23310=1,2.000000e-01
Split            splitncnn_94             1 3 /model/model.1/sub/sub.7/RDB3/conv2/conv2.1/LeakyRelu_output_0 /model/model.1/sub/sub.7/RDB3/conv2/conv2.1/LeakyRelu_output_0_splitncnn_0 /model/model.1/sub/sub.7/RDB3/conv2/conv2.1/LeakyRelu_output_0_splitncnn_1 /model/model.1/sub/sub.7/RDB3/conv2/conv2.1/LeakyRelu_output_0_splitncnn_2
Concat           /model/model.1/sub/sub.7/RDB3/Concat_1 3 1 /model/model.1/sub/sub.7/RDB2/Add_output_0_splitncnn_3 /model/model.1/sub/sub.7/RDB3/conv1/conv1.1/LeakyRelu_output_0_splitncnn_2 /model/model.1/sub/sub.7/RDB3/conv2/conv2.1/LeakyRelu_output_0_splitncnn_2 /model/model.1/sub/sub.7/RDB3/Concat_1_output_0
Convolution      /model/model.1/sub/sub.7/RDB3/conv3/conv3.0/Conv 1 1 /model/model.1/sub/sub.7/RDB3/Concat_1_output_0 /model/model.1/sub/sub.7/RDB3/conv3/conv3.1/LeakyRelu_output_0 0=32 1=3 4=1 5=1 6=36864 9=2 -23310=1,2.000000e-01
Split            splitncnn_95             1 2 /model/model.1/sub/sub.7/RDB3/conv3/conv3.1/LeakyRelu_output_0 /model/model.1/sub/sub.7/RDB3/conv3/conv3.1/LeakyRelu_output_0_splitncnn_0 /model/model.1/sub/sub.7/RDB3/conv3/conv3.1/LeakyRelu_output_0_splitncnn_1
Concat           /model/model.1/sub/sub.7/RDB3/Concat_2 4 1 /model/model.1/sub/sub.7/RDB2/Add_output_0_splitncnn_2 /model/model.1/sub/sub.7/RDB3/conv1/conv1.1/LeakyRelu_output_0_splitncnn_1 /model/model.1/sub/sub.7/RDB3/conv2/conv2.1/LeakyRelu_output_0_splitncnn_1 /model/model.1/sub/sub.7/RDB3/conv3/conv3.1/LeakyRelu_output_0_splitncnn_1 /model/model.1/sub/sub.7/RDB3/Concat_2_output_0
Convolution      /model/model.1/sub/sub.7/RDB3/conv4/conv4.0/Conv 1 1 /model/model.1/sub/sub.7/RDB3/Concat_2_output_0 /model/model.1/sub/sub.7/RDB3/conv4/conv4.1/LeakyRelu_output_0 0=32 1=3 4=1 5=1 6=46080 9=2 -23310=1,2.000000e-01
Concat           /model/model.1/sub/sub.7/RDB3/Concat_3 5 1 /model/model.1/sub/sub.7/RDB2/Add_output_0_splitncnn_1 /model/model.1/sub/sub.7/RDB3/conv1/conv1.1/LeakyRelu_output_0_splitncnn_0 /model/model.1/sub/sub.7/RDB3/conv2/conv2.1/LeakyRelu_output_0_splitncnn_0 /model/model.1/sub/sub.7/RDB3/conv3/conv3.1/LeakyRelu_output_0_splitncnn_0 /model/model.1/sub/sub.7/RDB3/conv4/conv4.1/LeakyRelu_output_0 /model/model.1/sub/sub.7/RDB3/Concat_3_output_0
Convolution      /model/model.1/sub/sub.7/RDB3/conv5/conv5.0/Conv 1 1 /model/model.1/sub/sub.7/RDB3/Concat_3_output_0 /model/model.1/sub/sub.7/RDB3/conv5/conv5.0/Conv_output_0 0=64 1=3 4=1 5=1 6=110592
Eltwise          /model/model.1/sub/sub.7/RDB3/Add 2 1 /model/model.1/sub/sub.7/RDB3/conv5/conv5.0/Conv_output_0 /model/model.1/sub/sub.7/RDB2/Add_output_0_splitncnn_0 /model/model.1/sub/sub.7/RDB3/Add_output_0 0=1 -23301=2,2.000000e-01,1.000000e+00
Eltwise          /model/model.1/sub/sub.7/Add 2 1 /model/model.1/sub/sub.7/RDB3/Add_output_0 /model/model.1/sub/sub.6/Add_output_0_splitncnn_0 /model/model.1/sub/sub.7/Add_output_0 0=1 -23301=2,2.000000e-01,1.000000e+00
Split            splitncnn_96             1 7 /model/model.1/sub/sub.7/Add_output_0 /model/model.1/sub/sub.7/Add_output_0_splitncnn_0 /model/model.1/sub/sub.7/Add_output_0_splitncnn_1 /model/model.1/sub/sub.7/Add_output_0_splitncnn_2 /model/model.1/sub/sub.7/Add_output_0_splitncnn_3 /model/model.1/sub/sub.7/Add_output_0_splitncnn_4 /model/model.1/sub/sub.7/Add_output_0_splitncnn_5 /model/model.1/sub/sub.7/Add_output_0_splitncnn_6
Convolution      /model/model.1/sub/sub.8/RDB1/conv1/conv1.0/Conv 1 1 /model/model.1/sub/sub.7/Add_output_0_splitncnn_6 /model/model.1/sub/sub.8/RDB1/conv1/conv1.1/LeakyRelu_output_0 0=32 1=3 4=1 5=1 6=18432 9=2 -23310=1,2.000000e-01
Split            splitncnn_97             1 4 /model/model.1/sub/sub.8/RDB1/conv1/conv1.1/LeakyRelu_output_0 /model/model.1/sub/sub.8/RDB1/conv1/conv1.1/LeakyRelu_output_0_splitncnn_0 /model/model.1/sub/sub.8/RDB1/conv1/conv1.1/LeakyRelu_output_0_splitncnn_1 /model/model.1/sub/sub.8/RDB1/conv1/conv1.1/LeakyRelu_output_0_splitncnn_2 /model/model.1/sub/sub.8/RDB1/conv1/conv1.1/LeakyRelu_output_0_splitncnn_3
Concat           /model/model.1/sub/sub.8/RDB1/Concat 2 1 /model/model.1/sub/sub.7/Add_output_0_splitncnn_5 /model/model.1/sub/sub.8/RDB1/conv1/conv1.1/LeakyRelu_output_0_splitncnn_3 /model/model.1/sub/sub.8/RDB1/Concat_output_0
Convolution      /model/model.1/sub/sub.8/RDB1/conv2/conv2.0/Conv 1 1 /model/model.1/sub/sub.8/RDB1/Concat_output_0 /model/model.1/sub/sub.8/RDB1/conv2/conv2.1/LeakyRelu_output_0 0=32 1=3 4=1 5=1 6=27648 9=2 -23310=1,2.000000e-01
Split            splitncnn_98             1 3 /model/model.1/sub/sub.8/RDB1/conv2/conv2.1/LeakyRelu_output_0 /model/model.1/sub/sub.8/RDB1/conv2/conv2.1/LeakyRelu_output_0_splitncnn_0 /model/model.1/sub/sub.8/RDB1/conv2/conv2.1/LeakyRelu_output_0_splitncnn_1 /model/model.1/sub/sub.8/RDB1/conv2/conv2.1/LeakyRelu_output_0_splitncnn_2
Concat           /model/model.1/sub/sub.8/RDB1/Concat_1 3 1 /model/model.1/sub/sub.7/Add_output_0_splitncnn_4 /model/model.1/sub/sub.8/RDB1/conv1/conv1.1/LeakyRelu_output_0_splitncnn_2 /model/model.1/sub/sub.8/RDB1/conv2/conv2.1/LeakyRelu_output_0_splitncnn_2 /model/model.1/sub/sub.8/RDB1/Concat_1_output_0
Convolution      /model/model.1/sub/sub.8/RDB1/conv3/conv3.0/Conv 1 1 /model/model.1/sub/sub.8/RDB1/Concat_1_output_0 /model/model.1/sub/sub.8/RDB1/conv3/conv3.1/LeakyRelu_output_0 0=32 1=3 4=1 5=1 6=36864 9=2 -23310=1,2.000000e-01
Split            splitncnn_99             1 2 /model/model.1/sub/sub.8/RDB1/conv3/conv3.1/LeakyRelu_output_0 /model/model.1/sub/sub.8/RDB1/conv3/conv3.1/LeakyRelu_output_0_splitncnn_0 /model/model.1/sub/sub.8/RDB1/conv3/conv3.1/LeakyRelu_output_0_splitncnn_1
Concat           /model/model.1/sub/sub.8/RDB1/Concat_2 4 1 /model/model.1/sub/sub.7/Add_output_0_splitncnn_3 /model/model.1/sub/sub.8/RDB1/conv1/conv1.1/LeakyRelu_output_0_splitncnn_1 /model/model.1/sub/sub.8/RDB1/conv2/conv2.1/LeakyRelu_output_0_splitncnn_1 /model/model.1/sub/sub.8/RDB1/conv3/conv3.1/LeakyRelu_output_0_splitncnn_1 /model/model.1/sub/sub.8/RDB1/Concat_2_output_0
Convolution      /model/model.1/sub/sub.8/RDB1/conv4/conv4.0/Conv 1 1 /model/model.1/sub/sub.8/RDB1/Concat_2_output_0 /model/model.1/sub/sub.8/RDB1/conv4/conv4.1/LeakyRelu_output_0 0=32 1=3 4=1 5=1 6=46080 9=2 -23310=1,2.000000e-01
Concat           /model/model.1/sub/sub.8/RDB1/Concat_3 5 1 /model/model.1/sub/sub.7/Add_output_0_splitncnn_2 /model/model.1/sub/sub.8/RDB1/conv1/conv1.1/LeakyRelu_output_0_splitncnn_0 /model/model.1/sub/sub.8/RDB1/conv2/conv2.1/LeakyRelu_output_0_splitncnn_0 /model/model.1/sub/sub.8/RDB1/conv3/conv3.1/LeakyRelu_output_0_splitncnn_0 /model/model.1/sub/sub.8/RDB1/conv4/conv4.1/LeakyRelu_output_0 /model/model.1/sub/sub.8/RDB1/Concat_3_output_0
Convolution      /model/model.1/sub/sub.8/RDB1/conv5/conv5.0/Conv 1 1 /model/model.1/sub/sub.8/RDB1/Concat_3_output_0 /model/model.1/sub/sub.8/RDB1/conv5/conv5.0/Conv_output_0 0=64 1=3 4=1 5=1 6=110592
Eltwise          /model/model.1/sub/sub.8/RDB1/Add 2 1 /model/model.1/sub/sub.8/RDB1/conv5/conv5.0/Conv_output_0 /model/model.1/sub/sub.7/Add_output_0_splitncnn_1 /model/model.1/sub/sub.8/RDB1/Add_output_0 0=1 -23301=2,2.000000e-01,1.000000e+00
Split            splitncnn_100            1 6 /model/model.1/sub/sub.8/RDB1/Add_output_0 /model/model.1/sub/sub.8/RDB1/Add_output_0_splitncnn_0 /model/model.1/sub/sub.8/RDB1/Add_output_0_splitncnn_1 /model/model.1/sub/sub.8/RDB1/Add_output_0_splitncnn_2 /model/model.1/sub/sub.8/RDB1/Add_output_0_splitncnn_3 /model/model.1/sub/sub.8/RDB1/Add_output_0_splitncnn_4 /model/model.1/sub/sub.8/RDB1/Add_output_0_splitncnn_5
Convolution      /model/model.1/sub/sub.8/RDB2/conv1/conv1.0/Conv 1 1 /model/model.1/sub/sub.8/RDB1/Add_output_0_splitncnn_5 /model/model.1/sub/sub.8/RDB2/conv1/conv1.1/LeakyRelu_output_0 0=32 1=3 4=1 5=1 6=18432 9=2 -23310=1,2.000000e-01
Split            splitncnn_101            1 4 /model/model.1/sub/sub.8/RDB2/conv1/conv1.1/LeakyRelu_output_0 /model/model.1/sub/sub.8/RDB2/conv1/conv1.1/LeakyRelu_output_0_splitncnn_0 /model/model.1/sub/sub.8/RDB2/conv1/conv1.1/LeakyRelu_output_0_splitncnn_1 /model/model.1/sub/sub.8/RDB2/conv1/conv1.1/LeakyRelu_output_0_splitncnn_2 /model/model.1/sub/sub.8/RDB2/conv1/conv1.1/LeakyRelu_output_0_splitncnn_3
Concat           /model/model.1/sub/sub.8/RDB2/Concat 2 1 /model/model.1/sub/sub.8/RDB1/Add_output_0_splitncnn_4 /model/model.1/sub/sub.8/RDB2/conv1/conv1.1/LeakyRelu_output_0_splitncnn_3 /model/model.1/sub/sub.8/RDB2/Concat_output_0
Convolution      /model/model.1/sub/sub.8/RDB2/conv2/conv2.0/Conv 1 1 /model/model.1/sub/sub.8/RDB2/Concat_output_0 /model/model.1/sub/sub.8/RDB2/conv2/conv2.1/LeakyRelu_output_0 0=32 1=3 4=1 5=1 6=27648 9=2 -23310=1,2.000000e-01
Split            splitncnn_102            1 3 /model/model.1/sub/sub.8/RDB2/conv2/conv2.1/LeakyRelu_output_0 /model/model.1/sub/sub.8/RDB2/conv2/conv2.1/LeakyRelu_output_0_splitncnn_0 /model/model.1/sub/sub.8/RDB2/conv2/conv2.1/LeakyRelu_output_0_splitncnn_1 /model/model.1/sub/sub.8/RDB2/conv2/conv2.1/LeakyRelu_output_0_splitncnn_2
Concat           /model/model.1/sub/sub.8/RDB2/Concat_1 3 1 /model/model.1/sub/sub.8/RDB1/Add_output_0_splitncnn_3 /model/model.1/sub/sub.8/RDB2/conv1/conv1.1/LeakyRelu_output_0_splitncnn_2 /model/model.1/sub/sub.8/RDB2/conv2/conv2.1/LeakyRelu_output_0_splitncnn_2 /model/model.1/sub/sub.8/RDB2/Concat_1_output_0
Convolution      /model/model.1/sub/sub.8/RDB2/conv3/conv3.0/Conv 1 1 /model/model.1/sub/sub.8/RDB2/Concat_1_output_0 /model/model.1/sub/sub.8/RDB2/conv3/conv3.1/LeakyRelu_output_0 0=32 1=3 4=1 5=1 6=36864 9=2 -23310=1,2.000000e-01
Split            splitncnn_103            1 2 /model/model.1/sub/sub.8/RDB2/conv3/conv3.1/LeakyRelu_output_0 /model/model.1/sub/sub.8/RDB2/conv3/conv3.1/LeakyRelu_output_0_splitncnn_0 /model/model.1/sub/sub.8/RDB2/conv3/conv3.1/LeakyRelu_output_0_splitncnn_1
Concat           /model/model.1/sub/sub.8/RDB2/Concat_2 4 1 /model/model.1/sub/sub.8/RDB1/Add_output_0_splitncnn_2 /model/model.1/sub/sub.8/RDB2/conv1/conv1.1/LeakyRelu_output_0_splitncnn_1 /model/model.1/sub/sub.8/RDB2/conv2/conv2.1/LeakyRelu_output_0_splitncnn_1 /model/model.1/sub/sub.8/RDB2/conv3/conv3.1/LeakyRelu_output_0_splitncnn_1 /model/model.1/sub/sub.8/RDB2/Concat_2_output_0
Convolution      /model/model.1/sub/sub.8/RDB2/conv4/conv4.0/Conv 1 1 /model/model.1/sub/sub.8/RDB2/Concat_2_output_0 /model/model.1/sub/sub.8/RDB2/conv4/conv4.1/LeakyRelu_output_0 0=32 1=3 4=1 5=1 6=46080 9=2 -23310=1,2.000000e-01
Concat           /model/model.1/sub/sub.8/RDB2/Concat_3 5 1 /model/model.1/sub/sub.8/RDB1/Add_output_0_splitncnn_1 /model/model.1/sub/sub.8/RDB2/conv1/conv1.1/LeakyRelu_output_0_splitncnn_0 /model/model.1/sub/sub.8/RDB2/conv2/conv2.1/LeakyRelu_output_0_splitncnn_0 /model/model.1/sub/sub.8/RDB2/conv3/conv3.1/LeakyRelu_output_0_splitncnn_0 /model/model.1/sub/sub.8/RDB2/conv4/conv4.1/LeakyRelu_output_0 /model/model.1/sub/sub.8/RDB2/Concat_3_output_0
Convolution      /model/model.1/sub/sub.8/RDB2/conv5/conv5.0/Conv 1 1 /model/model.1/sub/sub.8/RDB2/Concat_3_output_0 /model/model.1/sub/sub.8/RDB2/conv5/conv5.0/Conv_output_0 0=64 1=3 4=1 5=1 6=110592
Eltwise          /model/model.1/sub/sub.8/RDB2/Add 2 1 /model/model.1/sub/sub.8/RDB2/conv5/conv5.0/Conv_output_0 /model/model.1/sub/sub.8/RDB1/Add_output_0_splitncnn_0 /model/model.1/sub/sub.8/RDB2/Add_output_0 0=1 -23301=2,2.000000e-01,1.000000e+00
Split            splitncnn_104            1 6 /model/model.1/sub/sub.8/RDB2/Add_output_0 /model/model.1/sub/sub.8/RDB2/Add_output_0_splitncnn_0 /model/model.1/sub/sub.8/RDB2/Add_output_0_splitncnn_1 /model/model.1/sub/sub.8/RDB2/Add_output_0_splitncnn_2 /model/model.1/sub/sub.8/RDB2/Add_output_0_splitncnn_3 /model/model.1/sub/sub.8/RDB2/Add_output_0_splitncnn_4 /model/model.1/sub/sub.8/RDB2/Add_output_0_splitncnn_5
Convolution      /model/model.1/sub/sub.8/RDB3/conv1/conv1.0/Conv 1 1 /model/model.1/sub/sub.8/RDB2/Add_output_0_splitncnn_5 /model/model.1/sub/sub.8/RDB3/conv1/conv1.1/LeakyRelu_output_0 0=32 1=3 4=1 5=1 6=18432 9=2 -23310=1,2.000000e-01
Split            splitncnn_105            1 4 /model/model.1/sub/sub.8/RDB3/conv1/conv1.1/LeakyRelu_output_0 /model/model.1/sub/sub.8/RDB3/conv1/conv1.1/LeakyRelu_output_0_splitncnn_0 /model/model.1/sub/sub.8/RDB3/conv1/conv1.1/LeakyRelu_output_0_splitncnn_1 /model/model.1/sub/sub.8/RDB3/conv1/conv1.1/LeakyRelu_output_0_splitncnn_2 /model/model.1/sub/sub.8/RDB3/conv1/conv1.1/LeakyRelu_output_0_splitncnn_3
Concat           /model/model.1/sub/sub.8/RDB3/Concat 2 1 /model/model.1/sub/sub.8/RDB2/Add_output_0_splitncnn_4 /model/model.1/sub/sub.8/RDB3/conv1/conv1.1/LeakyRelu_output_0_splitncnn_3 /model/model.1/sub/sub.8/RDB3/Concat_output_0
Convolution      /model/model.1/sub/sub.8/RDB3/conv2/conv2.0/Conv 1 1 /model/model.1/sub/sub.8/RDB3/Concat_output_0 /model/model.1/sub/sub.8/RDB3/conv2/conv2.1/LeakyRelu_output_0 0=32 1=3 4=1 5=1 6=27648 9=2 -23310=1,2.000000e-01
Split            splitncnn_106            1 3 /model/model.1/sub/sub.8/RDB3/conv2/conv2.1/LeakyRelu_output_0 /model/model.1/sub/sub.8/RDB3/conv2/conv2.1/LeakyRelu_output_0_splitncnn_0 /model/model.1/sub/sub.8/RDB3/conv2/conv2.1/LeakyRelu_output_0_splitncnn_1 /model/model.1/sub/sub.8/RDB3/conv2/conv2.1/LeakyRelu_output_0_splitncnn_2
Concat           /model/model.1/sub/sub.8/RDB3/Concat_1 3 1 /model/model.1/sub/sub.8/RDB2/Add_output_0_splitncnn_3 /model/model.1/sub/sub.8/RDB3/conv1/conv1.1/LeakyRelu_output_0_splitncnn_2 /model/model.1/sub/sub.8/RDB3/conv2/conv2.1/LeakyRelu_output_0_splitncnn_2 /model/model.1/sub/sub.8/RDB3/Concat_1_output_0
Convolution      /model/model.1/sub/sub.8/RDB3/conv3/conv3.0/Conv 1 1 /model/model.1/sub/sub.8/RDB3/Concat_1_output_0 /model/model.1/sub/sub.8/RDB3/conv3/conv3.1/LeakyRelu_output_0 0=32 1=3 4=1 5=1 6=36864 9=2 -23310=1,2.000000e-01
Split            splitncnn_107            1 2 /model/model.1/sub/sub.8/RDB3/conv3/conv3.1/LeakyRelu_output_0 /model/model.1/sub/sub.8/RDB3/conv3/conv3.1/LeakyRelu_output_0_splitncnn_0 /model/model.1/sub/sub.8/RDB3/conv3/conv3.1/LeakyRelu_output_0_splitncnn_1
Concat           /model/model.1/sub/sub.8/RDB3/Concat_2 4 1 /model/model.1/sub/sub.8/RDB2/Add_output_0_splitncnn_2 /model/model.1/sub/sub.8/RDB3/conv1/conv1.1/LeakyRelu_output_0_splitncnn_1 /model/model.1/sub/sub.8/RDB3/conv2/conv2.1/LeakyRelu_output_0_splitncnn_1 /model/model.1/sub/sub.8/RDB3/conv3/conv3.1/LeakyRelu_output_0_splitncnn_1 /model/model.1/sub/sub.8/RDB3/Concat_2_output_0
Convolution      /model/model.1/sub/sub.8/RDB3/conv4/conv4.0/Conv 1 1 /model/model.1/sub/sub.8/RDB3/Concat_2_output_0 /model/model.1/sub/sub.8/RDB3/conv4/conv4.1/LeakyRelu_output_0 0=32 1=3 4=1 5=1 6=46080 9=2 -23310=1,2.000000e-01
Concat           /model/model.1/sub/sub.8/RDB3/Concat_3 5 1 /model/model.1/sub/sub.8/RDB2/Add_output_0_splitncnn_1 /model/model.1/sub/sub.8/RDB3/conv1/conv1.1/LeakyRelu_output_0_splitncnn_0 /model/model.1/sub/sub.8/RDB3/conv2/conv2.1/LeakyRelu_output_0_splitncnn_0 /model/model.1/sub/sub.8/RDB3/conv3/conv3.1/LeakyRelu_output_0_splitncnn_0 /model/model.1/sub/sub.8/RDB3/conv4/conv4.1/LeakyRelu_output_0 /model/model.1/sub/sub.8/RDB3/Concat_3_output_0
Convolution      /model/model.1/sub/sub.8/RDB3/conv5/conv5.0/Conv 1 1 /model/model.1/sub/sub.8/RDB3/Concat_3_output_0 /model/model.1/sub/sub.8/RDB3/conv5/conv5.0/Conv_output_0 0=64 1=3 4=1 5=1 6=110592
Eltwise          /model/model.1/sub/sub.8/RDB3/Add 2 1 /model/model.1/sub/sub.8/RDB3/conv5/conv5.0/Conv_output_0 /model/model.1/sub/sub.8/RDB2/Add_output_0_splitncnn_0 /model/model.1/sub/sub.8/RDB3/Add_output_0 0=1 -23301=2,2.000000e-01,1.000000e+00
Eltwise          /model/model.1/sub/sub.8/Add 2 1 /model/model.1/sub/sub.8/RDB3/Add_output_0 /model/model.1/sub/sub.7/Add_output_0_splitncnn_0 /model/model.1/sub/sub.8/Add_output_0 0=1 -23301=2,2.000000e-01,1.000000e+00
Split            splitncnn_108            1 7 /model/model.1/sub/sub.8/Add_output_0 /model/model.1/sub/sub.8/Add_output_0_splitncnn_0 /model/model.1/sub/sub.8/Add_output_0_splitncnn_1 /model/model.1/sub/sub.8/Add_output_0_splitncnn_2 /model/model.1/sub/sub.8/Add_output_0_splitncnn_3 /model/model.1/sub/sub.8/Add_output_0_splitncnn_4 /model/model.1/sub/sub.8/Add_output_0_splitncnn_5 /model/model.1/sub/sub.8/Add_output_0_splitncnn_6
Convolution      /model/model.1/sub/sub.9/RDB1/conv1/conv1.0/Conv 1 1 /model/model.1/sub/sub.8/Add_output_0_splitncnn_6 /model/model.1/sub/sub.9/RDB1/conv1/conv1.1/LeakyRelu_output_0 0=32 1=3 4=1 5=1 6=18432 9=2 -23310=1,2.000000e-01
Split            splitncnn_109            1 4 /model/model.1/sub/sub.9/RDB1/conv1/conv1.1/LeakyRelu_output_0 /model/model.1/sub/sub.9/RDB1/conv1/conv1.1/LeakyRelu_output_0_splitncnn_0 /model/model.1/sub/sub.9/RDB1/conv1/conv1.1/LeakyRelu_output_0_splitncnn_1 /model/model.1/sub/sub.9/RDB1/conv1/conv1.1/LeakyRelu_output_0_splitncnn_2 /model/model.1/sub/sub.9/RDB1/conv1/conv1.1/LeakyRelu_output_0_splitncnn_3
Concat           /model/model.1/sub/sub.9/RDB1/Concat 2 1 /model/model.1/sub/sub.8/Add_output_0_splitncnn_5 /model/model.1/sub/sub.9/RDB1/conv1/conv1.1/LeakyRelu_output_0_splitncnn_3 /model/model.1/sub/sub.9/RDB1/Concat_output_0
Convolution      /model/model.1/sub/sub.9/RDB1/conv2/conv2.0/Conv 1 1 /model/model.1/sub/sub.9/RDB1/Concat_output_0 /model/model.1/sub/sub.9/RDB1/conv2/conv2.1/LeakyRelu_output_0 0=32 1=3 4=1 5=1 6=27648 9=2 -23310=1,2.000000e-01
Split            splitncnn_110            1 3 /model/model.1/sub/sub.9/RDB1/conv2/conv2.1/LeakyRelu_output_0 /model/model.1/sub/sub.9/RDB1/conv2/conv2.1/LeakyRelu_output_0_splitncnn_0 /model/model.1/sub/sub.9/RDB1/conv2/conv2.1/LeakyRelu_output_0_splitncnn_1 /model/model.1/sub/sub.9/RDB1/conv2/conv2.1/LeakyRelu_output_0_splitncnn_2
Concat           /model/model.1/sub/sub.9/RDB1/Concat_1 3 1 /model/model.1/sub/sub.8/Add_output_0_splitncnn_4 /model/model.1/sub/sub.9/RDB1/conv1/conv1.1/LeakyRelu_output_0_splitncnn_2 /model/model.1/sub/sub.9/RDB1/conv2/conv2.1/LeakyRelu_output_0_splitncnn_2 /model/model.1/sub/sub.9/RDB1/Concat_1_output_0
Convolution      /model/model.1/sub/sub.9/RDB1/conv3/conv3.0/Conv 1 1 /model/model.1/sub/sub.9/RDB1/Concat_1_output_0 /model/model.1/sub/sub.9/RDB1/conv3/conv3.1/LeakyRelu_output_0 0=32 1=3 4=1 5=1 6=36864 9=2 -23310=1,2.000000e-01
Split            splitncnn_111            1 2 /model/model.1/sub/sub.9/RDB1/conv3/conv3.1/LeakyRelu_output_0 /model/model.1/sub/sub.9/RDB1/conv3/conv3.1/LeakyRelu_output_0_splitncnn_0 /model/model.1/sub/sub.9/RDB1/conv3/conv3.1/LeakyRelu_output_0_splitncnn_1
Concat           /model/model.1/sub/sub.9/RDB1/Concat_2 4 1 /model/model.1/sub/sub.8/Add_output_0_splitncnn_3 /model/model.1/sub/sub.9/RDB1/conv1/conv1.1/LeakyRelu_output_0_splitncnn_1 /model/model.1/sub/sub.9/RDB1/conv2/conv2.1/LeakyRelu_output_0_splitncnn_1 /model/model.1/sub/sub.9/RDB1/conv3/conv3.1/LeakyRelu_output_0_splitncnn_1 /model/model.1/sub/sub.9/RDB1/Concat_2_output_0
Convolution      /model/model.1/sub/sub.9/RDB1/conv4/conv4.0/Conv 1 1 /model/model.1/sub/sub.9/RDB1/Concat_2_output_0 /model/model.1/sub/sub.9/RDB1/conv4/conv4.1/LeakyRelu_output_0 0=32 1=3 4=1 5=1 6=46080 9=2 -23310=1,2.000000e-01
Concat           /model/model.1/sub/sub.9/RDB1/Concat_3 5 1 /model/model.1/sub/sub.8/Add_output_0_splitncnn_2 /model/model.1/sub/sub.9/RDB1/conv1/conv1.1/LeakyRelu_output_0_splitncnn_0 /model/model.1/sub/sub.9/RDB1/conv2/conv2.1/LeakyRelu_output_0_splitncnn_0 /model/model.1/sub/sub.9/RDB1/conv3/conv3.1/LeakyRelu_output_0_splitncnn_0 /model/model.1/sub/sub.9/RDB1/conv4/conv4.1/LeakyRelu_output_0 /model/model.1/sub/sub.9/RDB1/Concat_3_output_0
Convolution      /model/model.1/sub/sub.9/RDB1/conv5/conv5.0/Conv 1 1 /model/model.1/sub/sub.9/RDB1/Concat_3_output_0 /model/model.1/sub/sub.9/RDB1/conv5/conv5.0/Conv_output_0 0=64 1=3 4=1 5=1 6=110592
Eltwise          /model/model.1/sub/sub.9/RDB1/Add 2 1 /model/model.1/sub/sub.9/RDB1/conv5/conv5.0/Conv_output_0 /model/model.1/sub/sub.8/Add_output_0_splitncnn_1 /model/model.1/sub/sub.9/RDB1/Add_output_0 0=1 -23301=2,2.000000e-01,1.000000e+00
Split            splitncnn_112            1 6 /model/model.1/sub/sub.9/RDB1/Add_output_0 /model/model.1/sub/sub.9/RDB1/Add_output_0_splitncnn_0 /model/model.1/sub/sub.9/RDB1/Add_output_0_splitncnn_1 /model/model.1/sub/sub.9/RDB1/Add_output_0_splitncnn_2 /model/model.1/sub/sub.9/RDB1/Add_output_0_splitncnn_3 /model/model.1/sub/sub.9/RDB1/Add_output_0_splitncnn_4 /model/model.1/sub/sub.9/RDB1/Add_output_0_splitncnn_5
Convolution      /model/model.1/sub/sub.9/RDB2/conv1/conv1.0/Conv 1 1 /model/model.1/sub/sub.9/RDB1/Add_output_0_splitncnn_5 /model/model.1/sub/sub.9/RDB2/conv1/conv1.1/LeakyRelu_output_0 0=32 1=3 4=1 5=1 6=18432 9=2 -23310=1,2.000000e-01
Split            splitncnn_113            1 4 /model/model.1/sub/sub.9/RDB2/conv1/conv1.1/LeakyRelu_output_0 /model/model.1/sub/sub.9/RDB2/conv1/conv1.1/LeakyRelu_output_0_splitncnn_0 /model/model.1/sub/sub.9/RDB2/conv1/conv1.1/LeakyRelu_output_0_splitncnn_1 /model/model.1/sub/sub.9/RDB2/conv1/conv1.1/LeakyRelu_output_0_splitncnn_2 /model/model.1/sub/sub.9/RDB2/conv1/conv1.1/LeakyRelu_output_0_splitncnn_3
Concat           /model/model.1/sub/sub.9/RDB2/Concat 2 1 /model/model.1/sub/sub.9/RDB1/Add_output_0_splitncnn_4 /model/model.1/sub/sub.9/RDB2/conv1/conv1.1/LeakyRelu_output_0_splitncnn_3 /model/model.1/sub/sub.9/RDB2/Concat_output_0
Convolution      /model/model.1/sub/sub.9/RDB2/conv2/conv2.0/Conv 1 1 /model/model.1/sub/sub.9/RDB2/Concat_output_0 /model/model.1/sub/sub.9/RDB2/conv2/conv2.1/LeakyRelu_output_0 0=32 1=3 4=1 5=1 6=27648 9=2 -23310=1,2.000000e-01
Split            splitncnn_114            1 3 /model/model.1/sub/sub.9/RDB2/conv2/conv2.1/LeakyRelu_output_0 /model/model.1/sub/sub.9/RDB2/conv2/conv2.1/LeakyRelu_output_0_splitncnn_0 /model/model.1/sub/sub.9/RDB2/conv2/conv2.1/LeakyRelu_output_0_splitncnn_1 /model/model.1/sub/sub.9/RDB2/conv2/conv2.1/LeakyRelu_output_0_splitncnn_2
Concat           /model/model.1/sub/sub.9/RDB2/Concat_1 3 1 /model/model.1/sub/sub.9/RDB1/Add_output_0_splitncnn_3 /model/model.1/sub/sub.9/RDB2/conv1/conv1.1/LeakyRelu_output_0_splitncnn_2 /model/model.1/sub/sub.9/RDB2/conv2/conv2.1/LeakyRelu_output_0_splitncnn_2 /model/model.1/sub/sub.9/RDB2/Concat_1_output_0
Convolution      /model/model.1/sub/sub.9/RDB2/conv3/conv3.0/Conv 1 1 /model/model.1/sub/sub.9/RDB2/Concat_1_output_0 /model/model.1/sub/sub.9/RDB2/conv3/conv3.1/LeakyRelu_output_0 0=32 1=3 4=1 5=1 6=36864 9=2 -23310=1,2.000000e-01
Split            splitncnn_115            1 2 /model/model.1/sub/sub.9/RDB2/conv3/conv3.1/LeakyRelu_output_0 /model/model.1/sub/sub.9/RDB2/conv3/conv3.1/LeakyRelu_output_0_splitncnn_0 /model/model.1/sub/sub.9/RDB2/conv3/conv3.1/LeakyRelu_output_0_splitncnn_1
Concat           /model/model.1/sub/sub.9/RDB2/Concat_2 4 1 /model/model.1/sub/sub.9/RDB1/Add_output_0_splitncnn_2 /model/model.1/sub/sub.9/RDB2/conv1/conv1.1/LeakyRelu_output_0_splitncnn_1 /model/model.1/sub/sub.9/RDB2/conv2/conv2.1/LeakyRelu_output_0_splitncnn_1 /model/model.1/sub/sub.9/RDB2/conv3/conv3.1/LeakyRelu_output_0_splitncnn_1 /model/model.1/sub/sub.9/RDB2/Concat_2_output_0
Convolution      /model/model.1/sub/sub.9/RDB2/conv4/conv4.0/Conv 1 1 /model/model.1/sub/sub.9/RDB2/Concat_2_output_0 /model/model.1/sub/sub.9/RDB2/conv4/conv4.1/LeakyRelu_output_0 0=32 1=3 4=1 5=1 6=46080 9=2 -23310=1,2.000000e-01
Concat           /model/model.1/sub/sub.9/RDB2/Concat_3 5 1 /model/model.1/sub/sub.9/RDB1/Add_output_0_splitncnn_1 /model/model.1/sub/sub.9/RDB2/conv1/conv1.1/LeakyRelu_output_0_splitncnn_0 /model/model.1/sub/sub.9/RDB2/conv2/conv2.1/LeakyRelu_output_0_splitncnn_0 /model/model.1/sub/sub.9/RDB2/conv3/conv3.1/LeakyRelu_output_0_splitncnn_0 /model/model.1/sub/sub.9/RDB2/conv4/conv4.1/LeakyRelu_output_0 /model/model.1/sub/sub.9/RDB2/Concat_3_output_0
Convolution      /model/model.1/sub/sub.9/RDB2/conv5/conv5.0/Conv 1 1 /model/model.1/sub/sub.9/RDB2/Concat_3_output_0 /model/model.1/sub/sub.9/RDB2/conv5/conv5.0/Conv_output_0 0=64 1=3 4=1 5=1 6=110592
Eltwise          /model/model.1/sub/sub.9/RDB2/Add 2 1 /model/model.1/sub/sub.9/RDB2/conv5/conv5.0/Conv_output_0 /model/model.1/sub/sub.9/RDB1/Add_output_0_splitncnn_0 /model/model.1/sub/sub.9/RDB2/Add_output_0 0=1 -23301=2,2.000000e-01,1.000000e+00
Split            splitncnn_116            1 6 /model/model.1/sub/sub.9/RDB2/Add_output_0 /model/model.1/sub/sub.9/RDB2/Add_output_0_splitncnn_0 /model/model.1/sub/sub.9/RDB2/Add_output_0_splitncnn_1 /model/model.1/sub/sub.9/RDB2/Add_output_0_splitncnn_2 /model/model.1/sub/sub.9/RDB2/Add_output_0_splitncnn_3 /model/model.1/sub/sub.9/RDB2/Add_output_0_splitncnn_4 /model/model.1/sub/sub.9/RDB2/Add_output_0_splitncnn_5
Convolution      /model/model.1/sub/sub.9/RDB3/conv1/conv1.0/Conv 1 1 /model/model.1/sub/sub.9/RDB2/Add_output_0_splitncnn_5 /model/model.1/sub/sub.9/RDB3/conv1/conv1.1/LeakyRelu_output_0 0=32 1=3 4=1 5=1 6=18432 9=2 -23310=1,2.000000e-01
Split            splitncnn_117            1 4 /model/model.1/sub/sub.9/RDB3/conv1/conv1.1/LeakyRelu_output_0 /model/model.1/sub/sub.9/RDB3/conv1/conv1.1/LeakyRelu_output_0_splitncnn_0 /model/model.1/sub/sub.9/RDB3/conv1/conv1.1/LeakyRelu_output_0_splitncnn_1 /model/model.1/sub/sub.9/RDB3/conv1/conv1.1/LeakyRelu_output_0_splitncnn_2 /model/model.1/sub/sub.9/RDB3/conv1/conv1.1/LeakyRelu_output_0_splitncnn_3
Concat           /model/model.1/sub/sub.9/RDB3/Concat 2 1 /model/model.1/sub/sub.9/RDB2/Add_output_0_splitncnn_4 /model/model.1/sub/sub.9/RDB3/conv1/conv1.1/LeakyRelu_output_0_splitncnn_3 /model/model.1/sub/sub.9/RDB3/Concat_output_0
Convolution      /model/model.1/sub/sub.9/RDB3/conv2/conv2.0/Conv 1 1 /model/model.1/sub/sub.9/RDB3/Concat_output_0 /model/model.1/sub/sub.9/RDB3/conv2/conv2.1/LeakyRelu_output_0 0=32 1=3 4=1 5=1 6=27648 9=2 -23310=1,2.000000e-01
Split            splitncnn_118            1 3 /model/model.1/sub/sub.9/RDB3/conv2/conv2.1/LeakyRelu_output_0 /model/model.1/sub/sub.9/RDB3/conv2/conv2.1/LeakyRelu_output_0_splitncnn_0 /model/model.1/sub/sub.9/RDB3/conv2/conv2.1/LeakyRelu_output_0_splitncnn_1 /model/model.1/sub/sub.9/RDB3/conv2/conv2.1/LeakyRelu_output_0_splitncnn_2
Concat           /model/model.1/sub/sub.9/RDB3/Concat_1 3 1 /model/model.1/sub/sub.9/RDB2/Add_output_0_splitncnn_3 /model/model.1/sub/sub.9/RDB3/conv1/conv1.1/LeakyRelu_output_0_splitncnn_2 /model/model.1/sub/sub.9/RDB3/conv2/conv2.1/LeakyRelu_output_0_splitncnn_2 /model/model.1/sub/sub.9/RDB3/Concat_1_output_0
Convolution      /model/model.1/sub/sub.9/RDB3/conv3/conv3.0/Conv 1 1 /model/model.1/sub/sub.9/RDB3/Concat_1_output_0 /model/model.1/sub/sub.9/RDB3/conv3/conv3.1/LeakyRelu_output_0 0=32 1=3 4=1 5=1 6=36864 9=2 -23310=1,2.000000e-01
Split            splitncnn_119            1 2 /model/model.1/sub/sub.9/RDB3/conv3/conv3.1/LeakyRelu_output_0 /model/model.1/sub/sub.9/RDB3/conv3/conv3.1/LeakyRelu_output_0_splitncnn_0 /model/model.1/sub/sub.9/RDB3/conv3/conv3.1/LeakyRelu_output_0_splitncnn_1
Concat           /model/model.1/sub/sub.9/RDB3/Concat_2 4 1 /model/model.1/sub/sub.9/RDB2/Add_output_0_splitncnn_2 /model/model.1/sub/sub.9/RDB3/conv1/conv1.1/LeakyRelu_output_0_splitncnn_1 /model/model.1/sub/sub.9/RDB3/conv2/conv2.1/LeakyRelu_output_0_splitncnn_1 /model/model.1/sub/sub.9/RDB3/conv3/conv3.1/LeakyRelu_output_0_splitncnn_1 /model/model.1/sub/sub.9/RDB3/Concat_2_output_0
Convolution      /model/model.1/sub/sub.9/RDB3/conv4/conv4.0/Conv 1 1 /model/model.1/sub/sub.9/RDB3/Concat_2_output_0 /model/model.1/sub/sub.9/RDB3/conv4/conv4.1/LeakyRelu_output_0 0=32 1=3 4=1 5=1 6=46080 9=2 -23310=1,2.000000e-01
Concat           /model/model.1/sub/sub.9/RDB3/Concat_3 5 1 /model/model.1/sub/sub.9/RDB2/Add_output_0_splitncnn_1 /model/model.1/sub/sub.9/RDB3/conv1/conv1.1/LeakyRelu_output_0_splitncnn_0 /model/model.1/sub/sub.9/RDB3/conv2/conv2.1/LeakyRelu_output_0_splitncnn_0 /model/model.1/sub/sub.9/RDB3/conv3/conv3.1/LeakyRelu_output_0_splitncnn_0 /model/model.1/sub/sub.9/RDB3/conv4/conv4.1/LeakyRelu_output_0 /model/model.1/sub/sub.9/RDB3/Concat_3_output_0
Convolution      /model/model.1/sub/sub.9/RDB3/conv5/conv5.0/Conv 1 1 /model/model.1/sub/sub.9/RDB3/Concat_3_output_0 /model/model.1/sub/sub.9/RDB3/conv5/conv5.0/Conv_output_0 0=64 1=3 4=1 5=1 6=110592
Eltwise          /model/model.1/sub/sub.9/RDB3/Add 2 1 /model/model.1/sub/sub.9/RDB3/conv5/conv5.0/Conv_output_0 /model/model.1/sub/sub.9/RDB2/Add_output_0_splitncnn_0 /model/model.1/sub/sub.9/RDB3/Add_output_0 0=1 -23301=2,2.000000e-01,1.000000e+00
Eltwise          /model/model.1/sub/sub.9/Add 2 1 /model/model.1/sub/sub.9/RDB3/Add_output_0 /model/model.1/sub/sub.8/Add_output_0_splitncnn_0 /model/model.1/sub/sub.9/Add_output_0 0=1 -23301=2,2.000000e-01,1.000000e+00
Split            splitncnn_120            1 7 /model/model.1/sub/sub.9/Add_output_0 /model/model.1/sub/sub.9/Add_output_0_splitncnn_0 /model/model.1/sub/sub.9/Add_output_0_splitncnn_1 /model/model.1/sub/sub.9/Add_output_0_splitncnn_2 /model/model.1/sub/sub.9/Add_output_0_splitncnn_3 /model/model.1/sub/sub.9/Add_output_0_splitncnn_4 /model/model.1/sub/sub.9/Add_output_0_splitncnn_5 /model/model.1/sub/sub.9/Add_output_0_splitncnn_6
Convolution      /model/model.1/sub/sub.10/RDB1/conv1/conv1.0/Conv 1 1 /model/model.1/sub/sub.9/Add_output_0_splitncnn_6 /model/model.1/sub/sub.10/RDB1/conv1/conv1.1/LeakyRelu_output_0 0=32 1=3 4=1 5=1 6=18432 9=2 -23310=1,2.000000e-01
Split            splitncnn_121            1 4 /model/model.1/sub/sub.10/RDB1/conv1/conv1.1/LeakyRelu_output_0 /model/model.1/sub/sub.10/RDB1/conv1/conv1.1/LeakyRelu_output_0_splitncnn_0 /model/model.1/sub/sub.10/RDB1/conv1/conv1.1/LeakyRelu_output_0_splitncnn_1 /model/model.1/sub/sub.10/RDB1/conv1/conv1.1/LeakyRelu_output_0_splitncnn_2 /model/model.1/sub/sub.10/RDB1/conv1/conv1.1/LeakyRelu_output_0_splitncnn_3
Concat           /model/model.1/sub/sub.10/RDB1/Concat 2 1 /model/model.1/sub/sub.9/Add_output_0_splitncnn_5 /model/model.1/sub/sub.10/RDB1/conv1/conv1.1/LeakyRelu_output_0_splitncnn_3 /model/model.1/sub/sub.10/RDB1/Concat_output_0
Convolution      /model/model.1/sub/sub.10/RDB1/conv2/conv2.0/Conv 1 1 /model/model.1/sub/sub.10/RDB1/Concat_output_0 /model/model.1/sub/sub.10/RDB1/conv2/conv2.1/LeakyRelu_output_0 0=32 1=3 4=1 5=1 6=27648 9=2 -23310=1,2.000000e-01
Split            splitncnn_122            1 3 /model/model.1/sub/sub.10/RDB1/conv2/conv2.1/LeakyRelu_output_0 /model/model.1/sub/sub.10/RDB1/conv2/conv2.1/LeakyRelu_output_0_splitncnn_0 /model/model.1/sub/sub.10/RDB1/conv2/conv2.1/LeakyRelu_output_0_splitncnn_1 /model/model.1/sub/sub.10/RDB1/conv2/conv2.1/LeakyRelu_output_0_splitncnn_2
Concat           /model/model.1/sub/sub.10/RDB1/Concat_1 3 1 /model/model.1/sub/sub.9/Add_output_0_splitncnn_4 /model/model.1/sub/sub.10/RDB1/conv1/conv1.1/LeakyRelu_output_0_splitncnn_2 /model/model.1/sub/sub.10/RDB1/conv2/conv2.1/LeakyRelu_output_0_splitncnn_2 /model/model.1/sub/sub.10/RDB1/Concat_1_output_0
Convolution      /model/model.1/sub/sub.10/RDB1/conv3/conv3.0/Conv 1 1 /model/model.1/sub/sub.10/RDB1/Concat_1_output_0 /model/model.1/sub/sub.10/RDB1/conv3/conv3.1/LeakyRelu_output_0 0=32 1=3 4=1 5=1 6=36864 9=2 -23310=1,2.000000e-01
Split            splitncnn_123            1 2 /model/model.1/sub/sub.10/RDB1/conv3/conv3.1/LeakyRelu_output_0 /model/model.1/sub/sub.10/RDB1/conv3/conv3.1/LeakyRelu_output_0_splitncnn_0 /model/model.1/sub/sub.10/RDB1/conv3/conv3.1/LeakyRelu_output_0_splitncnn_1
Concat           /model/model.1/sub/sub.10/RDB1/Concat_2 4 1 /model/model.1/sub/sub.9/Add_output_0_splitncnn_3 /model/model.1/sub/sub.10/RDB1/conv1/conv1.1/LeakyRelu_output_0_splitncnn_1 /model/model.1/sub/sub.10/RDB1/conv2/conv2.1/LeakyRelu_output_0_splitncnn_1 /model/model.1/sub/sub.10/RDB1/conv3/conv3.1/LeakyRelu_output_0_splitncnn_1 /model/model.1/sub/sub.10/RDB1/Concat_2_output_0
Convolution      /model/model.1/sub/sub.10/RDB1/conv4/conv4.0/Conv 1 1 /model/model.1/sub/sub.10/RDB1/Concat_2_output_0 /model/model.1/sub/sub.10/RDB1/conv4/conv4.1/LeakyRelu_output_0 0=32 1=3 4=1 5=1 6=46080 9=2 -23310=1,2.000000e-01
Concat           /model/model.1/sub/sub.10/RDB1/Concat_3 5 1 /model/model.1/sub/sub.9/Add_output_0_splitncnn_2 /model/model.1/sub/sub.10/RDB1/conv1/conv1.1/LeakyRelu_output_0_splitncnn_0 /model/model.1/sub/sub.10/RDB1/conv2/conv2.1/LeakyRelu_output_0_splitncnn_0 /model/model.1/sub/sub.10/RDB1/conv3/conv3.1/LeakyRelu_output_0_splitncnn_0 /model/model.1/sub/sub.10/RDB1/conv4/conv4.1/LeakyRelu_output_0 /model/model.1/sub/sub.10/RDB1/Concat_3_output_0
Convolution      /model/model.1/sub/sub.10/RDB1/conv5/conv5.0/Conv 1 1 /model/model.1/sub/sub.10/RDB1/Concat_3_output_0 /model/model.1/sub/sub.10/RDB1/conv5/conv5.0/Conv_output_0 0=64 1=3 4=1 5=1 6=110592
Eltwise          /model/model.1/sub/sub.10/RDB1/Add 2 1 /model/model.1/sub/sub.10/RDB1/conv5/conv5.0/Conv_output_0 /model/model.1/sub/sub.9/Add_output_0_splitncnn_1 /model/model.1/sub/sub.10/RDB1/Add_output_0 0=1 -23301=2,2.000000e-01,1.000000e+00
Split            splitncnn_124            1 6 /model/model.1/sub/sub.10/RDB1/Add_output_0 /model/model.1/sub/sub.10/RDB1/Add_output_0_splitncnn_0 /model/model.1/sub/sub.10/RDB1/Add_output_0_splitncnn_1 /model/model.1/sub/sub.10/RDB1/Add_output_0_splitncnn_2 /model/model.1/sub/sub.10/RDB1/Add_output_0_splitncnn_3 /model/model.1/sub/sub.10/RDB1/Add_output_0_splitncnn_4 /model/model.1/sub/sub.10/RDB1/Add_output_0_splitncnn_5
Convolution      /model/model.1/sub/sub.10/RDB2/conv1/conv1.0/Conv 1 1 /model/model.1/sub/sub.10/RDB1/Add_output_0_splitncnn_5 /model/model.1/sub/sub.10/RDB2/conv1/conv1.1/LeakyRelu_output_0 0=32 1=3 4=1 5=1 6=18432 9=2 -23310=1,2.000000e-01
Split            splitncnn_125            1 4 /model/model.1/sub/sub.10/RDB2/conv1/conv1.1/LeakyRelu_output_0 /model/model.1/sub/sub.10/RDB2/conv1/conv1.1/LeakyRelu_output_0_splitncnn_0 /model/model.1/sub/sub.10/RDB2/conv1/conv1.1/LeakyRelu_output_0_splitncnn_1 /model/model.1/sub/sub.10/RDB2/conv1/conv1.1/LeakyRelu_output_0_splitncnn_2 /model/model.1/sub/sub.10/RDB2/conv1/conv1.1/LeakyRelu_output_0_splitncnn_3
Concat           /model/model.1/sub/sub.10/RDB2/Concat 2 1 /model/model.1/sub/sub.10/RDB1/Add_output_0_splitncnn_4 /model/model.1/sub/sub.10/RDB2/conv1/conv1.1/LeakyRelu_output_0_splitncnn_3 /model/model.1/sub/sub.10/RDB2/Concat_output_0
Convolution      /model/model.1/sub/sub.10/RDB2/conv2/conv2.0/Conv 1 1 /model/model.1/sub/sub.10/RDB2/Concat_output_0 /model/model.1/sub/sub.10/RDB2/conv2/conv2.1/LeakyRelu_output_0 0=32 1=3 4=1 5=1 6=27648 9=2 -23310=1,2.000000e-01
Split            splitncnn_126            1 3 /model/model.1/sub/sub.10/RDB2/conv2/conv2.1/LeakyRelu_output_0 /model/model.1/sub/sub.10/RDB2/conv2/conv2.1/LeakyRelu_output_0_splitncnn_0 /model/model.1/sub/sub.10/RDB2/conv2/conv2.1/LeakyRelu_output_0_splitncnn_1 /model/model.1/sub/sub.10/RDB2/conv2/conv2.1/LeakyRelu_output_0_splitncnn_2
Concat           /model/model.1/sub/sub.10/RDB2/Concat_1 3 1 /model/model.1/sub/sub.10/RDB1/Add_output_0_splitncnn_3 /model/model.1/sub/sub.10/RDB2/conv1/conv1.1/LeakyRelu_output_0_splitncnn_2 /model/model.1/sub/sub.10/RDB2/conv2/conv2.1/LeakyRelu_output_0_splitncnn_2 /model/model.1/sub/sub.10/RDB2/Concat_1_output_0
Convolution      /model/model.1/sub/sub.10/RDB2/conv3/conv3.0/Conv 1 1 /model/model.1/sub/sub.10/RDB2/Concat_1_output_0 /model/model.1/sub/sub.10/RDB2/conv3/conv3.1/LeakyRelu_output_0 0=32 1=3 4=1 5=1 6=36864 9=2 -23310=1,2.000000e-01
Split            splitncnn_127            1 2 /model/model.1/sub/sub.10/RDB2/conv3/conv3.1/LeakyRelu_output_0 /model/model.1/sub/sub.10/RDB2/conv3/conv3.1/LeakyRelu_output_0_splitncnn_0 /model/model.1/sub/sub.10/RDB2/conv3/conv3.1/LeakyRelu_output_0_splitncnn_1
Concat           /model/model.1/sub/sub.10/RDB2/Concat_2 4 1 /model/model.1/sub/sub.10/RDB1/Add_output_0_splitncnn_2 /model/model.1/sub/sub.10/RDB2/conv1/conv1.1/LeakyRelu_output_0_splitncnn_1 /model/model.1/sub/sub.10/RDB2/conv2/conv2.1/LeakyRelu_output_0_splitncnn_1 /model/model.1/sub/sub.10/RDB2/conv3/conv3.1/LeakyRelu_output_0_splitncnn_1 /model/model.1/sub/sub.10/RDB2/Concat_2_output_0
Convolution      /model/model.1/sub/sub.10/RDB2/conv4/conv4.0/Conv 1 1 /model/model.1/sub/sub.10/RDB2/Concat_2_output_0 /model/model.1/sub/sub.10/RDB2/conv4/conv4.1/LeakyRelu_output_0 0=32 1=3 4=1 5=1 6=46080 9=2 -23310=1,2.000000e-01
Concat           /model/model.1/sub/sub.10/RDB2/Concat_3 5 1 /model/model.1/sub/sub.10/RDB1/Add_output_0_splitncnn_1 /model/model.1/sub/sub.10/RDB2/conv1/conv1.1/LeakyRelu_output_0_splitncnn_0 /model/model.1/sub/sub.10/RDB2/conv2/conv2.1/LeakyRelu_output_0_splitncnn_0 /model/model.1/sub/sub.10/RDB2/conv3/conv3.1/LeakyRelu_output_0_splitncnn_0 /model/model.1/sub/sub.10/RDB2/conv4/conv4.1/LeakyRelu_output_0 /model/model.1/sub/sub.10/RDB2/Concat_3_output_0
Convolution      /model/model.1/sub/sub.10/RDB2/conv5/conv5.0/Conv 1 1 /model/model.1/sub/sub.10/RDB2/Concat_3_output_0 /model/model.1/sub/sub.10/RDB2/conv5/conv5.0/Conv_output_0 0=64 1=3 4=1 5=1 6=110592
Eltwise          /model/model.1/sub/sub.10/RDB2/Add 2 1 /model/model.1/sub/sub.10/RDB2/conv5/conv5.0/Conv_output_0 /model/model.1/sub/sub.10/RDB1/Add_output_0_splitncnn_0 /model/model.1/sub/sub.10/RDB2/Add_output_0 0=1 -23301=2,2.000000e-01,1.000000e+00
Split            splitncnn_128            1 6 /model/model.1/sub/sub.10/RDB2/Add_output_0 /model/model.1/sub/sub.10/RDB2/Add_output_0_splitncnn_0 /model/model.1/sub/sub.10/RDB2/Add_output_0_splitncnn_1 /model/model.1/sub/sub.10/RDB2/Add_output_0_splitncnn_2 /model/model.1/sub/sub.10/RDB2/Add_output_0_splitncnn_3 /model/model.1/sub/sub.10/RDB2/Add_output_0_splitncnn_4 /model/model.1/sub/sub.10/RDB2/Add_output_0_splitncnn_5
Convolution      /model/model.1/sub/sub.10/RDB3/conv1/conv1.0/Conv 1 1 /model/model.1/sub/sub.10/RDB2/Add_output_0_splitncnn_5 /model/model.1/sub/sub.10/RDB3/conv1/conv1.1/LeakyRelu_output_0 0=32 1=3 4=1 5=1 6=18432 9=2 -23310=1,2.000000e-01
Split            splitncnn_129            1 4 /model/model.1/sub/sub.10/RDB3/conv1/conv1.1/LeakyRelu_output_0 /model/model.1/sub/sub.10/RDB3/conv1/conv1.1/LeakyRelu_output_0_splitncnn_0 /model/model.1/sub/sub.10/RDB3/conv1/conv1.1/LeakyRelu_output_0_splitncnn_1 /model/model.1/sub/sub.10/RDB3/conv1/conv1.1/LeakyRelu_output_0_splitncnn_2 /model/model.1/sub/sub.10/RDB3/conv1/conv1.1/LeakyRelu_output_0_splitncnn_3
Concat           /model/model.1/sub/sub.10/RDB3/Concat 2 1 /model/model.1/sub/sub.10/RDB2/Add_output_0_splitncnn_4 /model/model.1/sub/sub.10/RDB3/conv1/conv1.1/LeakyRelu_output_0_splitncnn_3 /model/model.1/sub/sub.10/RDB3/Concat_output_0
Convolution      /model/model.1/sub/sub.10/RDB3/conv2/conv2.0/Conv 1 1 /model/model.1/sub/sub.10/RDB3/Concat_output_0 /model/model.1/sub/sub.10/RDB3/conv2/conv2.1/LeakyRelu_output_0 0=32 1=3 4=1 5=1 6=27648 9=2 -23310=1,2.000000e-01
Split            splitncnn_130            1 3 /model/model.1/sub/sub.10/RDB3/conv2/conv2.1/LeakyRelu_output_0 /model/model.1/sub/sub.10/RDB3/conv2/conv2.1/LeakyRelu_output_0_splitncnn_0 /model/model.1/sub/sub.10/RDB3/conv2/conv2.1/LeakyRelu_output_0_splitncnn_1 /model/model.1/sub/sub.10/RDB3/conv2/conv2.1/LeakyRelu_output_0_splitncnn_2
Concat           /model/model.1/sub/sub.10/RDB3/Concat_1 3 1 /model/model.1/sub/sub.10/RDB2/Add_output_0_splitncnn_3 /model/model.1/sub/sub.10/RDB3/conv1/conv1.1/LeakyRelu_output_0_splitncnn_2 /model/model.1/sub/sub.10/RDB3/conv2/conv2.1/LeakyRelu_output_0_splitncnn_2 /model/model.1/sub/sub.10/RDB3/Concat_1_output_0
Convolution      /model/model.1/sub/sub.10/RDB3/conv3/conv3.0/Conv 1 1 /model/model.1/sub/sub.10/RDB3/Concat_1_output_0 /model/model.1/sub/sub.10/RDB3/conv3/conv3.1/LeakyRelu_output_0 0=32 1=3 4=1 5=1 6=36864 9=2 -23310=1,2.000000e-01
Split            splitncnn_131            1 2 /model/model.1/sub/sub.10/RDB3/conv3/conv3.1/LeakyRelu_output_0 /model/model.1/sub/sub.10/RDB3/conv3/conv3.1/LeakyRelu_output_0_splitncnn_0 /model/model.1/sub/sub.10/RDB3/conv3/conv3.1/LeakyRelu_output_0_splitncnn_1
Concat           /model/model.1/sub/sub.10/RDB3/Concat_2 4 1 /model/model.1/sub/sub.10/RDB2/Add_output_0_splitncnn_2 /model/model.1/sub/sub.10/RDB3/conv1/conv1.1/LeakyRelu_output_0_splitncnn_1 /model/model.1/sub/sub.10/RDB3/conv2/conv2.1/LeakyRelu_output_0_splitncnn_1 /model/model.1/sub/sub.10/RDB3/conv3/conv3.1/LeakyRelu_output_0_splitncnn_1 /model/model.1/sub/sub.10/RDB3/Concat_2_output_0
Convolution      /model/model.1/sub/sub.10/RDB3/conv4/conv4.0/Conv 1 1 /model/model.1/sub/sub.10/RDB3/Concat_2_output_0 /model/model.1/sub/sub.10/RDB3/conv4/conv4.1/LeakyRelu_output_0 0=32 1=3 4=1 5=1 6=46080 9=2 -23310=1,2.000000e-01
Concat           /model/model.1/sub/sub.10/RDB3/Concat_3 5 1 /model/model.1/sub/sub.10/RDB2/Add_output_0_splitncnn_1 /model/model.1/sub/sub.10/RDB3/conv1/conv1.1/LeakyRelu_output_0_splitncnn_0 /model/model.1/sub/sub.10/RDB3/conv2/conv2.1/LeakyRelu_output_0_splitncnn_0 /model/model.1/sub/sub.10/RDB3/conv3/conv3.1/LeakyRelu_output_0_splitncnn_0 /model/model.1/sub/sub.10/RDB3/conv4/conv4.1/LeakyRelu_output_0 /model/model.1/sub/sub.10/RDB3/Concat_3_output_0
Convolution      /model/model.1/sub/sub.10/RDB3/conv5/conv5.0/Conv 1 1 /model/model.1/sub/sub.10/RDB3/Concat_3_output_0 /model/model.1/sub/sub.10/RDB3/conv5/conv5.0/Conv_output_0 0=64 1=3 4=1 5=1 6=110592
Eltwise          /model/model.1/sub/sub.10/RDB3/Add 2 1 /model/model.1/sub/sub.10/RDB3/conv5/conv5.0/Conv_output_0 /model/model.1/sub/sub.10/RDB2/Add_output_0_splitncnn_0 /model/model.1/sub/sub.10/RDB3/Add_output_0 0=1 -23301=2,2.000000e-01,1.000000e+00
Eltwise          /model/model.1/sub/sub.10/Add 2 1 /model/model.1/sub/sub.10/RDB3/Add_output_0 /model/model.1/sub/sub.9/Add_output_0_splitncnn_0 /model/model.1/sub/sub.10/Add_output_0 0=1 -23301=2,2.000000e-01,1.000000e+00
Split            splitncnn_132            1 7 /model/model.1/sub/sub.10/Add_output_0 /model/model.1/sub/sub.10/Add_output_0_splitncnn_0 /model/model.1/sub/sub.10/Add_output_0_splitncnn_1 /model/model.1/sub/sub.10/Add_output_0_splitncnn_2 /model/model.1/sub/sub.10/Add_output_0_splitncnn_3 /model/model.1/sub/sub.10/Add_output_0_splitncnn_4 /model/model.1/sub/sub.10/Add_output_0_splitncnn_5 /model/model.1/sub/sub.10/Add_output_0_splitncnn_6
Convolution      /model/model.1/sub/sub.11/RDB1/conv1/conv1.0/Conv 1 1 /model/model.1/sub/sub.10/Add_output_0_splitncnn_6 /model/model.1/sub/sub.11/RDB1/conv1/conv1.1/LeakyRelu_output_0 0=32 1=3 4=1 5=1 6=18432 9=2 -23310=1,2.000000e-01
Split            splitncnn_133            1 4 /model/model.1/sub/sub.11/RDB1/conv1/conv1.1/LeakyRelu_output_0 /model/model.1/sub/sub.11/RDB1/conv1/conv1.1/LeakyRelu_output_0_splitncnn_0 /model/model.1/sub/sub.11/RDB1/conv1/conv1.1/LeakyRelu_output_0_splitncnn_1 /model/model.1/sub/sub.11/RDB1/conv1/conv1.1/LeakyRelu_output_0_splitncnn_2 /model/model.1/sub/sub.11/RDB1/conv1/conv1.1/LeakyRelu_output_0_splitncnn_3
Concat           /model/model.1/sub/sub.11/RDB1/Concat 2 1 /model/model.1/sub/sub.10/Add_output_0_splitncnn_5 /model/model.1/sub/sub.11/RDB1/conv1/conv1.1/LeakyRelu_output_0_splitncnn_3 /model/model.1/sub/sub.11/RDB1/Concat_output_0
Convolution      /model/model.1/sub/sub.11/RDB1/conv2/conv2.0/Conv 1 1 /model/model.1/sub/sub.11/RDB1/Concat_output_0 /model/model.1/sub/sub.11/RDB1/conv2/conv2.1/LeakyRelu_output_0 0=32 1=3 4=1 5=1 6=27648 9=2 -23310=1,2.000000e-01
Split            splitncnn_134            1 3 /model/model.1/sub/sub.11/RDB1/conv2/conv2.1/LeakyRelu_output_0 /model/model.1/sub/sub.11/RDB1/conv2/conv2.1/LeakyRelu_output_0_splitncnn_0 /model/model.1/sub/sub.11/RDB1/conv2/conv2.1/LeakyRelu_output_0_splitncnn_1 /model/model.1/sub/sub.11/RDB1/conv2/conv2.1/LeakyRelu_output_0_splitncnn_2
Concat           /model/model.1/sub/sub.11/RDB1/Concat_1 3 1 /model/model.1/sub/sub.10/Add_output_0_splitncnn_4 /model/model.1/sub/sub.11/RDB1/conv1/conv1.1/LeakyRelu_output_0_splitncnn_2 /model/model.1/sub/sub.11/RDB1/conv2/conv2.1/LeakyRelu_output_0_splitncnn_2 /model/model.1/sub/sub.11/RDB1/Concat_1_output_0
Convolution      /model/model.1/sub/sub.11/RDB1/conv3/conv3.0/Conv 1 1 /model/model.1/sub/sub.11/RDB1/Concat_1_output_0 /model/model.1/sub/sub.11/RDB1/conv3/conv3.1/LeakyRelu_output_0 0=32 1=3 4=1 5=1 6=36864 9=2 -23310=1,2.000000e-01
Split            splitncnn_135            1 2 /model/model.1/sub/sub.11/RDB1/conv3/conv3.1/LeakyRelu_output_0 /model/model.1/sub/sub.11/RDB1/conv3/conv3.1/LeakyRelu_output_0_splitncnn_0 /model/model.1/sub/sub.11/RDB1/conv3/conv3.1/LeakyRelu_output_0_splitncnn_1
Concat           /model/model.1/sub/sub.11/RDB1/Concat_2 4 1 /model/model.1/sub/sub.10/Add_output_0_splitncnn_3 /model/model.1/sub/sub.11/RDB1/conv1/conv1.1/LeakyRelu_output_0_splitncnn_1 /model/model.1/sub/sub.11/RDB1/conv2/conv2.1/LeakyRelu_output_0_splitncnn_1 /model/model.1/sub/sub.11/RDB1/conv3/conv3.1/LeakyRelu_output_0_splitncnn_1 /model/model.1/sub/sub.11/RDB1/Concat_2_output_0
Convolution      /model/model.1/sub/sub.11/RDB1/conv4/conv4.0/Conv 1 1 /model/model.1/sub/sub.11/RDB1/Concat_2_output_0 /model/model.1/sub/sub.11/RDB1/conv4/conv4.1/LeakyRelu_output_0 0=32 1=3 4=1 5=1 6=46080 9=2 -23310=1,2.000000e-01
Concat           /model/model.1/sub/sub.11/RDB1/Concat_3 5 1 /model/model.1/sub/sub.10/Add_output_0_splitncnn_2 /model/model.1/sub/sub.11/RDB1/conv1/conv1.1/LeakyRelu_output_0_splitncnn_0 /model/model.1/sub/sub.11/RDB1/conv2/conv2.1/LeakyRelu_output_0_splitncnn_0 /model/model.1/sub/sub.11/RDB1/conv3/conv3.1/LeakyRelu_output_0_splitncnn_0 /model/model.1/sub/sub.11/RDB1/conv4/conv4.1/LeakyRelu_output_0 /model/model.1/sub/sub.11/RDB1/Concat_3_output_0
Convolution      /model/model.1/sub/sub.11/RDB1/conv5/conv5.0/Conv 1 1 /model/model.1/sub/sub.11/RDB1/Concat_3_output_0 /model/model.1/sub/sub.11/RDB1/conv5/conv5.0/Conv_output_0 0=64 1=3 4=1 5=1 6=110592
Eltwise          /model/model.1/sub/sub.11/RDB1/Add 2 1 /model/model.1/sub/sub.11/RDB1/conv5/conv5.0/Conv_output_0 /model/model.1/sub/sub.10/Add_output_0_splitncnn_1 /model/model.1/sub/sub.11/RDB1/Add_output_0 0=1 -23301=2,2.000000e-01,1.000000e+00
Split            splitncnn_136            1 6 /model/model.1/sub/sub.11/RDB1/Add_output_0 /model/model.1/sub/sub.11/RDB1/Add_output_0_splitncnn_0 /model/model.1/sub/sub.11/RDB1/Add_output_0_splitncnn_1 /model/model.1/sub/sub.11/RDB1/Add_output_0_splitncnn_2 /model/model.1/sub/sub.11/RDB1/Add_output_0_splitncnn_3 /model/model.1/sub/sub.11/RDB1/Add_output_0_splitncnn_4 /model/model.1/sub/sub.11/RDB1/Add_output_0_splitncnn_5
Convolution      /model/model.1/sub/sub.11/RDB2/conv1/conv1.0/Conv 1 1 /model/model.1/sub/sub.11/RDB1/Add_output_0_splitncnn_5 /model/model.1/sub/sub.11/RDB2/conv1/conv1.1/LeakyRelu_output_0 0=32 1=3 4=1 5=1 6=18432 9=2 -23310=1,2.000000e-01
Split            splitncnn_137            1 4 /model/model.1/sub/sub.11/RDB2/conv1/conv1.1/LeakyRelu_output_0 /model/model.1/sub/sub.11/RDB2/conv1/conv1.1/LeakyRelu_output_0_splitncnn_0 /model/model.1/sub/sub.11/RDB2/conv1/conv1.1/LeakyRelu_output_0_splitncnn_1 /model/model.1/sub/sub.11/RDB2/conv1/conv1.1/LeakyRelu_output_0_splitncnn_2 /model/model.1/sub/sub.11/RDB2/conv1/conv1.1/LeakyRelu_output_0_splitncnn_3
Concat           /model/model.1/sub/sub.11/RDB2/Concat 2 1 /model/model.1/sub/sub.11/RDB1/Add_output_0_splitncnn_4 /model/model.1/sub/sub.11/RDB2/conv1/conv1.1/LeakyRelu_output_0_splitncnn_3 /model/model.1/sub/sub.11/RDB2/Concat_output_0
Convolution      /model/model.1/sub/sub.11/RDB2/conv2/conv2.0/Conv 1 1 /model/model.1/sub/sub.11/RDB2/Concat_output_0 /model/model.1/sub/sub.11/RDB2/conv2/conv2.1/LeakyRelu_output_0 0=32 1=3 4=1 5=1 6=27648 9=2 -23310=1,2.000000e-01
Split            splitncnn_138            1 3 /model/model.1/sub/sub.11/RDB2/conv2/conv2.1/LeakyRelu_output_0 /model/model.1/sub/sub.11/RDB2/conv2/conv2.1/LeakyRelu_output_0_splitncnn_0 /model/model.1/sub/sub.11/RDB2/conv2/conv2.1/LeakyRelu_output_0_splitncnn_1 /model/model.1/sub/sub.11/RDB2/conv2/conv2.1/LeakyRelu_output_0_splitncnn_2
Concat           /model/model.1/sub/sub.11/RDB2/Concat_1 3 1 /model/model.1/sub/sub.11/RDB1/Add_output_0_splitncnn_3 /model/model.1/sub/sub.11/RDB2/conv1/conv1.1/LeakyRelu_output_0_splitncnn_2 /model/model.1/sub/sub.11/RDB2/conv2/conv2.1/LeakyRelu_output_0_splitncnn_2 /model/model.1/sub/sub.11/RDB2/Concat_1_output_0
Convolution      /model/model.1/sub/sub.11/RDB2/conv3/conv3.0/Conv 1 1 /model/model.1/sub/sub.11/RDB2/Concat_1_output_0 /model/model.1/sub/sub.11/RDB2/conv3/conv3.1/LeakyRelu_output_0 0=32 1=3 4=1 5=1 6=36864 9=2 -23310=1,2.000000e-01
Split            splitncnn_139            1 2 /model/model.1/sub/sub.11/RDB2/conv3/conv3.1/LeakyRelu_output_0 /model/model.1/sub/sub.11/RDB2/conv3/conv3.1/LeakyRelu_output_0_splitncnn_0 /model/model.1/sub/sub.11/RDB2/conv3/conv3.1/LeakyRelu_output_0_splitncnn_1
Concat           /model/model.1/sub/sub.11/RDB2/Concat_2 4 1 /model/model.1/sub/sub.11/RDB1/Add_output_0_splitncnn_2 /model/model.1/sub/sub.11/RDB2/conv1/conv1.1/LeakyRelu_output_0_splitncnn_1 /model/model.1/sub/sub.11/RDB2/conv2/conv2.1/LeakyRelu_output_0_splitncnn_1 /model/model.1/sub/sub.11/RDB2/conv3/conv3.1/LeakyRelu_output_0_splitncnn_1 /model/model.1/sub/sub.11/RDB2/Concat_2_output_0
Convolution      /model/model.1/sub/sub.11/RDB2/conv4/conv4.0/Conv 1 1 /model/model.1/sub/sub.11/RDB2/Concat_2_output_0 /model/model.1/sub/sub.11/RDB2/conv4/conv4.1/LeakyRelu_output_0 0=32 1=3 4=1 5=1 6=46080 9=2 -23310=1,2.000000e-01
Concat           /model/model.1/sub/sub.11/RDB2/Concat_3 5 1 /model/model.1/sub/sub.11/RDB1/Add_output_0_splitncnn_1 /model/model.1/sub/sub.11/RDB2/conv1/conv1.1/LeakyRelu_output_0_splitncnn_0 /model/model.1/sub/sub.11/RDB2/conv2/conv2.1/LeakyRelu_output_0_splitncnn_0 /model/model.1/sub/sub.11/RDB2/conv3/conv3.1/LeakyRelu_output_0_splitncnn_0 /model/model.1/sub/sub.11/RDB2/conv4/conv4.1/LeakyRelu_output_0 /model/model.1/sub/sub.11/RDB2/Concat_3_output_0
Convolution      /model/model.1/sub/sub.11/RDB2/conv5/conv5.0/Conv 1 1 /model/model.1/sub/sub.11/RDB2/Concat_3_output_0 /model/model.1/sub/sub.11/RDB2/conv5/conv5.0/Conv_output_0 0=64 1=3 4=1 5=1 6=110592
Eltwise          /model/model.1/sub/sub.11/RDB2/Add 2 1 /model/model.1/sub/sub.11/RDB2/conv5/conv5.0/Conv_output_0 /model/model.1/sub/sub.11/RDB1/Add_output_0_splitncnn_0 /model/model.1/sub/sub.11/RDB2/Add_output_0 0=1 -23301=2,2.000000e-01,1.000000e+00
Split            splitncnn_140            1 6 /model/model.1/sub/sub.11/RDB2/Add_output_0 /model/model.1/sub/sub.11/RDB2/Add_output_0_splitncnn_0 /model/model.1/sub/sub.11/RDB2/Add_output_0_splitncnn_1 /model/model.1/sub/sub.11/RDB2/Add_output_0_splitncnn_2 /model/model.1/sub/sub.11/RDB2/Add_output_0_splitncnn_3 /model/model.1/sub/sub.11/RDB2/Add_output_0_splitncnn_4 /model/model.1/sub/sub.11/RDB2/Add_output_0_splitncnn_5
…
l.1/sub/sub.19/RDB1/Concat_2_output_0
Convolution      /model/model.1/sub/sub.19/RDB1/conv4/conv4.0/Conv 1 1 /model/model.1/sub/sub.19/RDB1/Concat_2_output_0 /model/model.1/sub/sub.19/RDB1/conv4/conv4.1/LeakyRelu_output_0 0=32 1=3 4=1 5=1 6=46080 9=2 -23310=1,2.000000e-01
Concat           /model/model.1/sub/sub.19/RDB1/Concat_3 5 1 /model/model.1/sub/sub.18/Add_output_0_splitncnn_2 /model/model.1/sub/sub.19/RDB1/conv1/conv1.1/LeakyRelu_output_0_splitncnn_0 /model/model.1/sub/sub.19/RDB1/conv2/conv2.1/LeakyRelu_output_0_splitncnn_0 /model/model.1/sub/sub.19/RDB1/conv3/conv3.1/LeakyRelu_output_0_splitncnn_0 /model/model.1/sub/sub.19/RDB1/conv4/conv4.1/LeakyRelu_output_0 /model/model.1/sub/sub.19/RDB1/Concat_3_output_0
Convolution      /model/model.1/sub/sub.19/RDB1/conv5/conv5.0/Conv 1 1 /model/model.1/sub/sub.19/RDB1/Concat_3_output_0 /model/model.1/sub/sub.19/RDB1/conv5/conv5.0/Conv_output_0 0=64 1=3 4=1 5=1 6=110592
Eltwise          /model/model.1/sub/sub.19/RDB1/Add 2 1 /model/model.1/sub/sub.19/RDB1/conv5/conv5.0/Conv_output_0 /model/model.1/sub/sub.18/Add_output_0_splitncnn_1 /model/model.1/sub/sub.19/RDB1/Add_output_0 0=1 -23301=2,2.000000e-01,1.000000e+00
Split            splitncnn_232            1 6 /model/model.1/sub/sub.19/RDB1/Add_output_0 /model/model.1/sub/sub.19/RDB1/Add_output_0_splitncnn_0 /model/model.1/sub/sub.19/RDB1/Add_output_0_splitncnn_1 /model/model.1/sub/sub.19/RDB1/Add_output_0_splitncnn_2 /model/model.1/sub/sub.19/RDB1/Add_output_0_splitncnn_3 /model/model.1/sub/sub.19/RDB1/Add_output_0_splitncnn_4 /model/model.1/sub/sub.19/RDB1/Add_output_0_splitncnn_5
Convolution      /model/model.1/sub/sub.19/RDB2/conv1/conv1.0/Conv 1 1 /model/model.1/sub/sub.19/RDB1/Add_output_0_splitncnn_5 /model/model.1/sub/sub.19/RDB2/conv1/conv1.1/LeakyRelu_output_0 0=32 1=3 4=1 5=1 6=18432 9=2 -23310=1,2.000000e-01
Split            splitncnn_233            1 4 /model/model.1/sub/sub.19/RDB2/conv1/conv1.1/LeakyRelu_output_0 /model/model.1/sub/sub.19/RDB2/conv1/conv1.1/LeakyRelu_output_0_splitncnn_0 /model/model.1/sub/sub.19/RDB2/conv1/conv1.1/LeakyRelu_output_0_splitncnn_1 /model/model.1/sub/sub.19/RDB2/conv1/conv1.1/LeakyRelu_output_0_splitncnn_2 /model/model.1/sub/sub.19/RDB2/conv1/conv1.1/LeakyRelu_output_0_splitncnn_3
Concat           /model/model.1/sub/sub.19/RDB2/Concat 2 1 /model/model.1/sub/sub.19/RDB1/Add_output_0_splitncnn_4 /model/model.1/sub/sub.19/RDB2/conv1/conv1.1/LeakyRelu_output_0_splitncnn_3 /model/model.1/sub/sub.19/RDB2/Concat_output_0
Convolution      /model/model.1/sub/sub.19/RDB2/conv2/conv2.0/Conv 1 1 /model/model.1/sub/sub.19/RDB2/Concat_output_0 /model/model.1/sub/sub.19/RDB2/conv2/conv2.1/LeakyRelu_output_0 0=32 1=3 4=1 5=1 6=27648 9=2 -23310=1,2.000000e-01
Split            splitncnn_234            1 3 /model/model.1/sub/sub.19/RDB2/conv2/conv2.1/LeakyRelu_output_0 /model/model.1/sub/sub.19/RDB2/conv2/conv2.1/LeakyRelu_output_0_splitncnn_0 /model/model.1/sub/sub.19/RDB2/conv2/conv2.1/LeakyRelu_output_0_splitncnn_1 /model/model.1/sub/sub.19/RDB2/conv2/conv2.1/LeakyRelu_output_0_splitncnn_2
Concat           /model/model.1/sub/sub.19/RDB2/Concat_1 3 1 /model/model.1/sub/sub.19/RDB1/Add_output_0_splitncnn_3 /model/model.1/sub/sub.19/RDB2/conv1/conv1.1/LeakyRelu_output_0_splitncnn_2 /model/model.1/sub/sub.19/RDB2/conv2/conv2.1/LeakyRelu_output_0_splitncnn_2 /model/model.1/sub/sub.19/RDB2/Concat_1_output_0
Convolution      /model/model.1/sub/sub.19/RDB2/conv3/conv3.0/Conv 1 1 /model/model.1/sub/sub.19/RDB2/Concat_1_output_0 /model/model.1/sub/sub.19/RDB2/conv3/conv3.1/LeakyRelu_output_0 0=32 1=3 4=1 5=1 6=36864 9=2 -23310=1,2.000000e-01
Split            splitncnn_235            1 2 /model/model.1/sub/sub.19/RDB2/conv3/conv3.1/LeakyRelu_output_0 /model/model.1/sub/sub.19/RDB2/conv3/conv3.1/LeakyRelu_output_0_splitncnn_0 /model/model.1/sub/sub.19/RDB2/conv3/conv3.1/LeakyRelu_output_0_splitncnn_1
Concat           /model/model.1/sub/sub.19/RDB2/Concat_2 4 1 /model/model.1/sub/sub.19/RDB1/Add_output_0_splitncnn_2 /model/model.1/sub/sub.19/RDB2/conv1/conv1.1/LeakyRelu_output_0_splitncnn_1 /model/model.1/sub/sub.19/RDB2/conv2/conv2.1/LeakyRelu_output_0_splitncnn_1 /model/model.1/sub/sub.19/RDB2/conv3/conv3.1/LeakyRelu_output_0_splitncnn_1 /model/model.1/sub/sub.19/RDB2/Concat_2_output_0
Convolution      /model/model.1/sub/sub.19/RDB2/conv4/conv4.0/Conv 1 1 /model/model.1/sub/sub.19/RDB2/Concat_2_output_0 /model/model.1/sub/sub.19/RDB2/conv4/conv4.1/LeakyRelu_output_0 0=32 1=3 4=1 5=1 6=46080 9=2 -23310=1,2.000000e-01
Concat           /model/model.1/sub/sub.19/RDB2/Concat_3 5 1 /model/model.1/sub/sub.19/RDB1/Add_output_0_splitncnn_1 /model/model.1/sub/sub.19/RDB2/conv1/conv1.1/LeakyRelu_output_0_splitncnn_0 /model/model.1/sub/sub.19/RDB2/conv2/conv2.1/LeakyRelu_output_0_splitncnn_0 /model/model.1/sub/sub.19/RDB2/conv3/conv3.1/LeakyRelu_output_0_splitncnn_0 /model/model.1/sub/sub.19/RDB2/conv4/conv4.1/LeakyRelu_output_0 /model/model.1/sub/sub.19/RDB2/Concat_3_output_0
Convolution      /model/model.1/sub/sub.19/RDB2/conv5/conv5.0/Conv 1 1 /model/model.1/sub/sub.19/RDB2/Concat_3_output_0 /model/model.1/sub/sub.19/RDB2/conv5/conv5.0/Conv_output_0 0=64 1=3 4=1 5=1 6=110592
Eltwise          /model/model.1/sub/sub.19/RDB2/Add 2 1 /model/model.1/sub/sub.19/RDB2/conv5/conv5.0/Conv_output_0 /model/model.1/sub/sub.19/RDB1/Add_output_0_splitncnn_0 /model/model.1/sub/sub.19/RDB2/Add_output_0 0=1 -23301=2,2.000000e-01,1.000000e+00
Split            splitncnn_236            1 6 /model/model.1/sub/sub.19/RDB2/Add_output_0 /model/model.1/sub/sub.19/RDB2/Add_output_0_splitncnn_0 /model/model.1/sub/sub.19/RDB2/Add_output_0_splitncnn_1 /model/model.1/sub/sub.19/RDB2/Add_output_0_splitncnn_2 /model/model.1/sub/sub.19/RDB2/Add_output_0_splitncnn_3 /model/model.1/sub/sub.19/RDB2/Add_output_0_splitncnn_4 /model/model.1/sub/sub.19/RDB2/Add_output_0_splitncnn_5
Convolution      /model/model.1/sub/sub.19/RDB3/conv1/conv1.0/Conv 1 1 /model/model.1/sub/sub.19/RDB2/Add_output_0_splitncnn_5 /model/model.1/sub/sub.19/RDB3/conv1/conv1.1/LeakyRelu_output_0 0=32 1=3 4=1 5=1 6=18432 9=2 -23310=1,2.000000e-01
Split            splitncnn_237            1 4 /model/model.1/sub/sub.19/RDB3/conv1/conv1.1/LeakyRelu_output_0 /model/model.1/sub/sub.19/RDB3/conv1/conv1.1/LeakyRelu_output_0_splitncnn_0 /model/model.1/sub/sub.19/RDB3/conv1/conv1.1/LeakyRelu_output_0_splitncnn_1 /model/model.1/sub/sub.19/RDB3/conv1/conv1.1/LeakyRelu_output_0_splitncnn_2 /model/model.1/sub/sub.19/RDB3/conv1/conv1.1/LeakyRelu_output_0_splitncnn_3
Concat           /model/model.1/sub/sub.19/RDB3/Concat 2 1 /model/model.1/sub/sub.19/RDB2/Add_output_0_splitncnn_4 /model/model.1/sub/sub.19/RDB3/conv1/conv1.1/LeakyRelu_output_0_splitncnn_3 /model/model.1/sub/sub.19/RDB3/Concat_output_0
Convolution      /model/model.1/sub/sub.19/RDB3/conv2/conv2.0/Conv 1 1 /model/model.1/sub/sub.19/RDB3/Concat_output_0 /model/model.1/sub/sub.19/RDB3/conv2/conv2.1/LeakyRelu_output_0 0=32 1=3 4=1 5=1 6=27648 9=2 -23310=1,2.000000e-01
Split            splitncnn_238            1 3 /model/model.1/sub/sub.19/RDB3/conv2/conv2.1/LeakyRelu_output_0 /model/model.1/sub/sub.19/RDB3/conv2/conv2.1/LeakyRelu_output_0_splitncnn_0 /model/model.1/sub/sub.19/RDB3/conv2/conv2.1/LeakyRelu_output_0_splitncnn_1 /model/model.1/sub/sub.19/RDB3/conv2/conv2.1/LeakyRelu_output_0_splitncnn_2
Concat           /model/model.1/sub/sub.19/RDB3/Concat_1 3 1 /model/model.1/sub/sub.19/RDB2/Add_output_0_splitncnn_3 /model/model.1/sub/sub.19/RDB3/conv1/conv1.1/LeakyRelu_output_0_splitncnn_2 /model/model.1/sub/sub.19/RDB3/conv2/conv2.1/LeakyRelu_output_0_splitncnn_2 /model/model.1/sub/sub.19/RDB3/Concat_1_output_0
Convolution      /model/model.1/sub/sub.19/RDB3/conv3/conv3.0/Conv 1 1 /model/model.1/sub/sub.19/RDB3/Concat_1_output_0 /model/model.1/sub/sub.19/RDB3/conv3/conv3.1/LeakyRelu_output_0 0=32 1=3 4=1 5=1 6=36864 9=2 -23310=1,2.000000e-01
Split            splitncnn_239            1 2 /model/model.1/sub/sub.19/RDB3/conv3/conv3.1/LeakyRelu_output_0 /model/model.1/sub/sub.19/RDB3/conv3/conv3.1/LeakyRelu_output_0_splitncnn_0 /model/model.1/sub/sub.19/RDB3/conv3/conv3.1/LeakyRelu_output_0_splitncnn_1
Concat           /model/model.1/sub/sub.19/RDB3/Concat_2 4 1 /model/model.1/sub/sub.19/RDB2/Add_output_0_splitncnn_2 /model/model.1/sub/sub.19/RDB3/conv1/conv1.1/LeakyRelu_output_0_splitncnn_1 /model/model.1/sub/sub.19/RDB3/conv2/conv2.1/LeakyRelu_output_0_splitncnn_1 /model/model.1/sub/sub.19/RDB3/conv3/conv3.1/LeakyRelu_output_0_splitncnn_1 /model/model.1/sub/sub.19/RDB3/Concat_2_output_0
Convolution      /model/model.1/sub/sub.19/RDB3/conv4/conv4.0/Conv 1 1 /model/model.1/sub/sub.19/RDB3/Concat_2_output_0 /model/model.1/sub/sub.19/RDB3/conv4/conv4.1/LeakyRelu_output_0 0=32 1=3 4=1 5=1 6=46080 9=2 -23310=1,2.000000e-01
Concat           /model/model.1/sub/sub.19/RDB3/Concat_3 5 1 /model/model.1/sub/sub.19/RDB2/Add_output_0_splitncnn_1 /model/model.1/sub/sub.19/RDB3/conv1/conv1.1/LeakyRelu_output_0_splitncnn_0 /model/model.1/sub/sub.19/RDB3/conv2/conv2.1/LeakyRelu_output_0_splitncnn_0 /model/model.1/sub/sub.19/RDB3/conv3/conv3.1/LeakyRelu_output_0_splitncnn_0 /model/model.1/sub/sub.19/RDB3/conv4/conv4.1/LeakyRelu_output_0 /model/model.1/sub/sub.19/RDB3/Concat_3_output_0
Convolution      /model/model.1/sub/sub.19/RDB3/conv5/conv5.0/Conv 1 1 /model/model.1/sub/sub.19/RDB3/Concat_3_output_0 /model/model.1/sub/sub.19/RDB3/conv5/conv5.0/Conv_output_0 0=64 1=3 4=1 5=1 6=110592
Eltwise          /model/model.1/sub/sub.19/RDB3/Add 2 1 /model/model.1/sub/sub.19/RDB3/conv5/conv5.0/Conv_output_0 /model/model.1/sub/sub.19/RDB2/Add_output_0_splitncnn_0 /model/model.1/sub/sub.19/RDB3/Add_output_0 0=1 -23301=2,2.000000e-01,1.000000e+00
Eltwise          /model/model.1/sub/sub.19/Add 2 1 /model/model.1/sub/sub.19/RDB3/Add_output_0 /model/model.1/sub/sub.18/Add_output_0_splitncnn_0 /model/model.1/sub/sub.19/Add_output_0 0=1 -23301=2,2.000000e-01,1.000000e+00
Split            splitncnn_240            1 7 /model/model.1/sub/sub.19/Add_output_0 /model/model.1/sub/sub.19/Add_output_0_splitncnn_0 /model/model.1/sub/sub.19/Add_output_0_splitncnn_1 /model/model.1/sub/sub.19/Add_output_0_splitncnn_2 /model/model.1/sub/sub.19/Add_output_0_splitncnn_3 /model/model.1/sub/sub.19/Add_output_0_splitncnn_4 /model/model.1/sub/sub.19/Add_output_0_splitncnn_5 /model/model.1/sub/sub.19/Add_output_0_splitncnn_6
Convolution      /model/model.1/sub/sub.20/RDB1/conv1/conv1.0/Conv 1 1 /model/model.1/sub/sub.19/Add_output_0_splitncnn_6 /model/model.1/sub/sub.20/RDB1/conv1/conv1.1/LeakyRelu_output_0 0=32 1=3 4=1 5=1 6=18432 9=2 -23310=1,2.000000e-01
Split            splitncnn_241            1 4 /model/model.1/sub/sub.20/RDB1/conv1/conv1.1/LeakyRelu_output_0 /model/model.1/sub/sub.20/RDB1/conv1/conv1.1/LeakyRelu_output_0_splitncnn_0 /model/model.1/sub/sub.20/RDB1/conv1/conv1.1/LeakyRelu_output_0_splitncnn_1 /model/model.1/sub/sub.20/RDB1/conv1/conv1.1/LeakyRelu_output_0_splitncnn_2 /model/model.1/sub/sub.20/RDB1/conv1/conv1.1/LeakyRelu_output_0_splitncnn_3
Concat           /model/model.1/sub/sub.20/RDB1/Concat 2 1 /model/model.1/sub/sub.19/Add_output_0_splitncnn_5 /model/model.1/sub/sub.20/RDB1/conv1/conv1.1/LeakyRelu_output_0_splitncnn_3 /model/model.1/sub/sub.20/RDB1/Concat_output_0
Convolution      /model/model.1/sub/sub.20/RDB1/conv2/conv2.0/Conv 1 1 /model/model.1/sub/sub.20/RDB1/Concat_output_0 /model/model.1/sub/sub.20/RDB1/conv2/conv2.1/LeakyRelu_output_0 0=32 1=3 4=1 5=1 6=27648 9=2 -23310=1,2.000000e-01
Split            splitncnn_242            1 3 /model/model.1/sub/sub.20/RDB1/conv2/conv2.1/LeakyRelu_output_0 /model/model.1/sub/sub.20/RDB1/conv2/conv2.1/LeakyRelu_output_0_splitncnn_0 /model/model.1/sub/sub.20/RDB1/conv2/conv2.1/LeakyRelu_output_0_splitncnn_1 /model/model.1/sub/sub.20/RDB1/conv2/conv2.1/LeakyRelu_output_0_splitncnn_2
Concat           /model/model.1/sub/sub.20/RDB1/Concat_1 3 1 /model/model.1/sub/sub.19/Add_output_0_splitncnn_4 /model/model.1/sub/sub.20/RDB1/conv1/conv1.1/LeakyRelu_output_0_splitncnn_2 /model/model.1/sub/sub.20/RDB1/conv2/conv2.1/LeakyRelu_output_0_splitncnn_2 /model/model.1/sub/sub.20/RDB1/Concat_1_output_0
Convolution      /model/model.1/sub/sub.20/RDB1/conv3/conv3.0/Conv 1 1 /model/model.1/sub/sub.20/RDB1/Concat_1_output_0 /model/model.1/sub/sub.20/RDB1/conv3/conv3.1/LeakyRelu_output_0 0=32 1=3 4=1 5=1 6=36864 9=2 -23310=1,2.000000e-01
Split            splitncnn_243            1 2 /model/model.1/sub/sub.20/RDB1/conv3/conv3.1/LeakyRelu_output_0 /model/model.1/sub/sub.20/RDB1/conv3/conv3.1/LeakyRelu_output_0_splitncnn_0 /model/model.1/sub/sub.20/RDB1/conv3/conv3.1/LeakyRelu_output_0_splitncnn_1
Concat           /model/model.1/sub/sub.20/RDB1/Concat_2 4 1 /model/model.1/sub/sub.19/Add_output_0_splitncnn_3 /model/model.1/sub/sub.20/RDB1/conv1/conv1.1/LeakyRelu_output_0_splitncnn_1 /model/model.1/sub/sub.20/RDB1/conv2/conv2.1/LeakyRelu_output_0_splitncnn_1 /model/model.1/sub/sub.20/RDB1/conv3/conv3.1/LeakyRelu_output_0_splitncnn_1 /model/model.1/sub/sub.20/RDB1/Concat_2_output_0
Convolution      /model/model.1/sub/sub.20/RDB1/conv4/conv4.0/Conv 1 1 /model/model.1/sub/sub.20/RDB1/Concat_2_output_0 /model/model.1/sub/sub.20/RDB1/conv4/conv4.1/LeakyRelu_output_0 0=32 1=3 4=1 5=1 6=46080 9=2 -23310=1,2.000000e-01
Concat           /model/model.1/sub/sub.20/RDB1/Concat_3 5 1 /model/model.1/sub/sub.19/Add_output_0_splitncnn_2 /model/model.1/sub/sub.20/RDB1/conv1/conv1.1/LeakyRelu_output_0_splitncnn_0 /model/model.1/sub/sub.20/RDB1/conv2/conv2.1/LeakyRelu_output_0_splitncnn_0 /model/model.1/sub/sub.20/RDB1/conv3/conv3.1/LeakyRelu_output_0_splitncnn_0 /model/model.1/sub/sub.20/RDB1/conv4/conv4.1/LeakyRelu_output_0 /model/model.1/sub/sub.20/RDB1/Concat_3_output_0
Convolution      /model/model.1/sub/sub.20/RDB1/conv5/conv5.0/Conv 1 1 /model/model.1/sub/sub.20/RDB1/Concat_3_output_0 /model/model.1/sub/sub.20/RDB1/conv5/conv5.0/Conv_output_0 0=64 1=3 4=1 5=1 6=110592
Eltwise          /model/model.1/sub/sub.20/RDB1/Add 2 1 /model/model.1/sub/sub.20/RDB1/conv5/conv5.0/Conv_output_0 /model/model.1/sub/sub.19/Add_output_0_splitncnn_1 /model/model.1/sub/sub.20/RDB1/Add_output_0 0=1 -23301=2,2.000000e-01,1.000000e+00
Split            splitncnn_244            1 6 /model/model.1/sub/sub.20/RDB1/Add_output_0 /model/model.1/sub/sub.20/RDB1/Add_output_0_splitncnn_0 /model/model.1/sub/sub.20/RDB1/Add_output_0_splitncnn_1 /model/model.1/sub/sub.20/RDB1/Add_output_0_splitncnn_2 /model/model.1/sub/sub.20/RDB1/Add_output_0_splitncnn_3 /model/model.1/sub/sub.20/RDB1/Add_output_0_splitncnn_4 /model/model.1/sub/sub.20/RDB1/Add_output_0_splitncnn_5
Convolution      /model/model.1/sub/sub.20/RDB2/conv1/conv1.0/Conv 1 1 /model/model.1/sub/sub.20/RDB1/Add_output_0_splitncnn_5 /model/model.1/sub/sub.20/RDB2/conv1/conv1.1/LeakyRelu_output_0 0=32 1=3 4=1 5=1 6=18432 9=2 -23310=1,2.000000e-01
Split            splitncnn_245            1 4 /model/model.1/sub/sub.20/RDB2/conv1/conv1.1/LeakyRelu_output_0 /model/model.1/sub/sub.20/RDB2/conv1/conv1.1/LeakyRelu_output_0_splitncnn_0 /model/model.1/sub/sub.20/RDB2/conv1/conv1.1/LeakyRelu_output_0_splitncnn_1 /model/model.1/sub/sub.20/RDB2/conv1/conv1.1/LeakyRelu_output_0_splitncnn_2 /model/model.1/sub/sub.20/RDB2/conv1/conv1.1/LeakyRelu_output_0_splitncnn_3
Concat           /model/model.1/sub/sub.20/RDB2/Concat 2 1 /model/model.1/sub/sub.20/RDB1/Add_output_0_splitncnn_4 /model/model.1/sub/sub.20/RDB2/conv1/conv1.1/LeakyRelu_output_0_splitncnn_3 /model/model.1/sub/sub.20/RDB2/Concat_output_0
Convolution      /model/model.1/sub/sub.20/RDB2/conv2/conv2.0/Conv 1 1 /model/model.1/sub/sub.20/RDB2/Concat_output_0 /model/model.1/sub/sub.20/RDB2/conv2/conv2.1/LeakyRelu_output_0 0=32 1=3 4=1 5=1 6=27648 9=2 -23310=1,2.000000e-01
Split            splitncnn_246            1 3 /model/model.1/sub/sub.20/RDB2/conv2/conv2.1/LeakyRelu_output_0 /model/model.1/sub/sub.20/RDB2/conv2/conv2.1/LeakyRelu_output_0_splitncnn_0 /model/model.1/sub/sub.20/RDB2/conv2/conv2.1/LeakyRelu_output_0_splitncnn_1 /model/model.1/sub/sub.20/RDB2/conv2/conv2.1/LeakyRelu_output_0_splitncnn_2
Concat           /model/model.1/sub/sub.20/RDB2/Concat_1 3 1 /model/model.1/sub/sub.20/RDB1/Add_output_0_splitncnn_3 /model/model.1/sub/sub.20/RDB2/conv1/conv1.1/LeakyRelu_output_0_splitncnn_2 /model/model.1/sub/sub.20/RDB2/conv2/conv2.1/LeakyRelu_output_0_splitncnn_2 /model/model.1/sub/sub.20/RDB2/Concat_1_output_0
Convolution      /model/model.1/sub/sub.20/RDB2/conv3/conv3.0/Conv 1 1 /model/model.1/sub/sub.20/RDB2/Concat_1_output_0 /model/model.1/sub/sub.20/RDB2/conv3/conv3.1/LeakyRelu_output_0 0=32 1=3 4=1 5=1 6=36864 9=2 -23310=1,2.000000e-01
Split            splitncnn_247            1 2 /model/model.1/sub/sub.20/RDB2/conv3/conv3.1/LeakyRelu_output_0 /model/model.1/sub/sub.20/RDB2/conv3/conv3.1/LeakyRelu_output_0_splitncnn_0 /model/model.1/sub/sub.20/RDB2/conv3/conv3.1/LeakyRelu_output_0_splitncnn_1
Concat           /model/model.1/sub/sub.20/RDB2/Concat_2 4 1 /model/model.1/sub/sub.20/RDB1/Add_output_0_splitncnn_2 /model/model.1/sub/sub.20/RDB2/conv1/conv1.1/LeakyRelu_output_0_splitncnn_1 /model/model.1/sub/sub.20/RDB2/conv2/conv2.1/LeakyRelu_output_0_splitncnn_1 /model/model.1/sub/sub.20/RDB2/conv3/conv3.1/LeakyRelu_output_0_splitncnn_1 /model/model.1/sub/sub.20/RDB2/Concat_2_output_0
Convolution      /model/model.1/sub/sub.20/RDB2/conv4/conv4.0/Conv 1 1 /model/model.1/sub/sub.20/RDB2/Concat_2_output_0 /model/model.1/sub/sub.20/RDB2/conv4/conv4.1/LeakyRelu_output_0 0=32 1=3 4=1 5=1 6=46080 9=2 -23310=1,2.000000e-01
Concat           /model/model.1/sub/sub.20/RDB2/Concat_3 5 1 /model/model.1/sub/sub.20/RDB1/Add_output_0_splitncnn_1 /model/model.1/sub/sub.20/RDB2/conv1/conv1.1/LeakyRelu_output_0_splitncnn_0 /model/model.1/sub/sub.20/RDB2/conv2/conv2.1/LeakyRelu_output_0_splitncnn_0 /model/model.1/sub/sub.20/RDB2/conv3/conv3.1/LeakyRelu_output_0_splitncnn_0 /model/model.1/sub/sub.20/RDB2/conv4/conv4.1/LeakyRelu_output_0 /model/model.1/sub/sub.20/RDB2/Concat_3_output_0
Convolution      /model/model.1/sub/sub.20/RDB2/conv5/conv5.0/Conv 1 1 /model/model.1/sub/sub.20/RDB2/Concat_3_output_0 /model/model.1/sub/sub.20/RDB2/conv5/conv5.0/Conv_output_0 0=64 1=3 4=1 5=1 6=110592
Eltwise          /model/model.1/sub/sub.20/RDB2/Add 2 1 /model/model.1/sub/sub.20/RDB2/conv5/conv5.0/Conv_output_0 /model/model.1/sub/sub.20/RDB1/Add_output_0_splitncnn_0 /model/model.1/sub/sub.20/RDB2/Add_output_0 0=1 -23301=2,2.000000e-01,1.000000e+00
Split            splitncnn_248            1 6 /model/model.1/sub/sub.20/RDB2/Add_output_0 /model/model.1/sub/sub.20/RDB2/Add_output_0_splitncnn_0 /model/model.1/sub/sub.20/RDB2/Add_output_0_splitncnn_1 /model/model.1/sub/sub.20/RDB2/Add_output_0_splitncnn_2 /model/model.1/sub/sub.20/RDB2/Add_output_0_splitncnn_3 /model/model.1/sub/sub.20/RDB2/Add_output_0_splitncnn_4 /model/model.1/sub/sub.20/RDB2/Add_output_0_splitncnn_5
Convolution      /model/model.1/sub/sub.20/RDB3/conv1/conv1.0/Conv 1 1 /model/model.1/sub/sub.20/RDB2/Add_output_0_splitncnn_5 /model/model.1/sub/sub.20/RDB3/conv1/conv1.1/LeakyRelu_output_0 0=32 1=3 4=1 5=1 6=18432 9=2 -23310=1,2.000000e-01
Split            splitncnn_249            1 4 /model/model.1/sub/sub.20/RDB3/conv1/conv1.1/LeakyRelu_output_0 /model/model.1/sub/sub.20/RDB3/conv1/conv1.1/LeakyRelu_output_0_splitncnn_0 /model/model.1/sub/sub.20/RDB3/conv1/conv1.1/LeakyRelu_output_0_splitncnn_1 /model/model.1/sub/sub.20/RDB3/conv1/conv1.1/LeakyRelu_output_0_splitncnn_2 /model/model.1/sub/sub.20/RDB3/conv1/conv1.1/LeakyRelu_output_0_splitncnn_3
Concat           /model/model.1/sub/sub.20/RDB3/Concat 2 1 /model/model.1/sub/sub.20/RDB2/Add_output_0_splitncnn_4 /model/model.1/sub/sub.20/RDB3/conv1/conv1.1/LeakyRelu_output_0_splitncnn_3 /model/model.1/sub/sub.20/RDB3/Concat_output_0
Convolution      /model/model.1/sub/sub.20/RDB3/conv2/conv2.0/Conv 1 1 /model/model.1/sub/sub.20/RDB3/Concat_output_0 /model/model.1/sub/sub.20/RDB3/conv2/conv2.1/LeakyRelu_output_0 0=32 1=3 4=1 5=1 6=27648 9=2 -23310=1,2.000000e-01
Split            splitncnn_250            1 3 /model/model.1/sub/sub.20/RDB3/conv2/conv2.1/LeakyRelu_output_0 /model/model.1/sub/sub.20/RDB3/conv2/conv2.1/LeakyRelu_output_0_splitncnn_0 /model/model.1/sub/sub.20/RDB3/conv2/conv2.1/LeakyRelu_output_0_splitncnn_1 /model/model.1/sub/sub.20/RDB3/conv2/conv2.1/LeakyRelu_output_0_splitncnn_2
Concat           /model/model.1/sub/sub.20/RDB3/Concat_1 3 1 /model/model.1/sub/sub.20/RDB2/Add_output_0_splitncnn_3 /model/model.1/sub/sub.20/RDB3/conv1/conv1.1/LeakyRelu_output_0_splitncnn_2 /model/model.1/sub/sub.20/RDB3/conv2/conv2.1/LeakyRelu_output_0_splitncnn_2 /model/model.1/sub/sub.20/RDB3/Concat_1_output_0
Convolution      /model/model.1/sub/sub.20/RDB3/conv3/conv3.0/Conv 1 1 /model/model.1/sub/sub.20/RDB3/Concat_1_output_0 /model/model.1/sub/sub.20/RDB3/conv3/conv3.1/LeakyRelu_output_0 0=32 1=3 4=1 5=1 6=36864 9=2 -23310=1,2.000000e-01
Split            splitncnn_251            1 2 /model/model.1/sub/sub.20/RDB3/conv3/conv3.1/LeakyRelu_output_0 /model/model.1/sub/sub.20/RDB3/conv3/conv3.1/LeakyRelu_output_0_splitncnn_0 /model/model.1/sub/sub.20/RDB3/conv3/conv3.1/LeakyRelu_output_0_splitncnn_1
Concat           /model/model.1/sub/sub.20/RDB3/Concat_2 4 1 /model/model.1/sub/sub.20/RDB2/Add_output_0_splitncnn_2 /model/model.1/sub/sub.20/RDB3/conv1/conv1.1/LeakyRelu_output_0_splitncnn_1 /model/model.1/sub/sub.20/RDB3/conv2/conv2.1/LeakyRelu_output_0_splitncnn_1 /model/model.1/sub/sub.20/RDB3/conv3/conv3.1/LeakyRelu_output_0_splitncnn_1 /model/model.1/sub/sub.20/RDB3/Concat_2_output_0
Convolution      /model/model.1/sub/sub.20/RDB3/conv4/conv4.0/Conv 1 1 /model/model.1/sub/sub.20/RDB3/Concat_2_output_0 /model/model.1/sub/sub.20/RDB3/conv4/conv4.1/LeakyRelu_output_0 0=32 1=3 4=1 5=1 6=46080 9=2 -23310=1,2.000000e-01
Concat           /model/model.1/sub/sub.20/RDB3/Concat_3 5 1 /model/model.1/sub/sub.20/RDB2/Add_output_0_splitncnn_1 /model/model.1/sub/sub.20/RDB3/conv1/conv1.1/LeakyRelu_output_0_splitncnn_0 /model/model.1/sub/sub.20/RDB3/conv2/conv2.1/LeakyRelu_output_0_splitncnn_0 /model/model.1/sub/sub.20/RDB3/conv3/conv3.1/LeakyRelu_output_0_splitncnn_0 /model/model.1/sub/sub.20/RDB3/conv4/conv4.1/LeakyRelu_output_0 /model/model.1/sub/sub.20/RDB3/Concat_3_output_0
Convolution      /model/model.1/sub/sub.20/RDB3/conv5/conv5.0/Conv 1 1 /model/model.1/sub/sub.20/RDB3/Concat_3_output_0 /model/model.1/sub/sub.20/RDB3/conv5/conv5.0/Conv_output_0 0=64 1=3 4=1 5=1 6=110592
Eltwise          /model/model.1/sub/sub.20/RDB3/Add 2 1 /model/model.1/sub/sub.20/RDB3/conv5/conv5.0/Conv_output_0 /model/model.1/sub/sub.20/RDB2/Add_output_0_splitncnn_0 /model/model.1/sub/sub.20/RDB3/Add_output_0 0=1 -23301=2,2.000000e-01,1.000000e+00
Eltwise          /model/model.1/sub/sub.20/Add 2 1 /model/model.1/sub/sub.20/RDB3/Add_output_0 /model/model.1/sub/sub.19/Add_output_0_splitncnn_0 /model/model.1/sub/sub.20/Add_output_0 0=1 -23301=2,2.000000e-01,1.000000e+00
Split            splitncnn_252            1 7 /model/model.1/sub/sub.20/Add_output_0 /model/model.1/sub/sub.20/Add_output_0_splitncnn_0 /model/model.1/sub/sub.20/Add_output_0_splitncnn_1 /model/model.1/sub/sub.20/Add_output_0_splitncnn_2 /model/model.1/sub/sub.20/Add_output_0_splitncnn_3 /model/model.1/sub/sub.20/Add_output_0_splitncnn_4 /model/model.1/sub/sub.20/Add_output_0_splitncnn_5 /model/model.1/sub/sub.20/Add_output_0_splitncnn_6
Convolution      /model/model.1/sub/sub.21/RDB1/conv1/conv1.0/Conv 1 1 /model/model.1/sub/sub.20/Add_output_0_splitncnn_6 /model/model.1/sub/sub.21/RDB1/conv1/conv1.1/LeakyRelu_output_0 0=32 1=3 4=1 5=1 6=18432 9=2 -23310=1,2.000000e-01
Split            splitncnn_253            1 4 /model/model.1/sub/sub.21/RDB1/conv1/conv1.1/LeakyRelu_output_0 /model/model.1/sub/sub.21/RDB1/conv1/conv1.1/LeakyRelu_output_0_splitncnn_0 /model/model.1/sub/sub.21/RDB1/conv1/conv1.1/LeakyRelu_output_0_splitncnn_1 /model/model.1/sub/sub.21/RDB1/conv1/conv1.1/LeakyRelu_output_0_splitncnn_2 /model/model.1/sub/sub.21/RDB1/conv1/conv1.1/LeakyRelu_output_0_splitncnn_3
Concat           /model/model.1/sub/sub.21/RDB1/Concat 2 1 /model/model.1/sub/sub.20/Add_output_0_splitncnn_5 /model/model.1/sub/sub.21/RDB1/conv1/conv1.1/LeakyRelu_output_0_splitncnn_3 /model/model.1/sub/sub.21/RDB1/Concat_output_0
Convolution      /model/model.1/sub/sub.21/RDB1/conv2/conv2.0/Conv 1 1 /model/model.1/sub/sub.21/RDB1/Concat_output_0 /model/model.1/sub/sub.21/RDB1/conv2/conv2.1/LeakyRelu_output_0 0=32 1=3 4=1 5=1 6=27648 9=2 -23310=1,2.000000e-01
Split            splitncnn_254            1 3 /model/model.1/sub/sub.21/RDB1/conv2/conv2.1/LeakyRelu_output_0 /model/model.1/sub/sub.21/RDB1/conv2/conv2.1/LeakyRelu_output_0_splitncnn_0 /model/model.1/sub/sub.21/RDB1/conv2/conv2.1/LeakyRelu_output_0_splitncnn_1 /model/model.1/sub/sub.21/RDB1/conv2/conv2.1/LeakyRelu_output_0_splitncnn_2
Concat           /model/model.1/sub/sub.21/RDB1/Concat_1 3 1 /model/model.1/sub/sub.20/Add_output_0_splitncnn_4 /model/model.1/sub/sub.21/RDB1/conv1/conv1.1/LeakyRelu_output_0_splitncnn_2 /model/model.1/sub/sub.21/RDB1/conv2/conv2.1/LeakyRelu_output_0_splitncnn_2 /model/model.1/sub/sub.21/RDB1/Concat_1_output_0
Convolution      /model/model.1/sub/sub.21/RDB1/conv3/conv3.0/Conv 1 1 /model/model.1/sub/sub.21/RDB1/Concat_1_output_0 /model/model.1/sub/sub.21/RDB1/conv3/conv3.1/LeakyRelu_output_0 0=32 1=3 4=1 5=1 6=36864 9=2 -23310=1,2.000000e-01
Split            splitncnn_255            1 2 /model/model.1/sub/sub.21/RDB1/conv3/conv3.1/LeakyRelu_output_0 /model/model.1/sub/sub.21/RDB1/conv3/conv3.1/LeakyRelu_output_0_splitncnn_0 /model/model.1/sub/sub.21/RDB1/conv3/conv3.1/LeakyRelu_output_0_splitncnn_1
Concat           /model/model.1/sub/sub.21/RDB1/Concat_2 4 1 /model/model.1/sub/sub.20/Add_output_0_splitncnn_3 /model/model.1/sub/sub.21/RDB1/conv1/conv1.1/LeakyRelu_output_0_splitncnn_1 /model/model.1/sub/sub.21/RDB1/conv2/conv2.1/LeakyRelu_output_0_splitncnn_1 /model/model.1/sub/sub.21/RDB1/conv3/conv3.1/LeakyRelu_output_0_splitncnn_1 /model/model.1/sub/sub.21/RDB1/Concat_2_output_0
Convolution      /model/model.1/sub/sub.21/RDB1/conv4/conv4.0/Conv 1 1 /model/model.1/sub/sub.21/RDB1/Concat_2_output_0 /model/model.1/sub/sub.21/RDB1/conv4/conv4.1/LeakyRelu_output_0 0=32 1=3 4=1 5=1 6=46080 9=2 -23310=1,2.000000e-01
Concat           /model/model.1/sub/sub.21/RDB1/Concat_3 5 1 /model/model.1/sub/sub.20/Add_output_0_splitncnn_2 /model/model.1/sub/sub.21/RDB1/conv1/conv1.1/LeakyRelu_output_0_splitncnn_0 /model/model.1/sub/sub.21/RDB1/conv2/conv2.1/LeakyRelu_output_0_splitncnn_0 /model/model.1/sub/sub.21/RDB1/conv3/conv3.1/LeakyRelu_output_0_splitncnn_0 /model/model.1/sub/sub.21/RDB1/conv4/conv4.1/LeakyRelu_output_0 /model/model.1/sub/sub.21/RDB1/Concat_3_output_0
Convolution      /model/model.1/sub/sub.21/RDB1/conv5/conv5.0/Conv 1 1 /model/model.1/sub/sub.21/RDB1/Concat_3_output_0 /model/model.1/sub/sub.21/RDB1/conv5/conv5.0/Conv_output_0 0=64 1=3 4=1 5=1 6=110592
Eltwise          /model/model.1/sub/sub.21/RDB1/Add 2 1 /model/model.1/sub/sub.21/RDB1/conv5/conv5.0/Conv_output_0 /model/model.1/sub/sub.20/Add_output_0_splitncnn_1 /model/model.1/sub/sub.21/RDB1/Add_output_0 0=1 -23301=2,2.000000e-01,1.000000e+00
Split            splitncnn_256            1 6 /model/model.1/sub/sub.21/RDB1/Add_output_0 /model/model.1/sub/sub.21/RDB1/Add_output_0_splitncnn_0 /model/model.1/sub/sub.21/RDB1/Add_output_0_splitncnn_1 /model/model.1/sub/sub.21/RDB1/Add_output_0_splitncnn_2 /model/model.1/sub/sub.21/RDB1/Add_output_0_splitncnn_3 /model/model.1/sub/sub.21/RDB1/Add_output_0_splitncnn_4 /model/model.1/sub/sub.21/RDB1/Add_output_0_splitncnn_5
Convolution      /model/model.1/sub/sub.21/RDB2/conv1/conv1.0/Conv 1 1 /model/model.1/sub/sub.21/RDB1/Add_output_0_splitncnn_5 /model/model.1/sub/sub.21/RDB2/conv1/conv1.1/LeakyRelu_output_0 0=32 1=3 4=1 5=1 6=18432 9=2 -23310=1,2.000000e-01
Split            splitncnn_257            1 4 /model/model.1/sub/sub.21/RDB2/conv1/conv1.1/LeakyRelu_output_0 /model/model.1/sub/sub.21/RDB2/conv1/conv1.1/LeakyRelu_output_0_splitncnn_0 /model/model.1/sub/sub.21/RDB2/conv1/conv1.1/LeakyRelu_output_0_splitncnn_1 /model/model.1/sub/sub.21/RDB2/conv1/conv1.1/LeakyRelu_output_0_splitncnn_2 /model/model.1/sub/sub.21/RDB2/conv1/conv1.1/LeakyRelu_output_0_splitncnn_3
Concat           /model/model.1/sub/sub.21/RDB2/Concat 2 1 /model/model.1/sub/sub.21/RDB1/Add_output_0_splitncnn_4 /model/model.1/sub/sub.21/RDB2/conv1/conv1.1/LeakyRelu_output_0_splitncnn_3 /model/model.1/sub/sub.21/RDB2/Concat_output_0
Convolution      /model/model.1/sub/sub.21/RDB2/conv2/conv2.0/Conv 1 1 /model/model.1/sub/sub.21/RDB2/Concat_output_0 /model/model.1/sub/sub.21/RDB2/conv2/conv2.1/LeakyRelu_output_0 0=32 1=3 4=1 5=1 6=27648 9=2 -23310=1,2.000000e-01
Split            splitncnn_258            1 3 /model/model.1/sub/sub.21/RDB2/conv2/conv2.1/LeakyRelu_output_0 /model/model.1/sub/sub.21/RDB2/conv2/conv2.1/LeakyRelu_output_0_splitncnn_0 /model/model.1/sub/sub.21/RDB2/conv2/conv2.1/LeakyRelu_output_0_splitncnn_1 /model/model.1/sub/sub.21/RDB2/conv2/conv2.1/LeakyRelu_output_0_splitncnn_2
Concat           /model/model.1/sub/sub.21/RDB2/Concat_1 3 1 /model/model.1/sub/sub.21/RDB1/Add_output_0_splitncnn_3 /model/model.1/sub/sub.21/RDB2/conv1/conv1.1/LeakyRelu_output_0_splitncnn_2 /model/model.1/sub/sub.21/RDB2/conv2/conv2.1/LeakyRelu_output_0_splitncnn_2 /model/model.1/sub/sub.21/RDB2/Concat_1_output_0
Convolution      /model/model.1/sub/sub.21/RDB2/conv3/conv3.0/Conv 1 1 /model/model.1/sub/sub.21/RDB2/Concat_1_output_0 /model/model.1/sub/sub.21/RDB2/conv3/conv3.1/LeakyRelu_output_0 0=32 1=3 4=1 5=1 6=36864 9=2 -23310=1,2.000000e-01
Split            splitncnn_259            1 2 /model/model.1/sub/sub.21/RDB2/conv3/conv3.1/LeakyRelu_output_0 /model/model.1/sub/sub.21/RDB2/conv3/conv3.1/LeakyRelu_output_0_splitncnn_0 /model/model.1/sub/sub.21/RDB2/conv3/conv3.1/LeakyRelu_output_0_splitncnn_1
Concat           /model/model.1/sub/sub.21/RDB2/Concat_2 4 1 /model/model.1/sub/sub.21/RDB1/Add_output_0_splitncnn_2 /model/model.1/sub/sub.21/RDB2/conv1/conv1.1/LeakyRelu_output_0_splitncnn_1 /model/model.1/sub/sub.21/RDB2/conv2/conv2.1/LeakyRelu_output_0_splitncnn_1 /model/model.1/sub/sub.21/RDB2/conv3/conv3.1/LeakyRelu_output_0_splitncnn_1 /model/model.1/sub/sub.21/RDB2/Concat_2_output_0
Convolution      /model/model.1/sub/sub.21/RDB2/conv4/conv4.0/Conv 1 1 /model/model.1/sub/sub.21/RDB2/Concat_2_output_0 /model/model.1/sub/sub.21/RDB2/conv4/conv4.1/LeakyRelu_output_0 0=32 1=3 4=1 5=1 6=46080 9=2 -23310=1,2.000000e-01
Concat           /model/model.1/sub/sub.21/RDB2/Concat_3 5 1 /model/model.1/sub/sub.21/RDB1/Add_output_0_splitncnn_1 /model/model.1/sub/sub.21/RDB2/conv1/conv1.1/LeakyRelu_output_0_splitncnn_0 /model/model.1/sub/sub.21/RDB2/conv2/conv2.1/LeakyRelu_output_0_splitncnn_0 /model/model.1/sub/sub.21/RDB2/conv3/conv3.1/LeakyRelu_output_0_splitncnn_0 /model/model.1/sub/sub.21/RDB2/conv4/conv4.1/LeakyRelu_output_0 /model/model.1/sub/sub.21/RDB2/Concat_3_output_0
Convolution      /model/model.1/sub/sub.21/RDB2/conv5/conv5.0/Conv 1 1 /model/model.1/sub/sub.21/RDB2/Concat_3_output_0 /model/model.1/sub/sub.21/RDB2/conv5/conv5.0/Conv_output_0 0=64 1=3 4=1 5=1 6=110592
Eltwise          /model/model.1/sub/sub.21/RDB2/Add 2 1 /model/model.1/sub/sub.21/RDB2/conv5/conv5.0/Conv_output_0 /model/model.1/sub/sub.21/RDB1/Add_output_0_splitncnn_0 /model/model.1/sub/sub.21/RDB2/Add_output_0 0=1 -23301=2,2.000000e-01,1.000000e+00
Split            splitncnn_260            1 6 /model/model.1/sub/sub.21/RDB2/Add_output_0 /model/model.1/sub/sub.21/RDB2/Add_output_0_splitncnn_0 /model/model.1/sub/sub.21/RDB2/Add_output_0_splitncnn_1 /model/model.1/sub/sub.21/RDB2/Add_output_0_splitncnn_2 /model/model.1/sub/sub.21/RDB2/Add_output_0_splitncnn_3 /model/model.1/sub/sub.21/RDB2/Add_output_0_splitncnn_4 /model/model.1/sub/sub.21/RDB2/Add_output_0_splitncnn_5
Convolution      /model/model.1/sub/sub.21/RDB3/conv1/conv1.0/Conv 1 1 /model/model.1/sub/sub.21/RDB2/Add_output_0_splitncnn_5 /model/model.1/sub/sub.21/RDB3/conv1/conv1.1/LeakyRelu_output_0 0=32 1=3 4=1 5=1 6=18432 9=2 -23310=1,2.000000e-01
Split            splitncnn_261            1 4 /model/model.1/sub/sub.21/RDB3/conv1/conv1.1/LeakyRelu_output_0 /model/model.1/sub/sub.21/RDB3/conv1/conv1.1/LeakyRelu_output_0_splitncnn_0 /model/model.1/sub/sub.21/RDB3/conv1/conv1.1/LeakyRelu_output_0_splitncnn_1 /model/model.1/sub/sub.21/RDB3/conv1/conv1.1/LeakyRelu_output_0_splitncnn_2 /model/model.1/sub/sub.21/RDB3/conv1/conv1.1/LeakyRelu_output_0_splitncnn_3
Concat           /model/model.1/sub/sub.21/RDB3/Concat 2 1 /model/model.1/sub/sub.21/RDB2/Add_output_0_splitncnn_4 /model/model.1/sub/sub.21/RDB3/conv1/conv1.1/LeakyRelu_output_0_splitncnn_3 /model/model.1/sub/sub.21/RDB3/Concat_output_0
Convolution      /model/model.1/sub/sub.21/RDB3/conv2/conv2.0/Conv 1 1 /model/model.1/sub/sub.21/RDB3/Concat_output_0 /model/model.1/sub/sub.21/RDB3/conv2/conv2.1/LeakyRelu_output_0 0=32 1=3 4=1 5=1 6=27648 9=2 -23310=1,2.000000e-01
Split            splitncnn_262            1 3 /model/model.1/sub/sub.21/RDB3/conv2/conv2.1/LeakyRelu_output_0 /model/model.1/sub/sub.21/RDB3/conv2/conv2.1/LeakyRelu_output_0_splitncnn_0 /model/model.1/sub/sub.21/RDB3/conv2/conv2.1/LeakyRelu_output_0_splitncnn_1 /model/model.1/sub/sub.21/RDB3/conv2/conv2.1/LeakyRelu_output_0_splitncnn_2
Concat           /model/model.1/sub/sub.21/RDB3/Concat_1 3 1 /model/model.1/sub/sub.21/RDB2/Add_output_0_splitncnn_3 /model/model.1/sub/sub.21/RDB3/conv1/conv1.1/LeakyRelu_output_0_splitncnn_2 /model/model.1/sub/sub.21/RDB3/conv2/conv2.1/LeakyRelu_output_0_splitncnn_2 /model/model.1/sub/sub.21/RDB3/Concat_1_output_0
Convolution      /model/model.1/sub/sub.21/RDB3/conv3/conv3.0/Conv 1 1 /model/model.1/sub/sub.21/RDB3/Concat_1_output_0 /model/model.1/sub/sub.21/RDB3/conv3/conv3.1/LeakyRelu_output_0 0=32 1=3 4=1 5=1 6=36864 9=2 -23310=1,2.000000e-01
Split            splitncnn_263            1 2 /model/model.1/sub/sub.21/RDB3/conv3/conv3.1/LeakyRelu_output_0 /model/model.1/sub/sub.21/RDB3/conv3/conv3.1/LeakyRelu_output_0_splitncnn_0 /model/model.1/sub/sub.21/RDB3/conv3/conv3.1/LeakyRelu_output_0_splitncnn_1
Concat           /model/model.1/sub/sub.21/RDB3/Concat_2 4 1 /model/model.1/sub/sub.21/RDB2/Add_output_0_splitncnn_2 /model/model.1/sub/sub.21/RDB3/conv1/conv1.1/LeakyRelu_output_0_splitncnn_1 /model/model.1/sub/sub.21/RDB3/conv2/conv2.1/LeakyRelu_output_0_splitncnn_1 /model/model.1/sub/sub.21/RDB3/conv3/conv3.1/LeakyRelu_output_0_splitncnn_1 /model/model.1/sub/sub.21/RDB3/Concat_2_output_0
Convolution      /model/model.1/sub/sub.21/RDB3/conv4/conv4.0/Conv 1 1 /model/model.1/sub/sub.21/RDB3/Concat_2_output_0 /model/model.1/sub/sub.21/RDB3/conv4/conv4.1/LeakyRelu_output_0 0=32 1=3 4=1 5=1 6=46080 9=2 -23310=1,2.000000e-01
Concat           /model/model.1/sub/sub.21/RDB3/Concat_3 5 1 /model/model.1/sub/sub.21/RDB2/Add_output_0_splitncnn_1 /model/model.1/sub/sub.21/RDB3/conv1/conv1.1/LeakyRelu_output_0_splitncnn_0 /model/model.1/sub/sub.21/RDB3/conv2/conv2.1/LeakyRelu_output_0_splitncnn_0 /model/model.1/sub/sub.21/RDB3/conv3/conv3.1/LeakyRelu_output_0_splitncnn_0 /model/model.1/sub/sub.21/RDB3/conv4/conv4.1/LeakyRelu_output_0 /model/model.1/sub/sub.21/RDB3/Concat_3_output_0
Convolution      /model/model.1/sub/sub.21/RDB3/conv5/conv5.0/Conv 1 1 /model/model.1/sub/sub.21/RDB3/Concat_3_output_0 /model/model.1/sub/sub.21/RDB3/conv5/conv5.0/Conv_output_0 0=64 1=3 4=1 5=1 6=110592
Eltwise          /model/model.1/sub/sub.21/RDB3/Add 2 1 /model/model.1/sub/sub.21/RDB3/conv5/conv5.0/Conv_output_0 /model/model.1/sub/sub.21/RDB2/Add_output_0_splitncnn_0 /model/model.1/sub/sub.21/RDB3/Add_output_0 0=1 -23301=2,2.000000e-01,1.000000e+00
Eltwise          /model/model.1/sub/sub.21/Add 2 1 /model/model.1/sub/sub.21/RDB3/Add_output_0 /model/model.1/sub/sub.20/Add_output_0_splitncnn_0 /model/model.1/sub/sub.21/Add_output_0 0=1 -23301=2,2.000000e-01,1.000000e+00
Split            splitncnn_264            1 7 /model/model.1/sub/sub.21/Add_output_0 /model/model.1/sub/sub.21/Add_output_0_splitncnn_0 /model/model.1/sub/sub.21/Add_output_0_splitncnn_1 /model/model.1/sub/sub.21/Add_output_0_splitncnn_2 /model/model.1/sub/sub.21/Add_output_0_splitncnn_3 /model/model.1/sub/sub.21/Add_output_0_splitncnn_4 /model/model.1/sub/sub.21/Add_output_0_splitncnn_5 /model/model.1/sub/sub.21/Add_output_0_splitncnn_6
Convolution      /model/model.1/sub/sub.22/RDB1/conv1/conv1.0/Conv 1 1 /model/model.1/sub/sub.21/Add_output_0_splitncnn_6 /model/model.1/sub/sub.22/RDB1/conv1/conv1.1/LeakyRelu_output_0 0=32 1=3 4=1 5=1 6=18432 9=2 -23310=1,2.000000e-01
Split            splitncnn_265            1 4 /model/model.1/sub/sub.22/RDB1/conv1/conv1.1/LeakyRelu_output_0 /model/model.1/sub/sub.22/RDB1/conv1/conv1.1/LeakyRelu_output_0_splitncnn_0 /model/model.1/sub/sub.22/RDB1/conv1/conv1.1/LeakyRelu_output_0_splitncnn_1 /model/model.1/sub/sub.22/RDB1/conv1/conv1.1/LeakyRelu_output_0_splitncnn_2 /model/model.1/sub/sub.22/RDB1/conv1/conv1.1/LeakyRelu_output_0_splitncnn_3
Concat           /model/model.1/sub/sub.22/RDB1/Concat 2 1 /model/model.1/sub/sub.21/Add_output_0_splitncnn_5 /model/model.1/sub/sub.22/RDB1/conv1/conv1.1/LeakyRelu_output_0_splitncnn_3 /model/model.1/sub/sub.22/RDB1/Concat_output_0
Convolution      /model/model.1/sub/sub.22/RDB1/conv2/conv2.0/Conv 1 1 /model/model.1/sub/sub.22/RDB1/Concat_output_0 /model/model.1/sub/sub.22/RDB1/conv2/conv2.1/LeakyRelu_output_0 0=32 1=3 4=1 5=1 6=27648 9=2 -23310=1,2.000000e-01
Split            splitncnn_266            1 3 /model/model.1/sub/sub.22/RDB1/conv2/conv2.1/LeakyRelu_output_0 /model/model.1/sub/sub.22/RDB1/conv2/conv2.1/LeakyRelu_output_0_splitncnn_0 /model/model.1/sub/sub.22/RDB1/conv2/conv2.1/LeakyRelu_output_0_splitncnn_1 /model/model.1/sub/sub.22/RDB1/conv2/conv2.1/LeakyRelu_output_0_splitncnn_2
Concat           /model/model.1/sub/sub.22/RDB1/Concat_1 3 1 /model/model.1/sub/sub.21/Add_output_0_splitncnn_4 /model/model.1/sub/sub.22/RDB1/conv1/conv1.1/LeakyRelu_output_0_splitncnn_2 /model/model.1/sub/sub.22/RDB1/conv2/conv2.1/LeakyRelu_output_0_splitncnn_2 /model/model.1/sub/sub.22/RDB1/Concat_1_output_0
Convolution      /model/model.1/sub/sub.22/RDB1/conv3/conv3.0/Conv 1 1 /model/model.1/sub/sub.22/RDB1/Concat_1_output_0 /model/model.1/sub/sub.22/RDB1/conv3/conv3.1/LeakyRelu_output_0 0=32 1=3 4=1 5=1 6=36864 9=2 -23310=1,2.000000e-01
Split            splitncnn_267            1 2 /model/model.1/sub/sub.22/RDB1/conv3/conv3.1/LeakyRelu_output_0 /model/model.1/sub/sub.22/RDB1/conv3/conv3.1/LeakyRelu_output_0_splitncnn_0 /model/model.1/sub/sub.22/RDB1/conv3/conv3.1/LeakyRelu_output_0_splitncnn_1
Concat           /model/model.1/sub/sub.22/RDB1/Concat_2 4 1 /model/model.1/sub/sub.21/Add_output_0_splitncnn_3 /model/model.1/sub/sub.22/RDB1/conv1/conv1.1/LeakyRelu_output_0_splitncnn_1 /model/model.1/sub/sub.22/RDB1/conv2/conv2.1/LeakyRelu_output_0_splitncnn_1 /model/model.1/sub/sub.22/RDB1/conv3/conv3.1/LeakyRelu_output_0_splitncnn_1 /model/model.1/sub/sub.22/RDB1/Concat_2_output_0
Convolution      /model/model.1/sub/sub.22/RDB1/conv4/conv4.0/Conv 1 1 /model/model.1/sub/sub.22/RDB1/Concat_2_output_0 /model/model.1/sub/sub.22/RDB1/conv4/conv4.1/LeakyRelu_output_0 0=32 1=3 4=1 5=1 6=46080 9=2 -23310=1,2.000000e-01
Concat           /model/model.1/sub/sub.22/RDB1/Concat_3 5 1 /model/model.1/sub/sub.21/Add_output_0_splitncnn_2 /model/model.1/sub/sub.22/RDB1/conv1/conv1.1/LeakyRelu_output_0_splitncnn_0 /model/model.1/sub/sub.22/RDB1/conv2/conv2.1/LeakyRelu_output_0_splitncnn_0 /model/model.1/sub/sub.22/RDB1/conv3/conv3.1/LeakyRelu_output_0_splitncnn_0 /model/model.1/sub/sub.22/RDB1/conv4/conv4.1/LeakyRelu_output_0 /model/model.1/sub/sub.22/RDB1/Concat_3_output_0
Convolution      /model/model.1/sub/sub.22/RDB1/conv5/conv5.0/Conv 1 1 /model/model.1/sub/sub.22/RDB1/Concat_3_output_0 /model/model.1/sub/sub.22/RDB1/conv5/conv5.0/Conv_output_0 0=64 1=3 4=1 5=1 6=110592
Eltwise          /model/model.1/sub/sub.22/RDB1/Add 2 1 /model/model.1/sub/sub.22/RDB1/conv5/conv5.0/Conv_output_0 /model/model.1/sub/sub.21/Add_output_0_splitncnn_1 /model/model.1/sub/sub.22/RDB1/Add_output_0 0=1 -23301=2,2.000000e-01,1.000000e+00
Split            splitncnn_268            1 6 /model/model.1/sub/sub.22/RDB1/Add_output_0 /model/model.1/sub/sub.22/RDB1/Add_output_0_splitncnn_0 /model/model.1/sub/sub.22/RDB1/Add_output_0_splitncnn_1 /model/model.1/sub/sub.22/RDB1/Add_output_0_splitncnn_2 /model/model.1/sub/sub.22/RDB1/Add_output_0_splitncnn_3 /model/model.1/sub/sub.22/RDB1/Add_output_0_splitncnn_4 /model/model.1/sub/sub.22/RDB1/Add_output_0_splitncnn_5
Convolution      /model/model.1/sub/sub.22/RDB2/conv1/conv1.0/Conv 1 1 /model/model.1/sub/sub.22/RDB1/Add_output_0_splitncnn_5 /model/model.1/sub/sub.22/RDB2/conv1/conv1.1/LeakyRelu_output_0 0=32 1=3 4=1 5=1 6=18432 9=2 -23310=1,2.000000e-01
Split            splitncnn_269            1 4 /model/model.1/sub/sub.22/RDB2/conv1/conv1.1/LeakyRelu_output_0 /model/model.1/sub/sub.22/RDB2/conv1/conv1.1/LeakyRelu_output_0_splitncnn_0 /model/model.1/sub/sub.22/RDB2/conv1/conv1.1/LeakyRelu_output_0_splitncnn_1 /model/model.1/sub/sub.22/RDB2/conv1/conv1.1/LeakyRelu_output_0_splitncnn_2 /model/model.1/sub/sub.22/RDB2/conv1/conv1.1/LeakyRelu_output_0_splitncnn_3
Concat           /model/model.1/sub/sub.22/RDB2/Concat 2 1 /model/model.1/sub/sub.22/RDB1/Add_output_0_splitncnn_4 /model/model.1/sub/sub.22/RDB2/conv1/conv1.1/LeakyRelu_output_0_splitncnn_3 /model/model.1/sub/sub.22/RDB2/Concat_output_0
Convolution      /model/model.1/sub/sub.22/RDB2/conv2/conv2.0/Conv 1 1 /model/model.1/sub/sub.22/RDB2/Concat_output_0 /model/model.1/sub/sub.22/RDB2/conv2/conv2.1/LeakyRelu_output_0 0=32 1=3 4=1 5=1 6=27648 9=2 -23310=1,2.000000e-01
Split            splitncnn_270            1 3 /model/model.1/sub/sub.22/RDB2/conv2/conv2.1/LeakyRelu_output_0 /model/model.1/sub/sub.22/RDB2/conv2/conv2.1/LeakyRelu_output_0_splitncnn_0 /model/model.1/sub/sub.22/RDB2/conv2/conv2.1/LeakyRelu_output_0_splitncnn_1 /model/model.1/sub/sub.22/RDB2/conv2/conv2.1/LeakyRelu_output_0_splitncnn_2
Concat           /model/model.1/sub/sub.22/RDB2/Concat_1 3 1 /model/model.1/sub/sub.22/RDB1/Add_output_0_splitncnn_3 /model/model.1/sub/sub.22/RDB2/conv1/conv1.1/LeakyRelu_output_0_splitncnn_2 /model/model.1/sub/sub.22/RDB2/conv2/conv2.1/LeakyRelu_output_0_splitncnn_2 /model/model.1/sub/sub.22/RDB2/Concat_1_output_0
Convolution      /model/model.1/sub/sub.22/RDB2/conv3/conv3.0/Conv 1 1 /model/model.1/sub/sub.22/RDB2/Concat_1_output_0 /model/model.1/sub/sub.22/RDB2/conv3/conv3.1/LeakyRelu_output_0 0=32 1=3 4=1 5=1 6=36864 9=2 -23310=1,2.000000e-01
Split            splitncnn_271            1 2 /model/model.1/sub/sub.22/RDB2/conv3/conv3.1/LeakyRelu_output_0 /model/model.1/sub/sub.22/RDB2/conv3/conv3.1/LeakyRelu_output_0_splitncnn_0 /model/model.1/sub/sub.22/RDB2/conv3/conv3.1/LeakyRelu_output_0_splitncnn_1
Concat           /model/model.1/sub/sub.22/RDB2/Concat_2 4 1 /model/model.1/sub/sub.22/RDB1/Add_output_0_splitncnn_2 /model/model.1/sub/sub.22/RDB2/conv1/conv1.1/LeakyRelu_output_0_splitncnn_1 /model/model.1/sub/sub.22/RDB2/conv2/conv2.1/LeakyRelu_output_0_splitncnn_1 /model/model.1/sub/sub.22/RDB2/conv3/conv3.1/LeakyRelu_output_0_splitncnn_1 /model/model.1/sub/sub.22/RDB2/Concat_2_output_0
Convolution      /model/model.1/sub/sub.22/RDB2/conv4/conv4.0/Conv 1 1 /model/model.1/sub/sub.22/RDB2/Concat_2_output_0 /model/model.1/sub/sub.22/RDB2/conv4/conv4.1/LeakyRelu_output_0 0=32 1=3 4=1 5=1 6=46080 9=2 -23310=1,2.000000e-01
Concat           /model/model.1/sub/sub.22/RDB2/Concat_3 5 1 /model/model.1/sub/sub.22/RDB1/Add_output_0_splitncnn_1 /model/model.1/sub/sub.22/RDB2/conv1/conv1.1/LeakyRelu_output_0_splitncnn_0 /model/model.1/sub/sub.22/RDB2/conv2/conv2.1/LeakyRelu_output_0_splitncnn_0 /model/model.1/sub/sub.22/RDB2/conv3/conv3.1/LeakyRelu_output_0_splitncnn_0 /model/model.1/sub/sub.22/RDB2/conv4/conv4.1/LeakyRelu_output_0 /model/model.1/sub/sub.22/RDB2/Concat_3_output_0
Convolution      /model/model.1/sub/sub.22/RDB2/conv5/conv5.0/Conv 1 1 /model/model.1/sub/sub.22/RDB2/Concat_3_output_0 /model/model.1/sub/sub.22/RDB2/conv5/conv5.0/Conv_output_0 0=64 1=3 4=1 5=1 6=110592
Eltwise          /model/model.1/sub/sub.22/RDB2/Add 2 1 /model/model.1/sub/sub.22/RDB2/conv5/conv5.0/Conv_output_0 /model/model.1/sub/sub.22/RDB1/Add_output_0_splitncnn_0 /model/model.1/sub/sub.22/RDB2/Add_output_0 0=1 -23301=2,2.000000e-01,1.000000e+00
Split            splitncnn_272            1 6 /model/model.1/sub/sub.22/RDB2/Add_output_0 /model/model.1/sub/sub.22/RDB2/Add_output_0_splitncnn_0 /model/model.1/sub/sub.22/RDB2/Add_output_0_splitncnn_1 /model/model.1/sub/sub.22/RDB2/Add_output_0_splitncnn_2 /model/model.1/sub/sub.22/RDB2/Add_output_0_splitncnn_3 /model/model.1/sub/sub.22/RDB2/Add_output_0_splitncnn_4 /model/model.1/sub/sub.22/RDB2/Add_output_0_splitncnn_5
Convolution      /model/model.1/sub/sub.22/RDB3/conv1/conv1.0/Conv 1 1 /model/model.1/sub/sub.22/RDB2/Add_output_0_splitncnn_5 /model/model.1/sub/sub.22/RDB3/conv1/conv1.1/LeakyRelu_output_0 0=32 1=3 4=1 5=1 6=18432 9=2 -23310=1,2.000000e-01
Split            splitncnn_273            1 4 /model/model.1/sub/sub.22/RDB3/conv1/conv1.1/LeakyRelu_output_0 /model/model.1/sub/sub.22/RDB3/conv1/conv1.1/LeakyRelu_output_0_splitncnn_0 /model/model.1/sub/sub.22/RDB3/conv1/conv1.1/LeakyRelu_output_0_splitncnn_1 /model/model.1/sub/sub.22/RDB3/conv1/conv1.1/LeakyRelu_output_0_splitncnn_2 /model/model.1/sub/sub.22/RDB3/conv1/conv1.1/LeakyRelu_output_0_splitncnn_3
Concat           /model/model.1/sub/sub.22/RDB3/Concat 2 1 /model/model.1/sub/sub.22/RDB2/Add_output_0_splitncnn_4 /model/model.1/sub/sub.22/RDB3/conv1/conv1.1/LeakyRelu_output_0_splitncnn_3 /model/model.1/sub/sub.22/RDB3/Concat_output_0
Convolution      /model/model.1/sub/sub.22/RDB3/conv2/conv2.0/Conv 1 1 /model/model.1/sub/sub.22/RDB3/Concat_output_0 /model/model.1/sub/sub.22/RDB3/conv2/conv2.1/LeakyRelu_output_0 0=32 1=3 4=1 5=1 6=27648 9=2 -23310=1,2.000000e-01
Split            splitncnn_274            1 3 /model/model.1/sub/sub.22/RDB3/conv2/conv2.1/LeakyRelu_output_0 /model/model.1/sub/sub.22/RDB3/conv2/conv2.1/LeakyRelu_output_0_splitncnn_0 /model/model.1/sub/sub.22/RDB3/conv2/conv2.1/LeakyRelu_output_0_splitncnn_1 /model/model.1/sub/sub.22/RDB3/conv2/conv2.1/LeakyRelu_output_0_splitncnn_2
Concat           /model/model.1/sub/sub.22/RDB3/Concat_1 3 1 /model/model.1/sub/sub.22/RDB2/Add_output_0_splitncnn_3 /model/model.1/sub/sub.22/RDB3/conv1/conv1.1/LeakyRelu_output_0_splitncnn_2 /model/model.1/sub/sub.22/RDB3/conv2/conv2.1/LeakyRelu_output_0_splitncnn_2 /model/model.1/sub/sub.22/RDB3/Concat_1_output_0
Convolution      /model/model.1/sub/sub.22/RDB3/conv3/conv3.0/Conv 1 1 /model/model.1/sub/sub.22/RDB3/Concat_1_output_0 /model/model.1/sub/sub.22/RDB3/conv3/conv3.1/LeakyRelu_output_0 0=32 1=3 4=1 5=1 6=36864 9=2 -23310=1,2.000000e-01
Split            splitncnn_275            1 2 /model/model.1/sub/sub.22/RDB3/conv3/conv3.1/LeakyRelu_output_0 /model/model.1/sub/sub.22/RDB3/conv3/conv3.1/LeakyRelu_output_0_splitncnn_0 /model/model.1/sub/sub.22/RDB3/conv3/conv3.1/LeakyRelu_output_0_splitncnn_1
Concat           /model/model.1/sub/sub.22/RDB3/Concat_2 4 1 /model/model.1/sub/sub.22/RDB2/Add_output_0_splitncnn_2 /model/model.1/sub/sub.22/RDB3/conv1/conv1.1/LeakyRelu_output_0_splitncnn_1 /model/model.1/sub/sub.22/RDB3/conv2/conv2.1/LeakyRelu_output_0_splitncnn_1 /model/model.1/sub/sub.22/RDB3/conv3/conv3.1/LeakyRelu_output_0_splitncnn_1 /model/model.1/sub/sub.22/RDB3/Concat_2_output_0
Convolution      /model/model.1/sub/sub.22/RDB3/conv4/conv4.0/Conv 1 1 /model/model.1/sub/sub.22/RDB3/Concat_2_output_0 /model/model.1/sub/sub.22/RDB3/conv4/conv4.1/LeakyRelu_output_0 0=32 1=3 4=1 5=1 6=46080 9=2 -23310=1,2.000000e-01
Concat           /model/model.1/sub/sub.22/RDB3/Concat_3 5 1 /model/model.1/sub/sub.22/RDB2/Add_output_0_splitncnn_1 /model/model.1/sub/sub.22/RDB3/conv1/conv1.1/LeakyRelu_output_0_splitncnn_0 /model/model.1/sub/sub.22/RDB3/conv2/conv2.1/LeakyRelu_output_0_splitncnn_0 /model/model.1/sub/sub.22/RDB3/conv3/conv3.1/LeakyRelu_output_0_splitncnn_0 /model/model.1/sub/sub.22/RDB3/conv4/conv4.1/LeakyRelu_output_0 /model/model.1/sub/sub.22/RDB3/Concat_3_output_0
Convolution      /model/model.1/sub/sub.22/RDB3/conv5/conv5.0/Conv 1 1 /model/model.1/sub/sub.22/RDB3/Concat_3_output_0 /model/model.1/sub/sub.22/RDB3/conv5/conv5.0/Conv_output_0 0=64 1=3 4=1 5=1 6=110592
Eltwise          /model/model.1/sub/sub.22/RDB3/Add 2 1 /model/model.1/sub/sub.22/RDB3/conv5/conv5.0/Conv_output_0 /model/model.1/sub/sub.22/RDB2/Add_output_0_splitncnn_0 /model/model.1/sub/sub.22/RDB3/Add_output_0 0=1 -23301=2,2.000000e-01,1.000000e+00
Eltwise          /model/model.1/sub/sub.22/Add 2 1 /model/model.1/sub/sub.22/RDB3/Add_output_0 /model/model.1/sub/sub.21/Add_output_0_splitncnn_0 /model/model.1/sub/sub.22/Add_output_0 0=1 -23301=2,2.000000e-01,1.000000e+00
Convolution      /model/model.1/sub/sub.23/Conv 1 1 /model/model.1/sub/sub.22/Add_output_0 /model/model.1/sub/sub.23/Conv_output_0 0=64 1=3 4=1 5=1 6=36864
BinaryOp         /model/model.1/Add       2 1 /model/model.0/Conv_output_0_splitncnn_0 /model/model.1/sub/sub.23/Conv_output_0 /model/model.1/Add_output_0
Interp           /model/model.2/Resize    1 1 /model/model.1/Add_output_0 /model/model.2/Resize_output_0 0=1 1=2.000000e+00 2=2.000000e+00
Convolution      /model/model.3/Conv      1 1 /model/model.2/Resize_output_0 /model/model.4/LeakyRelu_output_0 0=64 1=3 4=1 5=1 6=36864 9=2 -23310=1,2.000000e-01
Interp           /model/model.5/Resize    1 1 /model/model.4/LeakyRelu_output_0 /model/model.5/Resize_output_0 0=1 1=2.000000e+00 2=2.000000e+00
Convolution      /model/model.6/Conv      1 1 /model/model.5/Resize_output_0 /model/model.7/LeakyRelu_output_0 0=64 1=3 4=1 5=1 6=36864 9=2 -23310=1,2.000000e-01
Convolution      /model/model.8/Conv      1 1 /model/model.7/LeakyRelu_output_0 /model/model.9/LeakyRelu_output_0 0=64 1=3 4=1 5=1 6=36864 9=2 -23310=1,2.000000e-01
Convolution      /model/model.10/Conv     1 1 /model/model.9/LeakyRelu_output_0 output 0=3 1=3 4=1 5=1 6=1728
